libemg_3dc/split_by_samples/checkpoints/Split by repetition. subjects=22,num_epochs=50,batch_size=64,Adam(learning_rate=0.001,weight_decay=0),CosineAnnealingLR(T_max=50, eta_min=1e-05).pt (torch, 212932 bytes, 20 tensors)

conv1.weight f4 [64, 10, 5]
000000 7f 4f c5 3d 53 9a 14 3e d5 c3 97 3d ba 3e 47 3e
       0.09634303 0.14511995 0.07410399 0.19457522
000010 6f 8c ac 3c c1 8d f6 3d 9b fa c3 bc 46 fd ed ba
       0.021063058 0.12038756 -0.023923209 -0.0018157146
000020 4c 6e bb 3b 23 7c de 3d 70 2c d4 bd a7 7e 23 3e
       0.0057199355 0.10863521 -0.10360038 0.15966283
000030 9e 11 5a 3c c4 14 56 bd 2d b9 f8 3b e7 18 5a 3c
       0.013309864 -0.052265897 0.007590434 0.013311601
000040 7e ea 1b bd 55 66 db 3d c9 65 58 bd dd d0 2e 3c
       -0.038065426 0.10712878 -0.052831445 0.010669914
000050 26 af f1 3d 36 56 53 3d 3c d8 d0 3d 57 67 17 3e
       0.11800985 0.05159589 0.101974934 0.14785515
000060 ee 14 ae bd b6 19 09 3e 97 41 a9 3b 82 93 06 3e
       -0.08500086 0.13388714 0.0051652896 0.13142207
000070 64 bb ec 3d d4 a0 1d be 98 8f 03 3e d0 1e 48 3d
       0.115591794 -0.15393382 0.12847745 0.04885751
000080 4c a7 47 3d a9 09 93 3d e9 f9 e8 3d a4 78 b2 3c
       0.04874353 0.07179577 0.113757916 0.021786042
000090 ba b8 8e bd de 86 1c bd e9 12 0d be d0 79 a4 bd
       -0.069688275 -0.038214557 -0.13776745 -0.080310464
0000a0 31 b0 7a 3d 7d b1 61 bc de 79 30 3d cc 11 33 3e
       0.061203185 -0.013775227 0.04308497 0.17487258
0000b0 0e 9d b0 bc e2 70 fc 3d 3d e4 b0 bb 00 34 52 3c
       -0.021559265 0.12326218 -0.005398302 0.012829781
0000c0 b1 fb 06 3e 7c d9 45 3d a9 cc a0 bd 4d ce d9 bc
       0.1318195 0.048303112 -0.07851536 -0.02658763
0000d0 46 29 d4 3d 86 f5 22 bc f2 1f c3 bd 9a f8 ee bd
       0.10359435 -0.009946233 -0.095275775 -0.11668511
0000e0 ff 3a 70 bd 0d 23 16 3e 26 bf 07 3d 7f 0c 8f bd
       -0.058650013 0.14661808 0.033141278 -0.06984805
0000f0 1e 9c a5 bd 13 bd 5c 3e ff fe 2c bd d6 2c be bd
       -0.080864176 0.21556501 -0.04223537 -0.092858955
000100 33 9a 32 3d d6 c0 87 bd 9c 8c 71 3d 44 9d ae bc
       0.043604087 -0.066285774 0.058971986 -0.021315224
000110 9b eb 48 be 9b e1 3e 3e d7 9d 27 3e 0f 24 32 3e
       -0.19621126 0.18640749 0.16368805 0.17396568
000120 56 e3 13 be a4 c9 e9 bd 22 59 87 3e 0d 31 51 3d
       -0.1444219 -0.11415413 0.2643519 0.05107217
000130 d6 af 1d 3d 7a 0e 2e be f6 4c 6e 3c df 44 22 3e
       0.03849777 -0.1699771 0.014544716 0.15846585
000140 83 cf 07 3e b0 c8 c4 bd 95 31 7b bd 36 ee 6b bc
       0.13262753 -0.096085906 -0.061326582 -0.014400056
000150 4b 34 b4 3b f6 15 95 bb 50 4b 02 be 8d db 06 3e
       0.005499398 -0.004549737 -0.12724042 0.1316969
000160 71 3e c4 3d b6 ac 5f bd 69 0a 69 bd ec d5 6b bd
       0.09582222 -0.05460807 -0.056894694 -0.05757706
000170 8e b5 16 3d 86 1c ed 3c 17 7e d3 bd d0 4e 3d bd
       0.036794238 0.028944265 -0.10326784 -0.04621774
000180 54 b2 24 3c f7 c1 e1 3d 03 23 7f 3d d8 b3 13 be
       0.010052282 0.11023324 0.06228925 -0.14424074
000190 04 53 d4 3d 3f b0 96 bd e6 aa 79 bd ed 1d 3f be
       0.103673965 -0.07357835 -0.060953997 -0.1866376
0001a0 75 0f d5 bc 1b 37 55 3d 03 f5 aa 3c 74 7b 15 3d
       -0.026008347 0.052054506 0.020868784 0.036494687
0001b0 64 73 c4 3b b4 20 a1 3a 25 de bc 3d c7 1f be bd
       0.005995201 0.0012293071 0.09222058 -0.09283405
0001c0 a0 78 8e bc cd e9 d1 ba d8 d0 99 3c 7c 5d 8d 3d
       -0.017391503 -0.0016015113 0.018776342 0.06902596
0001d0 5c bf 0c be ab b2 50 bd 87 ea 60 3d 96 62 1b 3e
       -0.13744873 -0.05095164 0.054911163 0.15174326
0001e0 a2 ef e5 bd 3b 78 25 bd 62 73 98 3d cd d6 cb bd
       -0.11227347 -0.040397864 0.074438825 -0.099530794
0001f0 a9 e6 d2 3d 34 0d 03 be 0d 4e a3 3d 95 2c 5d 3e
       0.10297901 -0.12798005 0.079738714 0.21599038
000200 b5 c7 5c 3e bc f8 0c 3e f2 8e 18 bd 95 2e 8d bc
       0.21560557 0.1376676 -0.0372457 -0.017234126
000210 43 66 77 bc 3d 9a 6a bd 6c c1 ab bc 76 db e4 bd
       -0.015100065 -0.057276 -0.020966254 -0.11174671
000220 a0 8a c8 3d 95 6d c6 3d 76 39 0c 3d 0e ea aa bd
       0.097920656 0.0968887 0.034234487 -0.08345424
000230 6f d0 fe 3a d4 91 c3 b9 88 ff 9b b8 15 4f ae 3d
       0.001944078 -0.0003730195 -7.438572e-05 0.085111775
000240 a1 34 48 bd 79 e9 09 bd e6 d3 2c 3d 17 94 b2 3d
       -0.048878316 -0.033669923 0.04219427 0.08719652
000250 54 40 2b be 9e 17 33 be b4 ca a1 b9 a4 e5 f2 39
       -0.16723758 -0.17489478 -0.0003085934 0.00046328933
000260 e0 89 ba bd 6d 50 5f 3c 4a 3d b3 3d 57 5f 18 3e
       -0.09108329 0.013630015 0.08751924 0.1488012
000270 48 f6 f3 bc 13 4d 33 bd 2c 22 0f be 60 3d 31 3e
       -0.029780522 -0.043774676 -0.1397788 0.17308569
000280 d4 4b 2d 3d 95 5c 05 3e a4 c3 50 be 54 ca 1a bb
       0.042308643 0.13023598 -0.20387131 -0.0023619132
000290 2b 75 fb 3c c1 fb 5c 3e dd 73 7b 3d b5 9f bb 3d
       0.030695518 0.21580411 0.061389793 0.09161321
0002a0 9c f3 b0 3d db 02 73 3c 68 7c 80 3c 0e 8c d9 bd
       0.08640215 0.014832224 0.015684322 -0.106224164
0002b0 05 76 4b bc 92 2b 2e 3d e1 a3 1a be 71 3a 11 be
       -0.012418275 0.04252202 -0.15101577 -0.1418245
0002c0 56 64 b8 bd 1a 19 a6 3c a1 55 01 3e c4 a6 26 bd
       -0.090035126 0.020275641 0.12630321 -0.040686384
0002d0 0f 96 3e bd d9 bd f5 3c ec 01 1a 3e fc 7f 4d bc
       -0.046529826 0.029997753 0.15039796 -0.012542721
0002e0 d9 93 c8 bc 75 2f 21 be 2f 84 4d bd 42 4b 5e 3e
       -0.024484562 -0.1574076 -0.05017489 0.21708396
0002f0 76 5c 02 3e 6e 9f 89 be 6c 1c a1 bd 6c 64 c4 bd
       0.12730584 -0.26879448 -0.07866749 -0.095894665
000300 fc db da 3d 7f 13 b3 3d ff 83 eb bd f2 ab 69 bd
       0.1068649 0.08743953 -0.11499786 -0.057048745
000310 62 e8 99 3d 77 2e a2 bc dc 17 d9 3d 8b 53 86 bd
       0.07515027 -0.019797547 0.10600254 -0.06558903
000320 41 4e eb bd 87 e6 81 3c c4 61 1e 3e 88 18 a7 bd
       -0.11489535 0.015856994 0.15466982 -0.08158976
000330 85 4c 63 be ac fd 93 3b aa 4e 74 3d 9b ae c0 3d
       -0.22197159 0.004516324 0.059645332 0.09408303
000340 b1 ae 0e bd 34 03 31 3a fc 38 02 be 89 58 8f 3b
       -0.034834567 0.00067524915 -0.1271705 0.004374568
000350 fb 90 1c 3e 37 53 d4 bd d5 e4 fe bc c3 41 61 3d
       0.1528968 -0.103674345 -0.031114975 0.054994356
000360 d5 91 17 3e c8 40 62 bc 9e 01 d3 3b 3c d5 8e 3d
       0.14801724 -0.01380939 0.006439402 0.06974265
000370 b8 50 c5 bd de dd 2c bd 4b 0b ba 3d ae a1 4f bd
       -0.096345365 -0.042203777 0.09084185 -0.0506913
000380 32 e4 92 bb 71 3e e5 bd e6 e3 94 bd ec 1a 15 be
       -0.0044827694 -0.111935504 -0.07270031 -0.14561051
000390 4d 60 c4 3c 2c f3 99 3d 20 8c f2 3b 3e 74 13 3d
       0.023971701 0.075170845 0.007401958 0.03599953
0003a0 56 d6 42 bc a9 4b 9c 3d b9 4c 8d 3c 10 76 a6 3c
       -0.011891922 0.076316185 0.017248498 0.020319968
0003b0 43 6b 2f 3c 09 82 b5 bd b6 10 a3 bd 19 dc 24 3e
       0.0107067255 -0.08862693 -0.07962172 0.16099586
0003c0 b9 1b 0d 3e 1c 14 13 ba f5 1b e9 bd 25 90 18 3d
       0.13780107 -0.00056106015 -0.113822855 0.037246842
0003d0 b6 45 1e 3e 7b 52 18 3e d8 aa dc bd b3 23 d9 bd
       0.1545628 0.14875214 -0.10774773 -0.10602512
0003e0 5a dc e0 3d 8d 52 d2 3c b1 e5 2a 3d 94 a5 73 bd
       0.10979529 0.025674129 0.041722957 -0.05948408
0003f0 6c 42 cc 3d 75 13 0e be dd 24 41 bd b8 44 b3 3d
       0.099736065 -0.1387461 -0.047154296 0.087533414

conv1.bias f4 [64]
000000 58 f8 88 bb 3e c0 19 bc 93 d9 c1 3c 46 06 83 3c
       -0.0041799955 -0.009384213 0.023663318 0.015994202
000010 02 86 cd 3b 9e 31 4a b9 d4 af 89 3c 59 50 c9 3c
       0.0062720785 -0.00019282705 0.016807474 0.024574446
000020 fc 18 a4 bc 0e 52 ee bb 17 bc b0 bb c4 e2 85 bb
       -0.020031445 -0.0072729653 -0.005393516 -0.0040858705
000030 56 90 21 bb 10 54 7c bb 6a c1 bb 39 f6 ec 0b bc
       -0.0024652681 -0.0038502254 0.00035811524 -0.008540383
000040 af 72 29 bb ed 45 2e 3c 20 eb 5f 3c c4 ec 4f bc
       -0.002585571 0.010636789 0.013666898 -0.012690727
000050 73 27 28 bc 57 14 77 bc cd 0b 85 bc cd d0 0b bd
       -0.010263312 -0.015080533 -0.016240979 -0.034134675
000060 f6 89 c6 3c 9d a5 5f 3c a7 f5 3d 3c ed 91 87 bb
       0.024235707 0.013650325 0.011594213 -0.0041372688
000070 eb dc 6b 3c 90 f9 e7 3b e8 d1 d2 3c 75 7f 80 bb
       0.014395933 0.0070793107 0.025734857 -0.003921444
000080 b7 72 a4 bc d0 43 23 39 28 99 ca 3c 71 35 2a 3d
       -0.020074232 0.00015570153 0.024731234 0.041554872
000090 02 bd 87 3c f1 28 e6 3b 5d b4 2d 3c ea 48 0e 3c
       0.016569618 0.0070239236 0.010602084 0.008684376
0000a0 35 b5 6c 3a 13 96 1e 3c 6d db 68 bc e1 48 49 bb
       0.00090296875 0.009679335 -0.014212471 -0.0030713605
0000b0 3c 33 88 3c fc 61 22 bb c2 5a 9b bc a5 08 00 3b
       0.016625993 -0.0024777642 -0.018964175 0.0019536403
0000c0 08 3d d9 3b db 9a 36 bc 81 41 3a 3c c4 50 33 bc
       0.00662959 -0.011145319 0.011368156 -0.010944549
0000d0 43 6f 06 3b 4c cc 82 bc 78 ff 0f 3b ab ef a0 3c
       0.0020513094 -0.015966557 0.002197234 0.019645533
0000e0 5b 0f 2d 3b 0b d6 fe 3c a5 fc 05 bd c5 56 20 b8
       0.0026406858 0.031107923 -0.032711644 -3.8227783e-05
0000f0 f9 64 83 bc 0f 0b 44 3c 72 19 a8 3c d6 5f ab 3b
       -0.016039358 0.011965527 0.020519946 0.0052299304

bn1.weight f4 [64]
000000 24 28 52 3f 9a 6f 85 3f cf 09 80 3f 6f 02 8d 3f
       0.820925 1.0424683 1.0002993 1.1016368
000010 4f 64 83 3f 17 04 7e 3f 2b ac 89 3f 0b c0 78 3f
       1.0264987 0.9922499 1.0755666 0.97168034
000020 26 ac 88 3f e9 28 80 3f dc da 68 3f 23 6e 73 3f
       1.0677536 1.0012485 0.9095895 0.9508993
000030 82 b6 86 3f a1 29 69 3f c7 be 66 3f f9 c3 80 3f
       1.0524447 0.91079146 0.90134853 1.0059806
000040 6c bc 6e 3f 95 8d 83 3f 38 5c 7a 3f 86 04 7e 3f
       0.9325626 1.0277582 0.97796965 0.9922565
000050 eb 1b 7d 3f 2e 62 78 3f 15 16 81 3f 02 e9 98 3f
       0.98870724 0.9702481 1.0084864 1.1946108
000060 87 85 7f 3f d4 e9 72 3f c0 e7 82 3f db e2 58 3f
       0.9981312 0.94888043 1.0226974 0.84721154
000070 6a 28 80 3f 66 fc 79 3f 93 75 7b 3f df 5d 73 3f
       1.0012333 0.97650754 0.9822628 0.9506511
000080 f1 68 7b 3f 14 40 70 3f 1b 0b 80 3f 14 7f 83 3f
       0.98207 0.93847775 1.0003389 1.0273156
000090 da 15 82 3f 59 5e 83 3f 9a b2 82 3f 44 0d 7d 3f
       1.0162919 1.0263168 1.0210755 0.98848367
0000a0 50 44 75 3f b0 93 75 3f 0c d3 84 3f d2 4c 7a 3f
       0.9580736 0.9592848 1.0376906 0.9777347
0000b0 e0 f2 80 3f d5 de 6a 3f 95 eb 86 3f ec 17 7a 3f
       1.007412 0.91746265 1.0540644 0.9769275
0000c0 ac 04 81 3f 6a 65 80 3f 89 1e 6f 3f 84 80 83 3f
       1.0079551 1.0030949 0.9340597 1.0273595
0000d0 5a 56 70 3f a4 8b 73 3f 8a 05 82 3f 14 bf 82 3f
       0.9388176 0.9513495 1.015794 1.0214562
0000e0 a0 0d 6b 3f c5 ee 84 3f 29 bb 83 3f 95 85 81 3f
       0.91817665 1.0385367 1.0291492 1.0118891
0000f0 1e b2 80 3f c9 30 76 3f 4a 62 7e 3f e0 6f 8b 3f
       1.0054357 0.9616819 0.9936873 1.0893517

bn1.bias f4 [64]
000000 e0 a3 27 be 2d d8 f2 3c 52 ec 02 bc 0c 4c 9d 3c
       -0.16371107 0.029644096 -0.007990913 0.019201301
000010 c6 d6 65 3b 0a a6 30 3d 78 ad 38 3a 06 8c 46 3e
       0.0035070642 0.043127097 0.0007044892 0.19389352
000020 e6 1b 0c bd 91 3b 37 3c e1 01 31 be c0 82 b0 3c
       -0.034206294 0.011183635 -0.17285873 0.021546721
000030 79 e6 33 bd 65 01 04 bb 3d e7 fd bd 3c 30 23 bd
       -0.043920968 -0.0020142433 -0.12397621 -0.03984092
000040 20 d5 0b 3e 35 5c 37 bc 6a 9a 48 3d 0a ba b6 3d
       0.1365552 -0.011191417 0.048975386 0.08922203
000050 b3 c9 8d bc 48 c9 24 be 90 c7 fc bb 0b 08 bd bc
       -0.017308092 -0.16092408 -0.0077142194 -0.023075124
000060 23 c7 2d 3b 61 f1 67 3d 2c f9 16 bc 53 83 b2 bd
       0.00265164 0.05662668 -0.009214681 -0.08716454
000070 e6 45 d7 3c 9a 3b 88 3d d5 00 50 3d 66 e5 94 3b
       0.026278447 0.06651993 0.050782043 0.004543948
000080 63 d0 6a 3d 62 4e 8f 3c 11 00 d4 3d c8 72 ba bd
       0.05732764 0.01749343 0.10351575 -0.09103924
000090 cb 96 98 bc 8c 28 82 bd 08 fb 71 bd 40 c1 38 bd
       -0.018626591 -0.0635539 -0.059077293 -0.045106173
0000a0 99 68 40 3e 0d 3a 74 3d ab 15 00 3c 65 29 52 3d
       0.18789901 0.059625674 0.007817666 0.05130901
0000b0 97 fb 0b bd 8a d8 30 bd f2 f8 a5 3d 11 1a 47 bb
       -0.03417548 -0.043175258 0.08104123 -0.0030380527
0000c0 47 9f 15 3d 60 e1 af bd 1e 7e fa 3c 5a 85 b4 bd
       0.03652885 -0.08587909 0.030577715 -0.08814497
0000d0 55 b2 c3 bd b3 64 d0 3d ba e8 44 3d 1c 3f 36 3d
       -0.095554985 0.10175457 0.048073508 0.04449378
0000e0 c3 98 3e bc a6 59 32 3c d0 88 78 bc 39 7f e4 3c
       -0.011633101 0.010885632 -0.015169337 0.027892696
0000f0 27 cc 95 bc 2f b9 8c 3c 9a 14 e7 3b 93 28 48 3b
       -0.018285824 0.017178146 0.0070520164 0.0030541762

bn1.running_mean f4 [64]
000000 38 65 b3 bb 2b 24 0f bc 71 5d c1 3c 45 e0 7a 3c
       -0.0054747127 -0.00873665 0.023604127 0.015312259
000010 54 cc d6 3b f3 d3 89 ba 6d ec 88 3c a2 5f be 3c
       0.0065551195 -0.0010515436 0.0167143 0.02323896
000020 65 d1 9a bc ab a5 00 bc e5 87 cf bb 89 3a ac bb
       -0.018898675 -0.007851998 -0.0063333386 -0.0052560014
000030 d0 14 ad ba 82 bc 33 bb 88 2e b6 ba c6 ab 0b bc
       -0.0013205055 -0.0027425592 -0.0013899365 -0.008524841
000040 aa a6 3c bb 69 37 0e 3c 60 91 48 3c 8a 28 4b bc
       -0.0028785863 0.008680203 0.012241691 -0.012399802
000050 6a 24 24 bc 5a 35 8a bc 5e 70 81 bc d1 c7 0e bd
       -0.010018447 -0.016871143 -0.015800651 -0.03485853
000060 8c af b6 3c c4 c0 68 3c a1 1e 34 3c fd d2 99 bb
       0.022300504 0.014206115 0.010993631 -0.004694341
000070 6b 08 5f 3c bc ef cd 3b 2e 01 cf 3c 21 a8 a6 bb
       0.013612847 0.006284682 0.025269117 -0.0050859605
000080 7a 1a a1 bc a2 1a d3 38 42 38 c4 3c 08 de 2b 3d
       -0.019665945 0.00010066225 0.023952607 0.041959792
000090 75 d6 8f 3c 47 66 cf 3b 34 b8 1b 3c 82 5e 0a 3c
       0.017558316 0.006329331 0.009504367 0.008445384
0000a0 70 e7 cf 3a 82 26 1d 3c 30 98 79 bc fa 31 a4 bb
       0.001586182 0.0095917005 -0.015234038 -0.0050108405
0000b0 26 83 84 3c f3 cf 73 bb 0b 3e 95 bc 6a 97 f3 3a
       0.016175818 -0.0037202805 -0.018218061 0.0018584554
0000c0 bc f0 cb 3b e1 40 49 bc ba 39 1c 3c 53 16 31 bc
       0.006223766 -0.012283535 0.009535247 -0.010808545
0000d0 45 ee 39 3a df 26 86 bc 46 07 b5 3a b6 6d 8d 3c
       0.0007092695 -0.016375957 0.0013811372 0.017264228
0000e0 40 5a 05 3b ab 2e f4 3c cc 62 05 bd bc 46 5d 39
       0.0020347983 0.02980741 -0.032564923 0.00021102553
0000f0 f3 08 7e bc c5 b8 43 3c 70 ee c0 3c ae 5a a6 3b
       -0.015505063 0.011945908 0.023551196 0.005076728

bn1.running_var f4 [64]
000000 6b b9 22 3f da 30 df 3e b1 a1 68 3f 24 d2 00 3f
       0.63564175 0.43591958 0.9087172 0.5032065
000010 cc e7 b8 3e be 36 09 3f 4d da 90 3e b2 13 19 3f
       0.36114347 0.53599155 0.2829155 0.5979568
000020 2c 46 b7 3e 34 8d 57 3f da 7b 50 3f 2f 23 18 3f
       0.35795724 0.84199834 0.8143898 0.59428686
000030 19 1f 51 3f aa 8b 10 3f 4b 9f b2 3e dd 04 0c 3f
       0.81688076 0.5646311 0.34887156 0.5469492
000040 f6 32 aa 3e 98 4a 36 3f 8a 8e 8a 3e 14 f4 b9 3e
       0.33242005 0.7120757 0.27061874 0.3631903
000050 50 37 18 3f 1a 62 03 3f fc 45 04 3f 80 b4 5e 3e
       0.594594 0.51321566 0.5166929 0.21748543
000060 1e 73 c6 3e e0 40 20 3f 10 fe 10 3f 8c 01 92 3f
       0.38759702 0.6259899 0.5663767 1.1406722
000070 74 ca 13 3f 1c 05 f5 3e 88 c2 24 3f ad e1 96 3e
       0.57730794 0.4785546 0.6435933 0.29469052
000080 58 0b 3a 3f 8b 6c 1c 3f 00 73 62 3e 78 7a 89 3e
       0.7267356 0.61103123 0.22114182 0.2685125
000090 58 2c 1c 3f 46 d9 fa 3e 1d 3a a3 3e b4 d7 0b 3f
       0.61005163 0.4899389 0.31880274 0.5462601
0000a0 04 d5 3a 3f e8 57 08 3f fc 6e b4 3f e8 33 7d 3f
       0.72981286 0.53259134 1.409637 0.9890733
0000b0 3f cf 02 3f 57 7b 30 3f c5 00 20 3f df 9b 31 3f
       0.5109748 0.689382 0.62501174 0.69378465
0000c0 71 b0 d6 3e f1 35 76 3f bc 8f 0b 3f f0 20 38 3f
       0.4193149 0.9617606 0.54516196 0.7192526
0000d0 ed 72 1c 3f 9b da c1 3e aa 40 0d 3f 48 a8 b0 3e
       0.6111286 0.37862095 0.55176795 0.34503388
0000e0 86 d5 71 3f 3b a8 0b 3f 74 79 22 3f 0e 56 74 3f
       0.94466436 0.54553574 0.6346657 0.9544381
0000f0 3f ff 48 3f 48 50 14 3f fd a8 19 3f 1a 57 14 3f
       0.78514475 0.57935 0.6002348 0.57945406

conv2.weight f4 [32, 64, 5]
000000 da 28 a2 bd 55 b1 59 3d 69 5d 8d bd 19 f7 11 3e
       -0.07917948 0.053147633 -0.06902582 0.14254417
000010 c6 14 ea ba cd 15 df 3d 1c 07 9f bd 80 80 ff bd
       -0.0017858974 0.1089283 -0.07765028 -0.12475681
000020 7e 86 97 3c 8b b7 81 bd 1a 56 e8 bd 5c de 25 be
       0.018496748 -0.06333836 -0.113445476 -0.16198105
000030 9e 4f d2 bd 4b 9a a0 bd 6e 9f 59 be b5 5e 10 be
       -0.10269092 -0.07841929 -0.21252224 -0.14098628
000040 b4 e4 4f 3d 39 e4 15 be d8 b8 03 be 88 8e 3d be
       0.050755218 -0.14637841 -0.12863481 -0.18511403
000050 ba 0a 1f be df 01 b3 bd d9 0a 74 bc 56 0a bd 3d
       -0.15531436 -0.08740591 -0.014895164 0.09230487
000060 14 db 6f bc c6 68 dc bd 74 1a 8c bd 65 75 80 3d
       -0.014639635 -0.107621714 -0.06840983 0.06272391
000070 ea ba 96 3c d3 95 e0 bd 7f 92 96 bd cd 70 7c bd
       0.018399674 -0.10966077 -0.07352161 -0.061631013
000080 92 ff 51 3c 92 68 35 3d aa 9e d2 bd 7d b3 bb 3b
       0.01281728 0.04428918 -0.10284169 0.005728184
000090 8f 3f 17 be 3c 0b 44 bd 3d 00 73 3c 56 d8 23 be
       -0.1477034 -0.047862276 0.0148316 -0.16000494
0000a0 bb 06 a4 3d b3 30 d7 bc 58 29 2f bc d9 cc f9 3d
       0.08009096 -0.026268339 -0.010691009 0.12197275
0000b0 3c 7c 9f bd 74 0a 0c bd fa 5f d7 3d e5 04 82 3d
       -0.07787368 -0.034189656 0.10516353 0.0634859
0000c0 f4 d9 42 3d 3d 95 3a bd 4d 67 98 bd f7 c9 ef bc
       0.047571138 -0.04555248 -0.07441578 -0.029271109
0000d0 c9 d9 a9 3d 21 b0 0f 3b 55 19 01 3d a9 19 b3 bd
       0.08293492 0.002192505 0.0315183 -0.08745129
0000e0 5c 30 18 be 0c 9f c5 3c 37 d0 8c bd 4e 55 1b be
       -0.14862198 0.024123691 -0.06875651 -0.1516926
0000f0 b3 cb 12 3d 6e d7 dc bd 8c 5d 4d 3d ae 43 68 3d
       0.035838794 -0.107832775 0.05013804 0.05670517
000100 91 9b d9 bc a7 91 11 be ce c0 17 be ce 66 57 3d
       -0.026563438 -0.14215718 -0.14819643 0.052588277
000110 d8 5f 0d be 76 07 95 bd ca 56 44 bd 60 97 78 bb
       -0.13806093 -0.07276814 -0.04793433 -0.0037932023
000120 be 8c 2c bd fe dc 52 3d b1 c5 71 3d 8d 46 ba 3d
       -0.04212641 0.051480286 0.059026424 0.09095488
000130 29 4f ac bd d4 d5 37 3d 2d 17 f0 bd 4a ec 49 3d
       -0.08413536 0.044881657 -0.117231704 0.04929761
000140 ad c7 b5 bd e5 18 2b bc 4e ed 99 bd f1 9c 0e 3e
       -0.08875976 -0.010442947 -0.075159654 0.13927056
000150 0d fe 93 3d 47 03 3c be f7 a5 9d bb 28 be 04 3d
       0.07226191 -0.18360625 -0.0048110443 0.03240791
000160 83 e0 ab 3b 32 10 3b be af c9 72 bd 8f 3f d5 bc
       0.0052452697 -0.18267897 -0.05927437 -0.026031284
000170 59 51 81 bd d6 12 a8 3d 8e e9 26 3c 4c 1c 56 3c
       -0.06314344 0.08206718 0.01018752 0.01306827
000180 fe c7 b2 3c 18 a8 e1 3d 7d ab a1 bd dd 67 cc 3d
       0.02182388 0.110183895 -0.07894037 0.09980748
000190 40 bc 13 bd 85 5a b7 bc b1 47 67 bc 3c 9e b4 3c
       -0.0360682 -0.02238203 -0.014116214 0.022048108
0001a0 fc 70 ba bd 4b 2c a5 bd 40 44 7d bd bc 41 82 3d
       -0.09103581 -0.08065089 -0.061832666 0.06360194
0001b0 c6 fd b7 bd 9b 78 89 bd 2b 25 60 be c6 19 c7 bd
       -0.0898395 -0.06712457 -0.21889178 -0.09721713
0001c0 aa a7 40 be f9 2e b8 bd 1e 66 c2 bd 4c ca 02 be
       -0.18813959 -0.08993334 -0.094921336 -0.12772483
0001d0 9e 72 88 3d 18 c5 42 be 55 ef 6f bd d2 4b 92 bc
       0.066624865 -0.19020498 -0.058577854 -0.01785842
0001e0 d3 de 88 3b 58 62 4e 3d e0 a6 4b bc e5 a9 95 3c
       0.0041769533 0.050386757 -0.012429923 0.018269489
0001f0 46 ff 06 be cc 8c 45 bc 15 63 fe 3d 80 3d 30 3d
       -0.13183317 -0.012057494 0.12421242 0.0430274
000200 d9 ae 45 3d f7 9a 88 bd 6d 9d a5 bd d1 52 a3 bd
       0.04826245 -0.06670182 -0.08086667 -0.0797478
000210 92 f9 e2 bd 6a 76 96 bc 79 26 0b 3d 02 42 f9 bd
       -0.11082758 -0.018367011 0.033972237 -0.12170793
000220 78 34 f1 bb 2e 03 1e be df 79 19 be 1d 49 ce bd
       -0.007360991 -0.154309 -0.14987896 -0.10072539
000230 5f 39 62 3d a4 da 03 3c 06 67 73 3c df 2f f0 3d
       0.055230495 0.008047733 0.014856106 0.11727881
000240 c8 fc b4 3d ed 23 56 3d 0c 81 c9 3d 52 ab 2f 3d
       0.08837277 0.052280355 0.09839067 0.042887993
000250 35 9a 50 3c 12 41 8f 3c c6 a7 6f bc d7 04 09 be
       0.012732078 0.017487083 -0.014627403 -0.13380753
000260 0a b8 3d 3c 70 02 87 bd cd 60 23 be 52 3c 44 bc
       0.011579523 -0.06592262 -0.15954895 -0.011977272
000270 60 48 24 3e 0d a3 c1 3c 1d f6 b6 bc 6a 66 15 bc
       0.16043234 0.023637319 -0.022334153 -0.009118656
000280 8d 5d be 3d f5 16 41 bd 60 3b 89 3c 70 b2 e7 3d
       0.09295187 -0.047141034 0.016751945 0.11313331
000290 74 6a a6 3c cc 49 f1 bd f0 d6 c5 3c 10 15 ac bd
       0.020314433 -0.11781654 0.024150342 -0.08402455
0002a0 20 73 fe bc 21 16 22 bd f2 f7 37 3d 86 23 d1 3d
       -0.031060755 -0.039571885 0.044914193 0.10211854
0002b0 53 07 4b 3d 63 1b b0 3c 82 a2 9b bd 1d 15 4c 3d
       0.04956753 0.021497434 -0.07599355 0.049824823
0002c0 db 22 05 be f3 2e e3 bc 46 82 5b bb 40 61 2f bb
       -0.13001578 -0.027732348 -0.0033494397 -0.0026760846
0002d0 62 c4 46 bb 0c c6 6b 3c 92 6f 3c bc ca 08 17 be
       -0.0030329456 0.01439048 -0.01150121 -0.14749447
0002e0 c3 70 ac bd ba 8e dc 3d 49 27 df 3c 1d 7d fc 3d
       -0.08419945 0.107694104 0.027240412 0.12328551
0002f0 af 04 61 3e f2 ef 23 3d 58 74 43 3d 58 16 c6 3d
       0.21974443 0.04002375 0.047718376 0.096722305
000300 3b 83 94 3b 82 d9 24 3e df 6d 4e 3c 98 0c 51 3d
       0.0045322455 0.16098598 0.0125994375 0.0510374
000310 ea 97 8b 3d 5f cd 9b 3c 1b 0d e4 3d 6d 43 37 3d
       0.06816085 0.019018827 0.11135312 0.044742037
000320 96 ef f0 bd 9f 78 b7 bd ac 07 5f bd f8 94 a3 3c
       -0.117644474 -0.089585535 -0.054450676 0.019968495
000330 c4 f1 a5 bc c0 71 dc bd e3 29 cf bd 85 4a 15 bc
       -0.020256884 -0.107638836 -0.10115411 -0.009112005
000340 27 06 01 be ab ba cf bd 4f 1a 7b bd a4 eb 3d be
       -0.12600003 -0.10143026 -0.061304387 -0.18546921
000350 26 66 87 bd 1d e8 10 be 21 d6 80 be 3f 23 e1 bd
       -0.0661128 -0.14151044 -0.25163367 -0.10993051
000360 05 c7 48 3d 4c 9b 6b be 84 a8 56 be cf 60 95 be
       0.049017925 -0.2300846 -0.20962721 -0.29175422
000370 cc 79 f2 3d 48 27 c8 3d b5 0e cd 3c 1a 59 8d 3d
       0.11839637 0.09773117 0.025031427 0.069017604
000380 7b df c5 3d 39 73 7b 3b f2 53 78 bd b1 d5 96 bd
       0.09661766 0.0038368239 -0.06062693 -0.07364977
000390 41 bf 88 3d 50 7d b8 bd 7c 96 c1 3d 0c f2 f8 3d
       0.06677104 -0.090082765 0.09452531 0.12155542
0003a0 c8 dd 94 bd 49 b6 99 3d dc 90 c2 bb d6 31 81 3a
       -0.07268864 0.07505471 -0.0059376787 0.0009856771
0003b0 d8 47 f3 3b 36 bc fc 3c d2 c4 3a 3d d4 20 11 bd
       0.007424336 0.030851465 0.04559786 -0.035431698
0003c0 5b 7e 7d 3d 99 24 1a bd e8 60 59 3d 4b ec 27 3d
       0.06188808 -0.03763256 0.053070933 0.04099683
0003d0 c7 65 be 3c c7 b0 e3 bd 35 e6 14 be eb b5 0a be
       0.02324189 -0.11117702 -0.14540942 -0.13545959
0003e0 32 0d a3 3c 0b 11 24 bd fb d5 39 3d 67 3a db bd
       0.019903753 -0.040055316 0.045370083 -0.10704499
0003f0 5e d7 bf bd 4d 39 c8 3c 59 1e a8 bd 5e ff e3 bd
       -0.0936725 0.024441386 -0.08208913 -0.11132692

conv2.bias f4 [32]
000000 6f c0 5b 3c 4a bb 48 3c 40 c4 87 bb 7b d0 38 39
       0.013412579 0.012251684 -0.004143268 0.00017625272
000010 77 74 d6 bb eb 0f 2c 3c e5 a8 a2 3a 0d 16 9e bb
       -0.0065446454 0.010501842 0.0012409954 -0.004824406
000020 9d 37 37 3a c0 fa c0 3b a7 f7 fc ba 13 6c 49 3c
       0.0006989183 0.0058892667 -0.001929988 0.012293833
000030 ff 0b 88 bb ca 3d 1e 3c 69 16 32 3c f2 09 ad 3a
       -0.0041518207 0.009658286 0.010869601 0.0013201816
000040 03 e6 ab bb 55 0b 5d 3c e8 76 0b bb d0 e2 0d 3b
       -0.0052459254 0.013491471 -0.002128059 0.0021650083
000050 61 29 b1 3c 17 d8 4f 3c 28 ec 33 3c 97 2e b1 bb
       0.021626176 0.012685797 0.010981597 -0.0054071653
000060 32 f4 54 ba 41 da 0b bc df cb f8 3b 67 7f e2 3a
       -0.0008123546 -0.0085359225 0.0075926627 0.00172804
000070 7f c2 53 3a fa a2 96 3b 06 41 7f 3b e5 52 49 3c
       0.00080779934 0.004597065 0.003894867 0.01228783

bn2.weight f4 [32]
000000 ae ed 87 3f a9 26 7d 3f 52 a0 87 3f bc 1d 83 3f
       1.0619409 0.98887116 1.0595801 1.0243449
000010 e4 be 8b 3f 0f e3 89 3f a7 75 6f 3f 80 76 81 3f
       1.091763 1.0772418 0.935389 1.0114288
000020 0c 2b 7e 3f bb f6 89 3f a5 09 66 3f a7 1c 82 3f
       0.99284434 1.0778421 0.89858466 1.0164994
000030 8a 1e 7e 3f c0 ba 83 3f 7e 2b 89 3f 2a 28 6d 3f
       0.9926535 1.0291367 1.0716398 0.9263941
000040 16 16 7f 3f 01 30 84 3f 54 da 85 3f 66 8d 82 3f
       0.99643075 1.032715 1.0457253 1.0199401
000050 90 5d 7e 3f 0a 63 86 3f d6 22 83 3f 84 8c 7d 3f
       0.99361515 1.0498974 1.0245006 0.99042535
000060 88 57 75 3f 05 9e 70 3f 78 c9 88 3f bb 00 56 3f
       0.9583669 0.9399112 1.0686483 0.83594865
000070 91 bf 69 3f 0c 55 58 3f 64 77 85 3f b9 d4 82 3f
       0.9130793 0.8450477 1.042706 1.0221168

bn2.bias f4 [32]
000000 f3 b6 b0 3c b2 57 c9 bc 69 27 ff bd 6b 27 d9 bd
       0.021571612 -0.02457795 -0.12458689 -0.106032215
000010 f5 28 f2 ba 84 bc 74 bd 2a 0f 10 be 23 d5 bf bd
       -0.0018475341 -0.059750095 -0.14068285 -0.093668245
000020 f0 6d a4 bd 9c 61 88 3b 73 58 ca bd 7f 23 e6 bc
       -0.080287814 0.0041620266 -0.098801516 -0.028093098
000030 ce 05 b2 bd a9 44 64 bd f7 76 0d 3d 43 4a a2 bd
       -0.086925134 -0.055729542 0.03453728 -0.079243205
000040 68 32 ac 3c ff 46 c2 bd fb 4f 9d bd 24 e5 b2 3c
       0.02102013 -0.09486198 -0.07681271 0.021837778
000050 d4 e5 fa bd 55 2d 97 bd eb 73 b2 bd 47 17 6d bd
       -0.122508675 -0.07381693 -0.08713516 -0.057883527
000060 f6 c3 82 3a 60 e2 4f be 94 30 ed 3b e2 67 f3 bd
       0.0009976614 -0.20301199 0.007238457 -0.118850484
000070 44 36 b6 bd 91 07 d8 bd e6 80 90 3c 7c 75 57 bd
       -0.08897069 -0.10548318 0.017639589 -0.052602276

bn2.running_mean f4 [32]
000000 18 0b 05 c0 03 4b bf bf ac 18 90 bf dc 68 ad bf
       -2.078802 -1.4944767 -1.1257529 -1.3547626
000010 e8 90 c2 bf 0c 89 a8 bf 57 ba 22 3f 42 94 92 bf
       -1.5200472 -1.3166823 0.6356558 -1.1451495
000020 b5 4f 93 bf de 05 fa bf 6b 93 2c 3f 1a 6a ee bf
       -1.15087 -1.953304 0.6741244 -1.862613
000030 f7 7a 97 bf 7a cc 6b bf 91 27 cb bf 1d 33 51 bf
       -1.1834401 -0.9210888 -1.587145 -0.8171862
000040 71 5f 2a bf 7e fc 83 bf c1 c1 ce bf 13 bb f3 bf
       -0.6655188 -1.031143 -1.6152879 -1.9041466
000050 80 3b b5 bf f0 7d a1 bf 33 c4 a1 bf 70 dc db bf
       -1.4158783 -1.2616558 -1.2638 -1.7176647
000060 7e 4a 2b bf e2 ed 6d bf 5a e1 94 bf 2d 40 28 3f
       -0.6691054 -0.92941105 -1.1631272 0.65722924
000070 b5 f5 71 bf 92 77 a4 3f be 27 dd bf 3f 71 ba bf
       -0.94515544 1.284899 -1.7277753 -1.456581

bn2.running_var f4 [32]
000000 0c bd b2 40 6f c3 7d 40 4b 33 52 40 86 ee 4c 40
       5.585577 3.9650533 3.2843807 3.2020583
000010 d5 b4 9a 40 b4 12 4f 40 e8 e4 00 40 3d 93 25 40
       4.834574 3.2355165 2.0139713 2.5871117
000020 a4 d8 0d 40 52 39 a7 40 41 d0 15 40 33 3f b8 40
       2.2163477 5.225747 2.3408358 5.7577147
000030 38 63 2c 40 79 69 26 40 00 19 59 40 92 49 5f 40
       2.6935558 2.6001875 3.3921509 3.4888654
000040 03 64 02 40 f0 b5 0c 40 8e ba 79 40 4a aa b3 40
       2.0373542 2.1986046 3.9020114 5.6145372
000050 e5 4c 4b 40 7a fc 4c 40 30 21 42 40 ce 6a 8e 40
       3.1765683 3.20291 3.0332756 4.4505377
000060 81 8d 13 40 3f 6a 11 40 a0 b5 12 40 f1 7c 21 40
       2.3055117 2.2721097 2.2923355 2.5232508
000070 32 30 24 40 92 df 42 40 b9 3b ae 40 f2 a1 95 40
       2.5654416 3.0448956 5.4447904 4.6760187

conv3.weight f4 [16, 32, 5]
000000 62 12 c3 bd 60 c5 ff bd d8 fb 06 bd 39 08 52 3d
       -0.095249906 -0.12488818 -0.03295502 0.051277373
000010 f7 94 1d bc da 71 c1 3d 21 89 0a bd 8f 2c 25 be
       -0.0096180355 0.094455436 -0.033822183 -0.16130279
000020 e1 bb ba bd 57 af 9e bd 80 95 04 be df 2b a8 bd
       -0.09117866 -0.07748287 -0.12947655 -0.08211493
000030 e2 6d 4b 3e 28 de 67 3e bb fd 41 3e 16 e8 ff bc
       0.19866136 0.2264334 0.18944447 -0.031238597
000040 60 36 26 bd 5f a2 fc bd 5e 3c f5 3c 29 f4 55 3c
       -0.0405792 -0.12335657 0.029936012 0.013058701
000050 b4 0e c7 3d c7 1c ae bc 4e 3f bb bd b1 53 3e be
       0.09719601 -0.021253956 -0.09142934 -0.18586613
000060 ee e2 0b be 3d a8 48 3e c9 93 07 bd ec e8 35 3e
       -0.13660786 0.19595428 -0.033099923 0.17764634
000070 b4 b8 3f 3e df 82 54 3e cb 98 31 be 98 56 38 3d
       0.18722802 0.20753048 -0.17343442 0.045004457
000080 0f aa 3d bd a2 77 92 3d b6 ff cd bd 08 88 2c be
       -0.04630476 0.071517244 -0.100585386 -0.16848767
000090 fe 06 fc bd a4 fc 5d be 98 51 85 be 7b 7d 10 be
       -0.12306021 -0.21678406 -0.26038814 -0.14110367
0000a0 a4 d2 b8 bd 8f cb e1 bd d0 b9 8a 3d 9d 80 b6 3c
       -0.090245515 -0.11025154 0.06773722 0.022278124
0000b0 d3 ab 0c 3d 5d 18 09 bd d9 52 c4 3d d1 e5 85 bd
       0.03434355 -0.0334705 0.095861144 -0.065379746
0000c0 36 de 18 be 21 fc 6a 3d 4b 11 b6 3d 6a ba a6 3d
       -0.14928517 0.057369355 0.08890017 0.081410244
0000d0 25 c7 41 bd 4e ca 80 bc 04 10 41 bc 9f 6b 1f 3e
       -0.04730906 -0.015721466 -0.011783604 0.15568398
0000e0 88 61 61 3e 5e b5 d7 3c ad 64 f9 3d de b8 7c bd
       0.22009861 0.0263316 0.121774055 -0.06169974
0000f0 de dc d4 bd fa e8 11 be 25 2a f4 bd fd 60 37 bd
       -0.103936896 -0.1424903 -0.11922101 -0.04477023
000100 3e d9 ca 3d 1e f9 26 bd be f0 de 3d 5c f7 0a be
       0.09904717 -0.04076492 0.10885762 -0.13570923
000110 89 55 85 bc 55 d1 e0 bd 9b ed fe bc 8c ef a7 ba
       -0.016276138 -0.10977427 -0.031119158 -0.0012812479
000120 11 59 09 be 94 76 0e bd 64 ab 0b bb a1 9d 0e 3e
       -0.13412882 -0.034781054 -0.0021311874 0.13927318
000130 79 14 37 bd 2e ae c7 bc 16 4f c9 bd ae 88 ca bd
       -0.04469726 -0.024375048 -0.098295376 -0.09889351
000140 fe fd a9 bc 10 f0 44 be 19 8e 2e be 29 2a eb bc
       -0.020750996 -0.19232202 -0.17046393 -0.028706627
000150 81 b9 b3 3d 19 3f 7e 3d 65 b9 06 3e 35 78 09 3e
       0.087756164 0.062071893 0.1315666 0.13424762
000160 44 c8 e1 3d 34 d4 c1 bd 84 62 f8 3d 53 20 a2 3d
       0.11024526 -0.09464303 0.12128165 0.079163216
000170 c8 03 eb 3c 9a 7d 90 3d dd 9b 4d 3e 29 3d 21 3d
       0.028688326 0.070552066 0.20078988 0.039364967
000180 6a f3 1c 3d 4c 7b 83 bc b7 df 26 3c 39 a2 43 3b
       0.038318075 -0.016050003 0.010185174 0.002985133
000190 4b 35 4f 3e c8 05 bb 3d d8 95 d5 bd ad 2c c7 bc
       0.20235173 0.09131962 -0.10428971 -0.024313295
0001a0 b1 98 b8 bd e3 eb f0 bc 2c 68 1b be 0d a6 08 be
       -0.090134986 -0.029409355 -0.15176457 -0.13344593
0001b0 7c 4d 79 bd f6 95 07 be 56 54 f3 bd bf 51 62 bd
       -0.06086491 -0.132408 -0.1188132 -0.05525374
0001c0 0b 5f d8 bd f8 3d 13 be b2 ee c1 3b 99 04 04 3b
       -0.10565003 -0.14379108 0.0059183473 0.0020144342
0001d0 08 17 9a bd 16 1a b0 bd 78 3e fa bc be 42 34 bd
       -0.07523924 -0.085987255 -0.030547366 -0.044008963
0001e0 77 4c f8 bd e2 b6 ac bd 7b a0 ca bd a3 9e 9d 3d
       -0.121239595 -0.0843332 -0.098938905 0.07696273
0001f0 32 69 0c be 1b 46 f5 bd d5 7a 1e bd 6e 94 a9 bd
       -0.13712004 -0.11976262 -0.03869136 -0.08280264
000200 71 6c 55 be 87 14 f2 bc 2e 16 2a 3e db 60 5a 3e
       -0.20842148 -0.029550804 0.16610023 0.2132601
000210 15 ce 95 bc 0e 7c 2f 3e b9 68 7f bc 05 64 ce 3c
       -0.018286744 0.17137167 -0.015588933 0.025194177
000220 74 c7 ca 3c d8 82 9c 3d 3d d6 10 be 15 51 1d 3d
       0.02475331 0.07642144 -0.14144225 0.038407404
000230 86 75 a0 3d dd 22 9c 3d b7 b4 0c bc 7a ff 27 bc
       0.07834916 0.07623837 -0.008588008 -0.010253781
000240 34 c4 5b bd 03 93 ce bd 0c 5d 01 3d a3 8e 5f bd
       -0.05365391 -0.10086634 0.031582877 -0.05457939
000250 53 99 0b 3e e2 3b ca 3b 7c e9 29 be d2 b1 35 be
       0.13632707 0.0061716894 -0.16592973 -0.17743614
000260 70 19 fc bd df f3 d8 3d e7 17 2a 3e ee f7 16 bd
       -0.12309539 0.1059339 0.1661068 -0.036857538
000270 44 41 71 be 86 4e 1f be 82 67 80 bd df 81 66 3d
       -0.23560053 -0.15557298 -0.062697425 0.0562762
000280 06 8c 35 3e 99 74 47 3e fb 55 26 3d 43 9d 5f 3d
       0.17729196 0.19478072 0.04060934 0.054593336
000290 3a 75 06 bc 12 86 88 3d 7c 9d 8f 3d 65 73 69 bd
       -0.00820666 0.06666197 0.0701246 -0.056994814
0002a0 04 e4 6b 3e e0 ad fb 3d c0 0d 02 3e cb cf 6f 3e
       0.230362 0.122890234 0.12700558 0.2341911
0002b0 71 ea 0e 3e b6 1e 16 3e af 18 e3 3c e5 02 e1 3d
       0.1395662 0.14660153 0.027721731 0.1098688
0002c0 0a db 6e 3a 68 3e ec bc 49 a9 1a be ed c3 2f 3e
       0.0009111619 -0.028838351 -0.1510364 0.17164584
0002d0 3c 2f 41 bc ba b8 d0 bd 59 4e 80 bc fe 86 1e 3e
       -0.011791047 -0.10191484 -0.01566236 0.15481183
0002e0 54 6a 7b b9 47 9b 10 3d 5f ff cc 3d 87 2f 42 3e
       -0.00023976836 0.035304334 0.10009646 0.18963443
0002f0 f6 4e 10 bd ef c2 da 3d 3c 48 b4 bc 71 78 98 bd
       -0.035231553 0.10681712 -0.0220071 -0.074448474
000300 6b a1 82 3d 62 e5 24 be b9 d7 08 be 7a cc 39 3d
       0.06378444 -0.16103128 -0.13363542 0.04536102
000310 54 c0 ba 3a 47 e2 e6 b8 ef 5a 70 bd c2 8d 67 bd
       0.0014247992 -0.00011009402 -0.05868047 -0.056531675
000320 70 d9 1f 3e 53 57 06 be 43 17 9b 3d e3 4d a5 bd
       0.1561029 -0.13119249 0.07572796 -0.08071496
000330 12 ff e2 3c 3b 75 e3 3d 7b 0a 95 3d 62 29 53 3e
       0.027709518 0.11106344 0.072773896 0.20621255
000340 4e 1a 16 3e 79 56 45 3e b0 11 02 be 40 7e 24 3d
       0.14658472 0.19271268 -0.1270206 0.040159464
000350 5a 9d e7 3d 12 1d 92 bd b4 7b 11 bb 5f 08 cb 3d
       0.11309309 -0.07134451 -0.0022198977 0.09913706
000360 12 56 42 bc 8d a3 c2 bd 29 ba f0 bd 62 ea c8 bd
       -0.011861341 -0.09503851 -0.11754257 -0.0981033
000370 5e 7e a6 3c e1 37 ad 3d c4 90 0c 3e 3c cd f6 3b
       0.020323928 0.08457924 0.13727099 0.00753179
000380 f6 73 6d 3e 21 c0 26 bd 04 b0 9d bd 0d eb 9a bd
       0.23188767 -0.040710572 -0.07699588 -0.07564364
000390 9f ab d5 bd 58 2f 39 3e fe b6 0d be f1 4c c8 bd
       -0.10433125 0.18084466 -0.13839337 -0.097803004
0003a0 b1 3e 5c be d8 65 d3 bc af f8 d1 bd 03 a0 f7 bd
       -0.2150829 -0.025805399 -0.10252511 -0.12091067
0003b0 ca 2e 58 3d ad fd c4 3b db 9a 13 3e 72 d7 1b 3e
       0.052778997 0.006011686 0.14414541 0.15218905
0003c0 05 3a 89 bd c4 fc 9c 3d a3 77 52 3d 34 f9 8b 3d
       -0.067005195 0.07665399 0.051383626 0.06834641
0003d0 c0 cb 20 3e 88 7f 3b 3e 2f 38 bc bd b4 22 b5 3d
       0.15702724 0.18310368 -0.09190404 0.0884451
0003e0 c3 cd b4 3d be 66 8b bd e6 44 79 3c 93 d0 09 bc
       0.088283084 -0.06806706 0.015214181 -0.008411544
0003f0 7f 89 4a 3e b7 65 fd bc ad c4 d7 3d f9 c4 98 bd
       0.19779013 -0.03093229 0.1053556 -0.074594446

conv3.bias f4 [16]
000000 e8 5f fb 3b 02 9d 0f bb 6e ae 8a 3a 1d a8 26 bd
       0.007671345 -0.0021913652 0.0010580549 -0.04068767
000010 47 c3 89 3c a5 6c 84 39 d4 6f 57 3d c8 77 9e bc
       0.016816748 0.00025257948 0.052596882 -0.019344226
000020 a9 57 cc bb 15 73 d3 bc 75 bd af 3c 56 d3 4a 3c
       -0.006236036 -0.025811711 0.021452645 0.012379488
000030 a2 34 10 3c 99 bd be bc 34 d3 d3 bc ca ad ae bc
       0.008801611 -0.023283767 -0.025857545 -0.021323103

bn3.weight f4 [16]
000000 57 04 8c 3f 9e 43 7b 3f b0 cf 85 3f bc 5c 8a 3f
       1.0938824 0.9815005 1.0454006 1.080955
000010 8f 48 8e 3f 04 28 81 3f dd 21 80 3f 65 25 82 3f
       1.1115893 1.0090337 1.0010334 1.0167662
000020 ea 3b 85 3f fa 6b 8a 3f 5e f4 92 3f 3a 9c 89 3f
       1.0408909 1.0814202 1.1480825 1.0750802
000030 51 6f 8d 3f 81 21 8d 3f 5a e5 7d 3f db 5e 92 3f
       1.1049596 1.102585 0.9917809 1.1435198

bn3.bias f4 [16]
000000 aa 52 78 bc 84 53 80 bd f7 ad 55 bd 54 95 65 3b
       -0.015156427 -0.06265929 -0.05216786 0.0035031633
000010 5d 9c ee 3c 60 e0 b3 bd 07 36 65 bc f9 9e ec bc
       0.029127294 -0.087830305 -0.013989932 -0.028884398
000020 75 75 af bd 23 25 c5 3c ac f8 05 39 44 67 64 bc
       -0.08567325 0.02406556 0.00012776506 -0.013940636
000030 b8 ff a1 3b 3e 35 24 bb 58 4a 97 bd 3f 74 ad bc
       0.004943814 -0.002505615 -0.07387227 -0.021173595

bn3.running_mean f4 [16]
000000 f1 8b 32 bf 32 ea 40 3f d4 c6 4e bf 3e 0a 2b be
       -0.69744784 0.75357354 -0.8077214 -0.16703126
000010 dd d1 64 bf 96 7b d4 be 1f 6b 0e bf e9 c9 c7 3d
       -0.89382726 -0.4150054 -0.55632204 0.09755308
000020 cf 63 46 3f ce b6 31 bf 98 c0 63 bf 70 40 06 bf
       0.77496046 -0.6941956 -0.8896575 -0.52442074
000030 28 b2 20 bf ee 1c 84 bf ae d5 13 bf 33 a5 86 bf
       -0.62771845 -1.0321329 -0.57747924 -1.0519165

bn3.running_var f4 [16]
000000 3a 4b 12 3f 0a 8f 36 3f d5 7a d5 3e 78 90 ed 3e
       0.57146037 0.7131201 0.41695276 0.46399283
000010 5b 12 75 3f c6 61 e8 3e 11 6f cd 3e 81 14 08 3f
       0.95731133 0.45387095 0.401238 0.53156286
000020 61 70 19 3f 38 4f f1 3e a3 a8 10 3f b5 29 c8 3e
       0.599371 0.47130752 0.5650732 0.3909432
000030 09 0e de 3e ec e9 3c 3f d0 8f 13 3f 37 60 20 3f
       0.43370083 0.73794436 0.57641315 0.6264681

output_layer.weight f4 [11, 3008]
000000 cb cc 13 bd f7 1f 27 bd b6 82 95 bc 13 5f 8c bd
       -0.036083978 -0.04080197 -0.018250804 -0.068540715
000010 be 08 9f bd a2 13 11 bd 3a 4b d0 bc 71 e5 b8 bd
       -0.07765339 -0.035419114 -0.025426496 -0.090281375
000020 40 10 9e bd 07 18 31 3d fa f5 ef ba 16 ff 24 3c
       -0.07717943 0.043235805 -0.001830756 0.010070583
000030 b3 b8 c9 bd e8 ea 83 bd 23 44 7f bd 12 0f c9 bc
       -0.09849682 -0.06441289 -0.06232084 -0.024543319
000040 54 b4 cb bd bd e3 0e be df 9b dd bd 6f c8 03 be
       -0.09946504 -0.13954063 -0.10820746 -0.12869428
000050 c8 32 4f bd 6b c9 9f bd 36 64 d8 bb d2 64 83 3c
       -0.05058554 -0.07802089 -0.006603743 0.016039286
000060 9b 22 d0 3c e3 cc 89 3d a6 54 90 bd 1c 66 7b bd
       0.025407126 0.06728532 -0.070473954 -0.061376676
000070 d1 3e fb bd 2a f3 ad bd a6 76 0b be d0 49 c3 bd
       -0.12267841 -0.084936455 -0.1361948 -0.09535563
000080 80 ae 16 be da af 20 be f9 54 be bd ff 44 d3 bd
       -0.14715004 -0.15692082 -0.09293551 -0.10315894
000090 b6 03 a2 bd 32 a9 c0 3c 1e ca 40 bd b3 25 2a bd
       -0.07910864 0.023518179 -0.047067754 -0.04153986
0000a0 3b 50 f2 3c 52 63 3e 3c f3 52 50 bd c0 17 51 bd
       0.029579272 0.0116203595 -0.050860357 -0.05104804
0000b0 ef ed 8d bd a7 81 e2 bd 76 64 57 be 6c 74 5a be
       -0.06930148 -0.110598855 -0.21034417 -0.21333474
0000c0 e3 ba 30 be b7 cb 4b be ab 6a fa bd ce c2 18 be
       -0.17258792 -0.1990193 -0.122273766 -0.14918062
0000d0 49 66 51 bd cc 32 a5 bd b4 8f 6d bd 35 62 27 3d
       -0.051122937 -0.08066329 -0.057998374 0.040865142
0000e0 e3 67 88 bd a5 52 bf bd 32 11 fc bd 66 7a e5 bd
       -0.0666044 -0.09341935 -0.12307967 -0.11204986
0000f0 e6 b0 2f bd 35 d4 1b 3d 13 dd 45 ba 21 f2 3c bd
       -0.042893313 0.038044173 -0.0007547896 -0.04612935
000100 0e d0 b6 bd 75 47 89 3b 92 28 da bc cd c3 62 bd
       -0.08926402 0.0041894265 -0.026630674 -0.05536251
000110 94 1b b6 bd bb 33 71 bd c6 6b 0c bd 8f eb 08 be
       -0.08891979 -0.058887225 -0.03428247 -0.13371108
000120 cc e0 0e be 05 d1 d1 bd e8 be 0f be 81 52 13 be
       -0.1395294 -0.102449454 -0.14037669 -0.14386941
000130 be 3d 3a be 25 49 2a be 21 70 d1 bd ac 3f c8 bd
       -0.18187615 -0.16629465 -0.10226465 -0.097777694
000140 25 34 10 be 51 e9 f2 bd 7c b6 ab bd d5 6c c3 bd
       -0.14082392 -0.11860908 -0.083844155 -0.095422424
000150 64 4d 98 bd cf f9 c0 bd 3b 2c 03 be d5 0c a9 bd
       -0.07436636 -0.09422647 -0.12809841 -0.08254401
000160 45 f2 ef bd 5a 11 f5 bd e9 04 18 be 7f f3 0b be
       -0.11716131 -0.119662 -0.14845623 -0.13667105
000170 a3 77 be bd 07 77 5f bd 9a b6 a2 bd d2 e4 d8 bc
       -0.09300163 -0.054556873 -0.07944985 -0.026476298
000180 f7 85 c0 bd cf e1 0e be 91 4a 20 bd cc c1 f9 bc
       -0.09400552 -0.13953327 -0.039133612 -0.030487917
000190 40 16 95 bd f2 11 70 bd 76 ba 45 bd 6f a3 03 be
       -0.072796345 -0.058610864 -0.048273526 -0.12855314
0001a0 92 cf 09 be 09 03 c7 bd cc e8 de bd b8 d0 fe bd
       -0.13458088 -0.09717376 -0.10884246 -0.12442154
0001b0 8a ae 3a be 9e cc bf bd 93 da e8 bc a0 04 16 bd
       -0.18230644 -0.093651995 -0.028424537 -0.036625504
0001c0 c4 55 9a bb aa 2f 87 bb 7f 5d 20 bd f9 b7 8d 3c
       -0.004709931 -0.004125555 -0.039151665 0.017299639
0001d0 74 4f f1 bd bd 44 86 bd 9b 98 07 be ff 5d 11 be
       -0.117827326 -0.065560795 -0.13241808 -0.14196013
0001e0 2c 1b 13 be 35 00 c0 bd 91 87 27 bd 4a a6 90 3d
       -0.14365834 -0.093750395 -0.04090077 0.07062967
0001f0 05 e9 95 3d 6f 05 86 3d 83 ee 05 3d 55 06 87 bd
       0.073198356 0.06544005 0.032698166 -0.065930046
000200 48 fd ee bd 8e 7b d0 bd 57 d6 bd bd e2 e5 70 bd
       -0.11669403 -0.10179816 -0.09269398 -0.058812983
000210 b2 9c cd bd 16 f8 2a 3b 52 59 22 bd a1 74 fb bd
       -0.10039653 0.0026087812 -0.039635964 -0.122781046
000220 3c 8a da bd 5c 97 cf bd bb ba 5b bd 82 8d 18 be
       -0.10670897 -0.101362914 -0.053644877 -0.14897731
000230 a8 85 da bd e2 0f aa bd d4 9a ca bd e6 89 e7 bc
       -0.10670024 -0.08303811 -0.09892812 -0.028263997
000240 7d d3 c0 bd 5e 46 a7 bd e6 e1 cd bd 6c 5a 8d bd
       -0.09415338 -0.08167718 -0.10052852 -0.06902012
000250 3f d6 f3 bc 29 38 04 bd 3f 35 aa bd ac 99 f2 bd
       -0.029765246 -0.03228012 -0.08310937 -0.11845717
000260 dd cf d2 bd 3d 86 5f bd 99 a8 98 bd 1e dc f9 bd
       -0.10293553 -0.05457138 -0.074540325 -0.12200187
000270 cc da b9 bd 08 30 c9 bd 8d a2 d2 bd 38 5c 14 be
       -0.09074935 -0.09823614 -0.1028491 -0.14488304
000280 c5 82 d4 bd 80 a1 30 bd e3 4e b8 bd 51 6b 8c bd
       -0.10376505 -0.04312277 -0.089994214 -0.068564065
000290 37 25 2b be 14 47 0a be bc 8e f2 bd 2b 6d 8b bd
       -0.16713415 -0.13503677 -0.11843631 -0.068079315
0002a0 e0 85 28 ba 26 f0 41 3d 52 b3 14 3d 29 e7 6d bd
       -0.00064286403 0.047348164 0.036303826 -0.05808178
0002b0 91 3e ac bd 0f 2e af bc a3 20 b9 bd a9 15 08 be
       -0.08410371 -0.021384267 -0.09039428 -0.13289513
0002c0 b0 b9 26 be a6 49 34 be c2 7f cb bd 16 f5 20 be
       -0.16281772 -0.1760622 -0.09936477 -0.15718493
0002d0 ca ce 1f be 63 3f be bd 58 4b 35 bd 7a 67 1a bd
       -0.15606228 -0.09289434 -0.044261307 -0.03769634
0002e0 09 c0 a4 bd 8a 24 4b bd bf 79 fb bd b2 b0 bc bd
       -0.0804444 -0.049595393 -0.122790806 -0.092133895
0002f0 41 69 ea 3d 42 1d 0e 3e de 65 f2 3d e5 2a c4 3d
       0.11445857 0.13878348 0.11835836 0.09578494
000300 78 5f 8c 3a b0 8f 6b 3d 80 9c 14 bb df df e3 3c
       0.0010709604 0.057510078 -0.002267629 0.027816711
000310 14 0a 87 3d a5 8f c3 3d 46 5b 6b 3d cc f7 47 3d
       0.06593719 0.095488824 0.057460092 0.048820302
000320 de 51 c5 3d a4 cd 84 3d 79 e5 73 3d ff a3 4f 3d
       0.096347556 0.06484535 0.059545014 0.05069351
000330 c0 86 39 3d 98 5d 5e 3d 8d 0d ac 3d 08 df 45 3d
       0.045294523 0.054288477 0.08401022 0.048308402
000340 5d 16 24 3d 9e fe 6d bb 83 cf 02 3c 26 15 11 3d
       0.04006039 -0.0036315094 0.007984045 0.03542056
000350 8a d9 9d 3b 03 97 eb 3c 00 3a 26 3d 47 ed 7e 3d
       0.0048171924 0.028758531 0.040582657 0.062238004
000360 ad 49 b1 3c b1 b3 ae 3d 9a 29 fe 3c 01 65 63 3d
       0.021641577 0.08530367 0.031025697 0.055516247
000370 d8 d8 09 3d 80 4e 6c 3d 9b ab ba 3d 5a fd e0 3d
       0.033654064 0.05769205 0.091147624 0.10985823
000380 8d 45 ba 3d c1 5f c7 3d 05 26 ac 3d a4 b4 c3 3d
       0.09095297 0.097350605 0.08405689 0.09555939
000390 f7 b8 b3 3d 41 16 25 3d b8 bf 98 3d 87 c8 df 3c
       0.087755136 0.040304426 0.074584424 0.027317299
0003a0 5b 65 82 3d 58 2a bd 3d 61 0f 18 3d f2 69 8f 3d
       0.06366988 0.09236592 0.03712404 0.07002629
0003b0 7a 56 e3 3c 31 13 c6 3c e8 d3 40 3d 57 bc d2 3d
       0.027751196 0.024179073 0.04707709 0.10289829
0003c0 e4 96 2f 3d d9 60 46 3d 35 56 92 3c e1 ef cf 3d
       0.04286851 0.048432205 0.017863372 0.10153175
0003d0 8f 71 13 3c c7 52 3d 3d 66 0c d5 3c 07 68 5c 3d
       0.008999242 0.04622152 0.026006889 0.053810146
0003e0 e7 a7 09 bc e0 3d 42 3d b4 cd 3d 3d 42 bf d2 3c
       -0.008401847 0.04742229 0.046338752 0.025725964
0003f0 22 9b b1 3d 77 08 a0 3d cc de 8f 3d 19 3d a8 3d
       0.08672167 0.078141145 0.07024917 0.082147785

output_layer.bias f4 [11]
000000 4f 51 ed bc 4f 54 ea 3c db c1 72 bb f9 06 cd bc
       -0.028969435 0.028604655 -0.0037041816 -0.025027739
000010 a3 c6 eb bc 08 ef e1 bb b2 c4 ee 3b 18 99 aa bb
       -0.02878124 -0.00689495 0.0072866315 -0.0052062385
000020 ca ce 92 bc 45 61 93 3c fd 35 6d 3d
       -0.01792087 0.017990718 0.057912815
