libemg_3dc/split_by_samples/checkpoints/Split by repetitions. subjects=22,num_epochs=20,batch_size=64,Adam(learning_rate=0.001,weight_decay=0),CosineAnnealingLR(T_max=20, eta_min=1e-05).pt (torch, 212959 bytes, 20 tensors)

conv1.weight f4 [64, 10, 5]
000000 1c ad 1a 3c a4 dc 95 3d f1 af db bc c8 51 fa 3d
       0.009440687 0.073174745 -0.026817294 0.1222263
000010 d8 75 81 3c 9c b4 ee 3d 86 73 62 bd c7 c9 72 bd
       0.015803263 0.11655542 -0.055285953 -0.05927446
000020 f5 72 01 bd 06 f2 f0 3d 10 f3 05 be cc 08 cd 3d
       -0.031603772 0.11764912 -0.13081002 0.100114435
000030 0c 83 a6 bb a3 2c 44 bd d6 31 dd bb 39 16 ab bd
       -0.00508154 -0.04789413 -0.0067503257 -0.08353848
000040 ab e0 61 bd 94 7b 1f 3e 6a 42 62 bd d0 14 aa 3c
       -0.0551459 0.15574485 -0.05523912 0.020761877
000050 c4 01 1e 3c 79 b1 26 3d ef b2 16 3e 1d 44 44 3e
       0.009643976 0.040696595 0.14716695 0.19166608
000060 f4 00 c9 bc fc b0 7a 3d 21 3b f8 bd 75 03 9a 3d
       -0.024536587 0.06120394 -0.12120653 0.075201906
000070 f3 23 f5 3d 43 f0 0d be 4d 6f 34 3e 55 1d 77 3d
       0.119697474 -0.13861184 0.17620583 0.060330708
000080 c0 b6 d6 3d e7 48 10 3e cd 50 01 3e 7f 34 78 bc
       0.104840755 0.1409031 0.1262848 -0.015149235
000090 22 33 0a be 0a 91 31 bd c2 29 6a bd be 73 cc bc
       -0.13496068 -0.04335121 -0.05716873 -0.024957534
0000a0 21 46 c4 bb 28 78 65 bd 88 be c9 bb 25 e6 ea 3d
       -0.0059898053 -0.056022793 -0.0061567463 0.11469678
0000b0 fa 0d 83 bd e2 19 b0 3d d8 72 e2 3b 7a 0a df bc
       -0.0639915 0.08598687 0.006910663 -0.027226675
0000c0 24 e3 8b 3d d5 35 6f 3d 44 54 ba bd 2a bd 2d 3c
       0.06830433 0.058400948 -0.09098104 0.010604182
0000d0 fe 2a eb 3d 30 4f 64 3d 93 65 07 be 77 1b 89 bd
       0.114828095 0.05573958 -0.13222341 -0.06694692
0000e0 e9 15 21 bd e2 59 06 3e 3d c1 a4 3c 12 1e 94 bd
       -0.039327536 0.13120225 0.020111674 -0.07232298
0000f0 61 86 10 3d d9 60 0a 3e 1d e3 e9 bd 82 0a 8c bd
       0.035284404 0.13513507 -0.114202715 -0.06837942
000100 66 0c 8c 3d 53 9b 2f bc 00 df 4a 3d ab fd 65 3c
       0.06838302 -0.0107181845 0.049529076 0.01403753
000110 5f e0 9b bd 19 c8 2b 3e 7d 26 5e 3e 54 d6 af 3d
       -0.07611155 0.1677555 0.2169437 0.08585802
000120 68 f4 6c be df 1e 20 be 59 67 42 3e c9 09 ee 3d
       -0.23140109 -0.15636776 0.18984737 0.1162296
000130 c8 89 44 3d fd 01 2f be b6 ba a1 bc 94 b0 d6 3d
       0.04798296 -0.17090602 -0.019742351 0.10482898
000140 54 d6 a9 3d e0 d1 fd bb 7c 8f 49 3d 84 ff 6c 3c
       0.08292833 -0.0077459663 0.049209103 0.014465217
000150 a5 88 48 bd 79 f9 af bd 51 06 0a be 85 c3 03 3e
       -0.04895844 -0.08592505 -0.13478972 0.12867554
000160 bc 1c af 3d 05 70 91 bc a3 e7 bb bd d0 de dd 3c
       0.085504025 -0.01775361 -0.091750406 0.027083784
000170 18 77 41 3d 4d 7c 6e 3d b0 97 c6 bd d0 cf 93 bd
       0.047232717 0.05822401 -0.09696901 -0.072173715
000180 7d 76 30 3d cb 7b 85 3d 3b c1 8f 3d fe 77 d5 bd
       0.04308175 0.06517752 0.07019278 -0.10423277
000190 c9 b9 26 3e 9c 74 91 bd 0c a3 c7 bc dc 08 f4 bd
       0.16281809 -0.071023196 -0.024369739 -0.11915752
0001a0 a9 ef 0a bd d0 35 7b bc 1b 23 f8 bb 78 d7 64 3d
       -0.033919964 -0.015332654 -0.0075725443 0.05586955
0001b0 f8 74 24 bc 5e e2 86 bd 0a c5 fb 3d c0 82 9b bd
       -0.010037653 -0.06586145 0.122934416 -0.07593298
0001c0 24 54 f3 bb 64 11 b0 bd 86 f9 ac bd ba 95 e0 3c
       -0.007425802 -0.08597067 -0.0844603 0.027415145
0001d0 0e 83 36 be 2a 2c c9 bd 46 ca d3 bc 2b da cf 3d
       -0.17823431 -0.09822877 -0.025853287 0.10149034
0001e0 8d 59 9f bd 4c 4b dd 3c f9 c2 f9 3d ac 40 72 bd
       -0.07780752 0.027013443 0.12195391 -0.059143707
0001f0 30 78 c6 3d 79 bc 02 be ea 86 05 3e 32 1c 42 3e
       0.09690893 -0.12767209 0.13039747 0.18956068
000200 10 b8 0e 3e 2c c6 f3 3d a7 8c 87 bd 96 3c f7 bb
       0.13937402 0.11903033 -0.06618624 -0.007545064
000210 dd bf 1f bc 31 14 61 bd bb 72 0c 3a ce c5 16 be
       -0.009750334 -0.054950897 0.00053576723 -0.14723894
000220 8c 8e 2e 3d 32 d8 00 3c 95 c6 8f 3c 1f ed 2b bd
       0.042616412 0.007864045 0.017550746 -0.041974183
000230 f5 60 ec 3c e7 83 9d 3c 4d ea 2e 3d f5 09 06 3e
       0.028854826 0.019227935 0.042703915 0.13089736
000240 5c cb 56 3d 1d 17 9a 3c 16 7f 9c bc 07 c9 8a 3c
       0.052440032 0.01880985 -0.019103568 0.01694156
000250 d6 cf cb bd f5 9e 83 bd a1 7d 44 bd 00 3e 03 bd
       -0.09951751 -0.06426803 -0.04797137 -0.03204155
000260 74 16 80 bc b1 7c b3 3d 86 c4 7c 3d 6a fe f0 3d
       -0.015635706 0.087640174 0.061710857 0.11767276
000270 0b 3d 44 bd 57 7d ed 3b d1 7b 00 be d0 c6 db 3d
       -0.047909778 0.0072476077 -0.12547232 0.1073128
000280 46 20 52 3d 1a 69 18 3e 60 27 24 be 93 66 82 3c
       0.05130031 0.14883843 -0.16030645 0.015918052
000290 ea 82 ba 3d fa b2 c4 3d ac 2a b3 3d 50 4f 3a 3e
       0.09107001 0.096044496 0.087483734 0.18194318
0002a0 2d 81 0c 3e 15 ee f4 3d a8 ce 84 bd 69 20 a2 bd
       0.13721152 0.11959473 -0.06484729 -0.07916338
0002b0 73 5e 1d 3d 88 d4 aa 3c e7 35 f1 bd 31 b9 4b be
       0.038420152 0.020853296 -0.11777859 -0.19894864
0002c0 9e cc 55 be 7c 96 69 bd 35 ff eb 3d cc 43 81 3c
       -0.20878837 -0.05702828 0.11523286 0.015779398
0002d0 b2 06 3e bd 2a f3 88 3c 84 71 14 3e 8e 47 e8 bc
       -0.046393104 0.016717512 0.14496428 -0.028354432
0002e0 69 5e 09 bd 84 79 9f bc 2c 42 8c bd bb 33 a9 3d
       -0.033537302 -0.019467123 -0.06848559 0.0826182
0002f0 70 66 02 3e e1 1c 91 bd dc 14 86 bc 48 d8 f9 bc
       0.1273439 -0.07085586 -0.016367368 -0.030498639
000300 a8 4d ba 3d c2 96 c6 3d 11 92 da bd 0d 51 50 3b
       0.09096843 0.096967235 -0.10672391 0.0031786591
000310 6e ee 8b 3d 92 27 98 bd a2 b8 f8 3d 4e 4b 07 3d
       0.06832586 -0.074294224 0.12144591 0.0330308
000320 73 f7 68 bd bb 39 65 bc f4 48 72 3d c7 6d f9 3b
       -0.05687661 -0.013990815 0.059151605 0.0076119634
000330 15 0f 71 bd cf 93 9a 38 4d 1a a3 3c 0c 31 8e 3c
       -0.058852274 7.370824e-05 0.019910002 0.017357372
000340 35 ac 2b bd 3a d1 75 3c b4 dc b4 bb aa c4 f8 3d
       -0.041912276 0.015003497 -0.005519474 0.12146886
000350 ae ff 35 3e ce 79 90 bd 1b ae 2a bd 5d 02 84 bd
       0.17773315 -0.070544824 -0.041669946 -0.06445763
000360 e6 da dc 3d e1 95 4d ba 37 36 f5 3c 2a 89 52 3d
       0.10783939 -0.0007842463 0.029933078 0.05140034
000370 df 85 f8 bd 39 25 ce bd 4e 92 45 3d fa ab 30 bd
       -0.12134909 -0.100656934 0.04823523 -0.04313276
000380 52 8f a8 3d 2d 46 79 be cb ea 5a be ea 5f 40 be
       0.08230461 -0.24343176 -0.21378629 -0.18786588
000390 79 5e 2f 3d c1 b6 e7 3c 18 fa eb bc 58 11 aa bc
       0.042814706 0.028285386 -0.028805777 -0.020760223
0003a0 a9 74 34 bd ff cb e6 3d af 43 a7 3d 4f 20 70 bd
       -0.04405657 0.11269378 0.081672065 -0.058624562
0003b0 1e 44 4d 3d e4 60 23 3c 2b 1c bc bd 29 30 99 3d
       0.05011379 0.009971831 -0.0918506 0.07479889
0003c0 3e 5c 90 3d fd 4c 9f bc d1 23 83 bd 47 40 4c 3c
       0.07048844 -0.01944589 -0.06403316 0.012466497
0003d0 00 23 73 3d f6 e0 2e 3d a4 37 03 be 3e 6f 4a bd
       0.05935955 0.04269501 -0.12814194 -0.049422495
0003e0 af 4f f1 3d 03 02 82 3d 3e 63 e7 3d 74 fa 5e bd
       0.117827766 0.0634804 0.11298226 -0.05443807
0003f0 ed 08 ab 3d 26 b9 16 be 69 3a 61 bd ab 26 68 bc
       0.08351312 -0.14719066 -0.054987345 -0.014169375

conv1.bias f4 [64]
000000 f1 84 57 37 29 18 de 37 a7 23 86 b7 cc e8 da b7
       1.28459515e-05 2.6475713e-05 -1.5990647e-05 -2.609603e-05
000010 49 43 72 b7 06 dd e6 37 81 e8 a9 37 bf 64 88 b8
       -1.443999e-05 2.7521059e-05 2.0254638e-05 -6.503751e-05
000020 de 42 77 b6 e6 39 60 b8 98 22 3c b8 bd 5a 29 37
       -3.684479e-06 -5.3459684e-05 -4.485491e-05 1.0094312e-05
000030 2f 97 3d b8 b5 03 31 b8 b3 a9 2a b6 14 43 9b b5
       -4.5201912e-05 -4.220354e-05 -2.5430752e-06 -1.1567922e-06
000040 e1 09 c1 36 2f 6b ec 37 f5 ac f3 38 ea 35 a2 37
       5.7529983e-06 2.8183304e-05 0.00011619359 1.933701e-05
000050 71 98 15 37 f0 2c a9 b8 30 65 16 37 e4 d8 ad b8
       8.916585e-06 -8.066918e-05 8.964256e-06 -8.289682e-05
000060 75 7f 28 38 53 7c f9 36 aa ad c1 b8 bf a8 39 38
       4.0173025e-05 7.4352515e-06 -9.2353046e-05 4.4264594e-05
000070 18 0a a8 b7 76 5e bc b6 3b e7 76 38 0c c9 7e 37
       -2.0031861e-05 -5.6138333e-06 5.886632e-05 1.518639e-05
000080 d4 58 2c 37 b2 35 5f 37 0e b6 b7 38 d8 f7 b6 36
       1.0272681e-05 1.3304338e-05 8.76003e-05 5.4528755e-06
000090 8d e6 71 37 74 dc 48 37 01 a0 25 38 4c 8b ea b6
       1.4418399e-05 1.1972257e-05 3.948808e-05 -6.9899597e-06
0000a0 4c 24 75 38 d2 62 ae 36 ad 07 56 38 a3 41 cb 36
       5.8446356e-05 5.1971083e-06 5.1028725e-05 6.0575126e-06
0000b0 2d 6e 96 b8 c9 62 35 37 95 f7 f2 37 bf 66 2e b8
       -7.173079e-05 1.0811441e-05 2.8963937e-05 -4.1580523e-05
0000c0 bf b9 59 38 87 5d 0d 37 db 8e c9 37 15 25 d7 b8
       5.190982e-05 8.426031e-06 2.402759e-05 -0.00010258906
0000d0 01 a1 25 37 41 a5 a5 b4 11 8f 9c b6 8b bf 56 b7
       9.872253e-06 -3.0853883e-07 -4.6658174e-06 -1.2799991e-05
0000e0 bb 92 f6 37 a0 f7 26 38 ac 8a 50 b8 8f f8 50 b8
       2.9393812e-05 3.9808103e-05 -4.9720213e-05 -4.9822553e-05
0000f0 c0 49 d6 37 e0 c8 7e 37 5f f4 3d 38 44 80 32 b8
       2.554513e-05 1.518635e-05 4.52887e-05 -4.2557964e-05

bn1.weight f4 [64]
000000 6e db 76 3f 82 4c 8a 3f 52 96 80 3f 65 85 82 3f
       0.96428573 1.0804598 1.0045874 1.0196959
000010 16 4e 84 3f 47 22 80 3f c0 f5 85 3f f1 a9 86 3f
       1.033633 1.0010461 1.0465622 1.0520612
000020 e6 40 74 3f d4 5a 81 3f a2 f2 7e 3f e2 75 6a 3f
       0.9541153 1.0105844 0.9958898 0.91586125
000030 15 e0 81 3f d9 bf 77 3f 9e c5 77 3f e5 9a 6f 3f
       1.014651 0.9677711 0.96785915 0.93595725
000040 84 55 6c 3f f9 22 76 3f 89 58 82 3f ec 17 76 3f
       0.92317986 0.96147114 1.0183269 0.9613025
000050 2f 15 81 3f d8 39 83 3f bb 34 83 3f d4 b3 86 3f
       1.008459 1.0252028 1.0250467 1.0523629
000060 ce 02 7c 3f 77 6e 83 3f 62 6a 81 3f 00 92 83 3f
       0.9844178 1.0268086 1.011059 1.0278931
000070 b2 e3 82 3f 73 1a 78 3f b8 6c 84 3f 3f 8d 77 3f
       1.0225737 0.9691536 1.0345678 0.966999
000080 90 93 73 3f 7d 26 78 3f 12 af 83 3f 95 e5 83 3f
       0.9514704 0.9693373 1.0287802 1.0304438
000090 43 0c 81 3f eb a8 71 3f 28 50 81 3f 64 db 81 3f
       1.0081867 0.94398373 1.0102587 1.0145078
0000a0 0d a7 7b 3f 6d ce 75 3f 61 35 82 3f 8f 74 87 3f
       0.98301774 0.96018106 1.017254 1.0582446
0000b0 54 5a 7f 3f 79 6b 75 3f 23 8f 7d 3f 46 3a 7e 3f
       0.99747205 0.95867115 0.99046534 0.9930767
0000c0 23 d9 83 3f 31 cb 82 3f d9 02 70 3f 27 40 84 3f
       1.030064 1.0218259 0.93754345 1.0332078
0000d0 69 13 69 3f 82 e3 77 3f de 14 73 3f c6 f8 80 3f
       0.9104524 0.96831524 0.94953716 1.007592
0000e0 5c 90 80 3f 0b fe 6f 3f d5 80 79 3f ab 4d 85 3f
       1.0044055 0.93747014 0.9746221 1.0414327
0000f0 fe 1d 64 3f a4 9c 86 3f b1 c6 78 3f 06 d5 8b 3f
       0.89108264 1.0516553 0.9717818 1.0924385

bn1.bias f4 [64]
000000 6b 08 83 bd b4 b4 a8 bc a9 9e 38 3c 17 e7 83 3b
       -0.0639809 -0.020593978 0.011268296 0.004025351
000010 f0 da 32 3b b2 6b 3d bb 6a 72 20 3c 79 d0 4e 3d
       0.0027291141 -0.0028903303 0.009792903 0.050491784
000020 4d 96 86 3c 1e 15 83 3c 90 8b 9f bc e0 69 a5 bd
       0.01642909 0.01600128 -0.019475728 -0.08076835
000030 6c ae 7f bc b5 a1 d4 bc f4 92 57 3d 4c 88 4b bd
       -0.01560555 -0.025956014 0.05263038 -0.04969053
000040 ca 56 52 bd 25 31 2c bc b6 43 d2 3d 4c bf 04 bc
       -0.0513523 -0.010509764 0.10266821 -0.008102249
000050 ce cc 95 3c 5a d6 41 bc a1 8e 0b bc 44 47 ed 3b
       0.018286135 -0.011830891 -0.008517892 0.0072411615
000060 15 c9 ad 3d c5 cb 3e 3c 2a 45 fd b9 dc 65 4a 3c
       0.08485619 0.011645262 -0.00048307452 0.012353387
000070 dc be bf 3c 7a cc a3 3c 66 6d e9 3c e9 39 1d bc
       0.023406439 0.019994963 0.028494548 -0.009596326
000080 01 9b d4 3c c0 7a fd bb ca 57 0a 3c 9a a3 83 bd
       0.025952818 -0.00773558 0.008443782 -0.06427689
000090 9b 24 60 3c 9d f1 97 bd ce f4 8f bd 1b af a0 bd
       0.013680602 -0.07419131 -0.07029115 -0.07845899
0000a0 0e 96 4f 3c 83 b3 f0 bc d6 71 4f 3b ac f9 83 bc
       0.012670053 -0.029382473 0.0031653545 -0.016110264
0000b0 46 b2 c6 3c 9c ac ed bc c4 fd 4b bc 21 bd 21 3c
       0.02425493 -0.02901297 -0.012450639 0.009871752
0000c0 7d ef 2e 3d 9d 44 9d 3c 90 ec 16 bd b4 e8 a9 bd
       0.042708863 0.019197756 -0.036846697 -0.08296338
0000d0 65 b7 0f bd b7 0a 48 bc a5 c5 f7 3b bb 2a 30 3d
       -0.035087008 -0.012209586 0.007561403 0.0430095
0000e0 85 b4 57 3c f8 9e 8e 3c 39 1c 91 bc d6 ce 89 3d
       0.013165598 0.017409787 -0.017713653 0.06728904
0000f0 b7 44 ff 3c 4d ac 3d 3d 95 5b da bc a3 42 fa 3c
       0.031160695 0.046306897 -0.026654998 0.030549353

bn1.running_mean f4 [64]
000000 01 39 bf be c8 0f dc 3d 0f ca 59 3e 45 e0 ce bd
       -0.37348178 0.107451975 0.21268485 -0.1010137
000010 d8 c6 5f 3d 6e 98 c7 be 9c 61 95 be ef d4 35 be
       0.05463299 -0.38983482 -0.29176033 -0.17757009
000020 21 7a 5b bf 69 08 46 be 5e a3 ad be 4d 9a b1 bf
       -0.8573323 -0.19339146 -0.33913702 -1.3875214
000030 3b d4 88 bf b6 f0 70 be d3 67 84 3e 65 e7 eb bd
       -1.0689768 -0.23529324 0.25860462 -0.115187444
000040 df ad 2d bd 61 18 50 bf 09 dd a2 3c 29 4e be be
       -0.042402145 -0.812872 0.019880788 -0.37169006
000050 85 c7 5e bd ca ee 45 be 38 e5 47 3e 50 70 ca 3e
       -0.054389495 -0.19329372 0.19521034 0.39538813
000060 96 be 04 3e a2 d3 73 be 7e f7 c4 be 6f 2f 94 bd
       0.12963328 -0.238112 -0.38470072 -0.0723561
000070 73 20 5a bd f7 24 e8 be cb a4 8d 3e db f8 6a 3d
       -0.053253602 -0.45340702 0.2766479 0.057366233
000080 3b fd 0d bf 04 bb ec 3d ef 72 40 3d 02 48 5d be
       -0.55464524 0.11559108 0.04698461 -0.216095
000090 d7 fe 20 3e 15 57 bd bd 9a c2 e1 be 4b 89 2a bf
       0.15722214 -0.09245125 -0.44093782 -0.6661574
0000a0 1c 60 65 3e 86 6c 3e bc 4a b7 b0 3d 9f 66 b4 bd
       0.22399944 -0.011622554 0.086287096 -0.08808636
0000b0 95 f8 99 bd e2 56 37 be 21 54 2e be 71 29 93 3d
       -0.075181164 -0.17904237 -0.1702428 0.07185639
0000c0 78 6f aa bd 85 0d 19 be 7c 15 23 bf 40 c4 bf be
       -0.08322042 -0.14946564 -0.6370466 -0.37454414
0000d0 4c 46 e3 bd 32 09 2b 3e a9 48 69 bf 0b 1c 4d bd
       -0.110973924 0.16702726 -0.91126496 -0.050075572
0000e0 80 d3 8b 3a c2 e8 1f bf 4b ad 39 3e 06 ff 3f 3d
       0.001066789 -0.62464535 0.18132512 0.04687407
0000f0 81 9e bd 3e 7c 24 e8 3d be bd 8d 3e 69 0a 92 be
       0.3703499 0.11335084 0.27683824 -0.28523567

bn1.running_var f4 [64]
000000 eb b1 87 46 0d 9f 9a 46 4b f7 ba 46 9c b5 99 46
       17368.959 19791.525 23931.646 19674.805
000010 3b ca 9c 46 ef 2e d9 46 78 da 7c 46 d7 63 83 46
       20069.115 27799.467 16182.617 16817.92
000020 81 8b 0d 47 df 8f 91 46 75 5d 01 47 22 58 80 47
       36235.504 18631.936 33117.457 65712.266
000030 d4 e4 25 47 30 07 89 46 bf 57 9b 46 39 52 d5 46
       42468.83 17539.594 19883.873 27305.111
000040 bf c7 98 46 db b4 40 47 cd 0a 50 46 84 59 e2 46
       19555.873 49332.855 13314.7 28972.758
000050 58 ac e4 46 f8 a3 94 46 44 51 8a 46 61 df 73 46
       29270.172 19025.984 17704.633 15607.845
000060 24 89 90 46 d6 05 f5 46 da a5 8f 46 ef 46 08 47
       18500.57 31362.918 18386.926 34886.934
000070 17 cb 0f 47 f1 dc 90 46 d2 83 99 46 c2 d0 a3 46
       36811.09 18542.47 19649.91 20968.379
000080 a4 e1 dc 46 2a e3 2f 47 5f be 1a 46 4b 4f 89 46
       28272.82 45027.164 9903.593 17575.646
000090 d4 3b 2b 47 53 c0 98 46 d8 73 79 46 cf 25 e2 46
       43835.83 19552.162 15964.961 28946.904
0000a0 d4 f3 09 47 c5 86 b4 46 63 52 08 47 c8 71 88 46
       35315.83 23107.385 34898.387 17464.89
0000b0 89 50 db 46 53 1c ec 46 21 56 e0 46 5b 4e 97 46
       28072.268 30222.162 28715.064 19367.178
0000c0 e1 9b a4 46 39 86 f5 46 fe da d6 46 8a 22 d9 46
       21069.94 31427.111 27501.496 27793.27
0000d0 68 27 fd 45 a8 f0 b5 46 6f 65 1f 47 f4 91 9e 46
       8100.926 23288.328 40805.434 20296.977
0000e0 e0 0c 5f 46 64 f8 f1 46 fb c8 81 46 72 8d 05 47
       14275.219 30972.195 16612.49 34189.445
0000f0 4c 4f d6 46 9c 65 a7 46 a4 aa d2 46 0f 4f 5d 46
       27431.648 21426.805 26965.32 14163.765

conv2.weight f4 [32, 64, 5]
000000 71 36 ab bd 75 b8 47 3d 0d c2 43 bd 69 6a f9 3d
       -0.08359993 0.048759896 -0.047792483 0.12178499
000010 07 88 63 bd 55 79 44 3e af db 68 bc 58 da c5 bd
       -0.055549648 0.1918691 -0.014212533 -0.096607864
000020 95 c2 a1 3d 80 6d c8 3b 56 ba 51 bd c1 e3 24 be
       0.07898442 0.006116569 -0.051203094 -0.16102506
000030 fa 7d 80 bd 10 fe 9c 3c af 89 cd bd 8c 3f 90 bd
       -0.06274028 0.019164115 -0.10036027 -0.070433706
000040 a6 93 ba 3d 69 f7 eb bc 05 9e 56 bd c5 74 0c be
       0.09110193 -0.028804498 -0.052396793 -0.13716419
000050 22 3a 3c be 19 5a 1d be 5c 2d a0 bd be 17 b2 3c
       -0.18381551 -0.15366401 -0.078211516 0.021739837
000060 d3 15 0f 3a 51 2c 57 bd a3 bb 33 3a f3 20 e5 3d
       0.0005458269 -0.052532498 0.0006856268 0.11187925
000070 24 93 b5 3d c0 1e e5 bd 35 6c d4 bd f5 79 d4 bd
       0.088659555 -0.11187506 -0.10372201 -0.10374824
000080 19 36 99 3d 92 5d b6 3d 90 56 9c bd dc af 13 3d
       0.074810214 0.08904566 -0.07633698 0.036056384
000090 54 44 a1 bd b3 29 cd bc 13 ca 7c 3d a2 97 a7 bd
       -0.07874361 -0.025044298 0.06171615 -0.081832185
0000a0 8b 39 86 3d bd 09 b9 bc 06 77 ce bc 11 7c d2 3d
       0.06553944 -0.022587651 -0.02520324 0.1027757
0000b0 06 eb 8d bd 8c 73 72 bd 52 50 54 3d d3 b3 85 3d
       -0.06929593 -0.059192225 0.051834412 0.065284394
0000c0 48 3c 46 3d d5 76 91 bd 0d a5 b7 bd 35 f3 cf bc
       0.048397332 -0.071027435 -0.08967028 -0.025384525
0000d0 f4 11 e4 3d ce e1 4f 3d 7b bc 7c 3d 74 50 a1 3d
       0.11136237 0.050752454 0.061703186 0.07876673
0000e0 71 e2 64 bd 7e 4c c1 3d cc f3 19 bd 41 84 c6 bd
       -0.055880014 0.09438418 -0.03758602 -0.09693194
0000f0 2f 7b d4 3a 88 90 c5 bd 2a bb 85 3d 8b 74 77 3c
       0.0016211028 -0.09646708 0.06529839 0.01510347
000100 5c f6 7a bd aa bd 6a 3c 99 58 ce bc 6b 9e d5 3d
       -0.061270103 0.014327446 -0.025188731 0.104306065
000110 f2 14 bd bd e0 a7 58 bd 4c 14 07 be 86 2c 90 bd
       -0.092325106 -0.052894473 -0.13191336 -0.07039742
000120 f9 f8 c1 bd 13 7d 83 3d d2 55 90 3c 4f 90 6b 3d
       -0.09471316 0.064203404 0.017619047 0.05751067
000130 06 0d 10 be 0c 7d f4 bb da f6 df bd 98 02 60 3c
       -0.14067468 -0.007461196 -0.10935755 0.013672493
000140 94 c5 cb bd cb 2c 9a bd 78 d3 4f bd 35 f2 5f 3d
       -0.099497944 -0.07528075 -0.05073878 0.054674346
000150 65 84 e8 3c 38 d5 f4 bd 81 7a 45 3c 79 89 47 3d
       0.028383443 -0.11954731 0.012053133 0.04871509
000160 cf 19 4a 3c 5f 2e 0d be 76 32 09 3d 96 e2 1e 3d
       0.012335255 -0.1378722 0.03349539 0.038790308
000170 09 9e 3a 3d 8c b0 fa 3d df 46 ba 3b 1d ca a4 3c
       0.04556087 0.12240705 0.005684718 0.020115906
000180 20 52 74 b7 db 98 e0 3d 2a e5 d7 bd da 40 aa 3d
       -1.45626545e-05 0.10966655 -0.105417565 0.08313151
000190 7b c5 bb bd 37 95 ee bc 3f 1d 39 bb 81 23 03 3d
       -0.09168526 -0.029123886 -0.0028246192 0.03201628
0001a0 66 e8 b5 bd c9 a4 ef bd b2 1e 0e bd 54 da 6b 3d
       -0.08882217 -0.11701352 -0.034697242 0.05758126
0001b0 40 fb 03 be 28 cc bd bd 39 cc da bd 48 ac 19 3d
       -0.12888813 -0.09267455 -0.10683484 0.037517816
0001c0 06 36 03 be 0e 43 df bc e7 43 7a 3c 96 3d 5b bd
       -0.12813577 -0.027253654 0.015274978 -0.05352553
0001d0 60 46 a3 3d f4 d3 f3 bd 94 76 97 3d 55 b8 2c 3d
       0.07972407 -0.11905661 0.07395664 0.04216798
0001e0 df a5 e4 3c b7 40 d0 3c bc 53 91 3c 02 47 b7 3c
       0.027911125 0.025421483 0.017740123 0.022372726
0001f0 4c c6 97 bd e8 bf d3 bd d6 b3 94 3d c7 69 8f 3c
       -0.07410869 -0.103393376 0.072608635 0.017506493
000200 f7 b8 b5 3c b7 e9 cb bd 80 0c df 3c e2 54 99 3c
       0.022182925 -0.09956687 0.02722764 0.018717233
000210 8d b0 a4 bd 41 b5 d8 3c 91 73 33 3d e4 3f 96 bd
       -0.08041487 0.026453616 0.043811385 -0.07336405
000220 67 27 6b 3d 14 fc ba bd 22 18 db bd fd a5 ab bd
       0.057410624 -0.09130111 -0.10697962 -0.08381269
000230 12 fd a7 3c ca 14 42 bd 34 24 01 bd ac 6c b8 3d
       0.020506416 -0.047383107 -0.031528667 0.090051025
000240 ae 53 ac 3d 7d f9 d5 3c d5 98 a2 3d 69 cd 70 bd
       0.08414398 0.026119942 0.07939307 -0.058789644
000250 f3 0e 65 bd d4 d3 38 bd 96 8b 63 3b f4 f2 11 be
       -0.05592246 -0.04512389 0.003472065 -0.14252836
000260 47 46 83 3d 57 1e e1 ba 41 3c ba bd 4d e8 8d bd
       0.06409889 -0.001717518 -0.09093524 -0.069290735
000270 a2 d1 5b 3d 3b a9 2b bd f8 28 84 bd 00 c5 80 bd
       0.05366672 -0.041909438 -0.06453127 -0.06287575
000280 5b 05 aa 3d 2e 43 87 bd ac f6 12 bc c5 23 ac 3d
       0.08301803 -0.066046104 -0.008969944 0.0840526
000290 22 03 f8 3b 3d 36 68 bd 41 b6 a0 3d 68 45 82 bd
       0.007568733 -0.05669235 0.07847262 -0.063608944
0002a0 41 1a b5 bb 83 77 06 3d 26 20 7e 3c ec fa 91 3d
       -0.0055268114 0.03282882 0.0155105945 0.07127938
0002b0 c7 74 09 3e a5 76 eb 3c 6c 29 f5 bc 05 8e 8f 3d
       0.13423453 0.028743098 -0.029926978 0.0700951
0002c0 5f df 08 be 5b 07 8a bd 82 b4 85 bb ca bf 38 bc
       -0.1336646 -0.06739684 -0.004080356 -0.011276195
0002d0 78 1b 9f bc 93 93 58 3c c0 d4 9a 3a 1d 9a bd bd
       -0.019422278 0.013218778 0.0011812672 -0.092579104
0002e0 b5 85 37 bd 03 7b bf 3c cb d7 ab bd 6b 6e 24 3d
       -0.044805247 0.023374086 -0.083907686 0.040144365
0002f0 3d 03 c6 3d 15 ba 8a bd 4c 55 bd bd 2b c9 20 bb
       0.096685864 -0.067737736 -0.09244785 -0.0024533968
000300 c9 fb b6 bd f5 ed 00 3e 60 f0 4f bd eb 6d 24 3d
       -0.08934743 0.12590773 -0.05076635 0.04014389
000310 4e 45 b8 3d 5a b8 17 bd 51 f7 a4 3d 3c 9c d5 bc
       0.08997594 -0.037041046 0.08054984 -0.026075475
000320 ce d4 ed bd 5e b0 c6 bd e5 cc 62 bd ca d8 3c bb
       -0.11612855 -0.09701608 -0.055371184 -0.002881574
000330 b4 8a a4 bd 60 69 1a bd 5d 88 b9 bd c3 f2 58 3d
       -0.08034268 -0.03769815 -0.09059212 0.05296589
000340 b8 81 d1 bd e2 02 73 bd 58 0e 76 3d 56 78 85 bd
       -0.1022982 -0.05932892 0.060072273 -0.06517093
000350 a9 3c 78 3d 93 f0 aa 3c 1d 3e 03 be 92 f4 81 3d
       0.060604725 0.020866668 -0.12816663 0.06345476
000360 db 51 0d 3e 88 da 07 be 97 50 9d bc 47 b2 ef 3c
       0.13800757 -0.13266957 -0.019203467 0.029259814
000370 78 51 e2 3d 34 73 98 3d df 8a 28 3d 1a d4 34 3d
       0.11050695 0.07443848 0.041148063 0.04414759
000380 b8 6a d0 3d 4d f3 83 bc 87 0b c9 bd b7 30 c0 bd
       0.10176605 -0.016107226 -0.09816652 -0.093842916
000390 7d c0 5c 3d b3 d6 c4 bd 0b 18 ca 3d ce 9b e2 3d
       0.05389451 -0.09611263 0.09867867 0.11064874
0003a0 44 04 c2 bd 9a f1 5e 3d fe e1 cb bc be ed 82 3d
       -0.0947347 0.054429628 -0.024888035 0.06393002
0003b0 3f a9 35 3d ee 0a 54 3d 05 1a ca 3c 6c 3c 98 bc
       0.04435086 0.051768236 0.02467061 -0.018583499
0003c0 43 b4 12 3d 41 53 f0 bd 3d c8 a0 bc 89 8b 5a 3d
       0.035816442 -0.117346294 -0.019626731 0.053355727
0003d0 d4 59 4b 3d 2e d2 26 bd 07 66 ca bd 87 c3 e1 bd
       0.049646214 -0.040727787 -0.098827414 -0.11023622
0003e0 72 c5 a2 3c 93 43 62 bd c5 c6 cf 3d 75 5a 15 bd
       0.01986954 -0.055240225 0.10145334 -0.03646322
0003f0 d2 01 2d bd 39 30 ac 3d 00 fd ed bc 2d a0 33 be
       -0.042238064 0.08407635 -0.029051304 -0.17541571

conv2.bias f4 [32]
000000 e8 b7 e5 b9 a9 9f 02 3c 92 13 84 3b fa 23 57 3a
       -0.00043815305 0.007972636 0.0040306533 0.000820696
000010 d9 34 a4 3b b8 99 4b 3b c9 5b 8a b9 35 c9 d6 bb
       0.0050111827 0.0031066965 -0.00026389796 -0.0065547475
000020 42 87 48 ba 86 1b c0 3a a9 d8 e3 bb 50 1e 52 3b
       -0.00076495495 0.001465664 -0.006953318 0.0032061525
000030 f7 24 cb 3b 32 49 bc bb 50 0b 1d bc 20 5e 0a b9
       0.006199475 -0.0057460302 -0.009585217 -0.0001319577
000040 fc 0f 49 ba 36 39 f2 3a cc 0b 80 b9 75 07 29 bb
       -0.00076699234 0.0018480185 -0.00024422852 -0.0025791798
000050 71 27 e4 ba 1e f0 a4 ba 1a 5b b9 3b 16 2c d7 3a
       -0.0017406774 -0.0012583768 0.005656612 0.0016416337
000060 1d e4 82 ba d5 9e 86 bb 1a 49 9b bb 56 2f 02 3a
       -0.0009986196 -0.0041082897 -0.004738939 0.000496616
000070 82 b7 03 3b 45 42 aa 3b 47 07 ed 3b 31 90 de 3a
       0.0020098393 0.005195888 0.0072335335 0.0016980228

bn2.weight f4 [32]
000000 f5 77 88 3f db d5 86 3f f2 9b 6d 3f 3e b0 6c 3f
       1.0661608 1.0534014 0.9281608 0.92456424
000010 00 2b 70 3f 62 b3 6e 3f 85 e3 84 3f b5 d9 84 3f
       0.9381561 0.93242466 1.0381933 1.0378939
000020 75 9d 7f 3f f9 9c 75 3f ec 62 88 3f 2c 8e 6e 3f
       0.99849635 0.95942646 1.0655189 0.9318569
000030 81 17 82 3f 4a 31 77 3f e5 2b 86 3f 17 c8 7c 3f
       1.0163423 0.96559584 1.0482146 0.9874281
000040 14 01 77 3f 89 a0 81 3f fc 9b 8c 3f a7 a7 83 3f
       0.9648602 1.0127116 1.0985103 1.0285538
000050 cb 07 78 3f 56 24 85 3f e0 5d 7c 3f 41 cc 82 3f
       0.9688689 1.0401714 0.9858074 1.0218583
000060 ec 36 76 3f 34 51 6a 3f dc a6 83 3f 46 ab 75 3f
       0.96177554 0.91530156 1.0285296 0.9596447
000070 78 1a 76 3f 9b 1c 83 3f 3b 55 85 3f 05 3a 7a 3f
       0.9613414 1.0243105 1.0416635 0.9774478

bn2.bias f4 [32]
000000 be 0d 22 3c e2 8c a0 3b d2 b0 f6 bd ee ea 9c bd
       0.009890972 0.004899607 -0.120454445 -0.07661997
000010 bf 1f 72 bd 88 ac 35 bd cc 80 2b bd 78 19 25 bd
       -0.059112307 -0.04435399 -0.041870877 -0.040307492
000020 0b e5 17 bd ba 9d 90 bc a2 80 c8 3c 40 65 3a bd
       -0.037083667 -0.017653335 0.0244754 -0.045506716
000030 4a 07 11 bd b7 0f b3 bc f5 1e 07 bc bf 66 35 bc
       -0.035407342 -0.02185808 -0.008247127 -0.01107186
000040 12 7c 80 bc 97 b2 c3 bb 84 c2 6e 3d 7f 45 29 bc
       -0.015684161 -0.0059722173 0.058290973 -0.010331511
000050 ea 07 a6 bc f9 91 05 bd 68 0c 72 bc 36 8d da 3a
       -0.020267446 -0.032609913 -0.014773466 0.0016674164
000060 dd f9 86 3d e9 e9 ae bd 89 57 c5 3b 9c a7 73 bc
       0.065906264 -0.085407086 0.006022398 -0.014871504
000070 e3 89 05 3b cb bb 78 bd c8 3a e0 bc a0 a7 89 bd
       0.0020376376 -0.06072597 -0.02737178 -0.06721425

bn2.running_mean f4 [32]
000000 04 9e 4f bf 7b 39 69 bf fa c4 bc bf 0f ce 53 bf
       -0.8110049 -0.91103333 -1.4747612 -0.82736295
000010 29 38 a3 bf 4d 45 57 bf f0 83 53 bf 4c ea 56 bf
       -1.2751514 -0.8409012 -0.82623196 -0.8395126
000020 b3 2a cb bf fe 25 9c bf 96 5a a4 bf 3b 47 9c bf
       -1.5872406 -1.2199094 -1.2840145 -1.2209238
000030 95 17 8a bf 29 97 6f 3e 8b 83 59 bf 5f 42 93 bf
       -1.0788447 0.23397507 -0.84966344 -1.150463
000040 f6 b3 82 bc c6 35 91 bf da ea 65 bf 90 69 7c bf
       -0.015954953 -1.1344535 -0.8981148 -0.98598576
000050 39 15 8b bf c1 10 8b bf 5c e3 85 bf b7 b9 3f bf
       -1.0865852 -1.0864488 -1.046001 -0.74892753
000060 dc b4 91 bf ae 0e c3 3e a0 53 70 bf 6a 70 52 bf
       -1.1383319 0.38097137 -0.938776 -0.8220278
000070 5f 50 56 3f b0 de a6 bf 83 ba 99 bf 66 48 93 bf
       0.83716387 -1.3036709 -1.2010044 -1.1506469

bn2.running_var f4 [32]
000000 b5 01 f3 3f e7 4c d5 3f a8 49 51 40 b4 de b5 3f
       1.8984896 1.6664094 3.2701206 1.4208589
000010 89 3c 22 40 c0 e8 1d 40 2e a0 a9 3f 1a 46 e1 3f
       2.5349448 2.467331 1.3252008 1.7599518
000020 d0 f8 64 40 ee da 19 40 05 f9 0a 40 cd 33 0e 40
       3.5776863 2.4039874 2.171449 2.2219117
000030 5c aa d5 3f 8a 6e b5 3f c7 b0 ab 3f 2f 15 1f 40
       1.6692615 1.4174359 1.3413323 2.485668
000040 4c ed cd 3f a9 10 0e 40 04 87 cb 3f 67 f8 d3 3f
       1.6088042 2.2197669 1.5900578 1.6560181
000050 04 b4 23 40 f8 0a f8 3f 77 e2 04 40 40 68 97 3f
       2.5578623 1.9378347 2.0763223 1.182869
000060 cf 6e 33 40 8b 8f c0 3f 10 e5 d5 3f fc fe 05 40
       2.8036382 1.5043806 1.6710529 2.093688
000070 c5 6d b1 3f 8f 9d 11 40 b4 86 22 40 26 f1 31 40
       1.3861624 2.2752416 2.5394716 2.7803435

conv3.weight f4 [16, 32, 5]
000000 8f f4 ba bd c6 bd 04 be f7 ef 25 ba 75 c3 b5 3d
       -0.09128677 -0.12963018 -0.0006330008 0.08875171
000010 a0 00 02 3c 4f 6c 93 bb 14 31 2c be 94 7e 84 be
       0.007934719 -0.0044989954 -0.16815597 -0.2587782
000020 02 21 2b be ba ff f5 bd b0 df 2c be 56 7c 26 be
       -0.1671181 -0.120116666 -0.16882205 -0.16258368
000030 a1 40 a9 3d 00 d1 97 3d 8b 7a e2 3c ba 18 57 3d
       0.0826428 0.074129105 0.027646324 0.052513815
000040 73 e9 c5 3b 51 95 df bd db e8 c5 3d 42 86 b4 3d
       0.006039792 -0.10917152 0.09663554 0.0881467
000050 fa ad af 3d 3f c6 fd bb e1 cd 44 bd 0d 27 ce bd
       0.08578105 -0.00774458 -0.048047904 -0.10066042
000060 16 d3 96 bd 94 67 89 3d e9 09 17 be ac c4 5a 3d
       -0.0736448 0.06709209 -0.14749874 0.053410217
000070 c3 43 a0 3d 23 dd 06 3e 3d 20 13 be ab 44 e9 3d
       0.078254245 0.13170294 -0.14367767 0.113900505
000080 ca 11 a7 3c 3e 9c c6 3d 57 3b ea bd 54 e5 dd bd
       0.020394225 0.096977696 -0.114370994 -0.108347565
000090 49 8f 1c bd c7 40 27 be 9f 6a 4a be 17 13 9b bd
       -0.038222585 -0.16333304 -0.19767235 -0.075720005
0000a0 0a 96 e7 bd a2 49 24 be 4d 1d 3e 3d ee 09 a0 3c
       -0.113079146 -0.16043714 0.046414662 0.019535985
0000b0 0e d9 00 3d b2 94 ae bd b3 8a 75 3d 0d d3 b4 bd
       0.031457 -0.08524455 0.059946727 -0.08829317
0000c0 11 d5 0b be b6 0a a1 3d 7d 5f a2 3d ab 91 46 3d
       -0.13655497 0.07863371 0.07928369 0.048478764
0000d0 8f 25 ac bd ed 82 d3 bc db 3e 48 3d 7d f6 54 3d
       -0.08405601 -0.025819266 0.04888807 0.051992882
0000e0 78 02 01 3e ec e3 38 bd 6a 63 92 3d d8 61 b7 bd
       0.12598598 -0.04513924 0.07147868 -0.08954209
0000f0 88 11 cd bd 24 ee e9 bd 20 09 f5 bd 62 f3 96 bd
       -0.100131094 -0.11422375 -0.11964631 -0.0737064
000100 ed 3c 90 3d 24 6c 96 bd c8 c6 ff 3c 5e c3 33 be
       0.07042871 -0.07344845 0.031222716 -0.17554995
000110 b8 1b 66 3d 11 0f 2f bd c6 61 40 bd 16 5c 96 bc
       0.05617878 -0.042738978 -0.046968244 -0.018354457
000120 4a dd 10 be 2c 57 01 bd 35 13 17 3c bf 70 00 3d
       -0.14146915 -0.031577274 0.009220888 0.031357523
000130 f8 1c f2 bd 12 5f 8e bd 00 4c 0f be d5 30 33 be
       -0.118219316 -0.06951727 -0.13993835 -0.17499097
000140 e5 13 a0 3b 0b 0d ff bd 43 5a ff bd b3 82 03 bc
       0.004885184 -0.124536596 -0.12468388 -0.008026767
000150 2d 7b a6 3d aa 7e da 3d 7a 29 29 3e 03 96 2e 3e
       0.08128963 0.106686905 0.16519728 0.17049412
000160 22 57 25 3e 69 f6 3b bd 19 bc 21 3e 64 fd 20 3e
       0.1614652 -0.045889292 0.1579441 0.15721661
000170 fe 2d e0 3d c0 be df 3d 4f a3 5f 3e 2f 24 0e bd
       0.10946272 0.109250546 0.21839641 -0.034702476
000180 c8 a2 7b 3b 58 00 7b bc e5 03 0f 3d 33 e8 33 3d
       0.0038396586 -0.015319906 0.034915823 0.043922614
000190 2e 6c 43 3d f8 ba 63 3b fe 77 f2 bd 06 4f 48 bd
       0.04771059 0.0034748893 -0.11839293 -0.048903488
0001a0 e9 83 b3 bd 79 7e 35 3d 6b 57 95 bd e9 2e 9e bd
       -0.08765394 0.044310067 -0.07292064 -0.07723791
0001b0 93 52 c4 bc b2 9d 24 bd c2 64 1a be 55 f0 c4 bd
       -0.023965156 -0.040189452 -0.15077499 -0.09616152
0001c0 c6 f3 1b be 8a 9e 24 be b2 52 43 3c 7a 32 c5 3c
       -0.15229711 -0.16076103 0.011921572 0.02407192
0001d0 60 5e b8 bd a0 5f 95 bd 05 23 2a bc 1f b1 65 bd
       -0.090023756 -0.0729363 -0.010384326 -0.05607712
0001e0 b0 74 f6 bd b8 16 6d bd 08 e9 6e bd 68 f8 c0 3d
       -0.12033975 -0.057882994 -0.058327705 0.0942238
0001f0 ac b2 30 be 90 6b d4 bd 01 ba 4f 3d 89 1a a7 3d
       -0.17255658 -0.103720784 0.050714497 0.08159358
000200 06 f2 a0 bd 84 7e 4d 3d 98 0f 2c bd 38 25 a5 3d
       -0.07858662 0.050169483 -0.04200706 0.080637395
000210 6e 44 ee bd 42 74 96 3d 90 85 d9 bd 52 e3 ae bc
       -0.11634146 0.07346393 -0.10621178 -0.02134863
000220 6b 6e c9 bc ef 09 25 3d c1 6f 1f be a5 91 24 3d
       -0.024588784 0.040292677 -0.15569974 0.04017796
000230 5a 07 a5 3d 63 11 b8 3d 35 4b 98 3b bc 53 8f 3b
       0.08058043 0.08987691 0.0046476373 0.0043739956
000240 84 67 e3 bd 1c 51 e8 bd 2c c0 27 3c 64 30 93 bd
       -0.111037284 -0.113435954 0.010238688 -0.07186964
000250 1b b4 f5 3d f8 58 3d bd d4 35 1a bd 44 ae 07 be
       0.11997243 -0.046227425 -0.03764899 -0.13250071
000260 c7 30 25 be 37 8e 6c 3d 2a 55 d7 3d bf a0 be 3c
       -0.16131888 0.057752814 0.10514291 0.02327001
000270 fe 9f 0b be 04 c6 50 bd d3 7f 47 3c 83 27 a2 3d
       -0.13635251 -0.050970092 0.012176472 0.079176925
000280 f3 c2 56 3e 8c bb 5a 3e 53 31 80 3d cd a3 ce 3d
       0.20972805 0.21360606 0.06259408 0.10089836
000290 f1 b5 64 3d 99 6b 02 3d 7a 44 af 3d e1 a1 e2 bc
       0.055837575 0.031840894 0.08557983 -0.02766508
0002a0 00 da 74 3e 83 c4 fe 3d 44 5c b0 3d 2b b1 2e 3e
       0.23911285 0.124398254 0.08611348 0.17059772
0002b0 59 f3 09 3e 80 29 1e 3e 19 95 14 bc b1 e6 ec 3d
       0.13471736 0.15445518 -0.009068751 0.115674384
0002c0 c8 ff aa 3c fb 55 d3 bb 1b cd 21 be 18 62 03 3e
       0.02087392 -0.0064494587 -0.15800898 0.12830389
0002d0 3d e6 81 bc f2 6b e4 bd 3d 39 d9 bc 8f 41 e9 3d
       -0.015856856 -0.111534014 -0.026516551 0.113894574
0002e0 49 62 f0 bc b0 44 9d bd 93 bd 80 bc 72 8e 76 3d
       -0.029343741 -0.07679117 -0.015715396 0.06019444
0002f0 8b 26 02 be 6f 1f f4 3c bb b5 87 3d 14 61 d6 3c
       -0.12710015 0.029800145 0.06626459 0.026169337
000300 e1 ad 24 3e d4 7e 9b bd fb e1 a3 bd 5f 4a 44 3d
       0.16081955 -0.0759255 -0.08002087 0.04792249
000310 d8 22 4f 3c 67 33 42 3c 4c ec 8c bd 0d 48 a9 bd
       0.012642585 0.011853076 -0.068810076 -0.08265696
000320 21 6e 2c 3e c6 f3 f3 bd 1f cc a4 3d 60 2f ea bd
       0.16838886 -0.119117305 0.080467455 -0.11434817
000330 b6 77 7e b9 c4 20 e4 bb 6a e1 14 bd 05 07 cd 3d
       -0.00024267923 -0.006961914 -0.036347784 0.100111045
000340 7b c5 dd 3c 0a 6e 54 3d 8d 0b aa bd 9d d6 99 3d
       0.027071705 0.051862754 -0.083029844 0.07511637
000350 06 84 14 3e 94 1f ad bc 6b 24 b2 3d 6d ac 05 3d
       0.14503488 -0.021133222 0.086983524 0.03263514
000360 62 1e 53 bd 71 46 f6 bd 7c e3 f5 bd 2e 66 0d be
       -0.051542647 -0.120251544 -0.1200628 -0.1380851
000370 04 cc ab 3c e6 03 68 3d f2 a8 f9 3d 40 7f 43 bb
       0.020971306 0.056644343 0.12190427 -0.0029830486
000380 03 50 53 3e 5a f6 33 bc 8a 91 88 bd 0e 5e 92 bd
       0.20635991 -0.010984028 -0.066683844 -0.07146846
000390 d2 a0 03 be e5 f5 0a 3e 4c 58 e1 bd 5b eb 7a bd
       -0.12854317 0.13570364 -0.110031694 -0.06125961
0003a0 0c 46 41 be ed 5c a9 3a 10 dc 4b bd 4e 76 2d be
       -0.18874377 0.0012921371 -0.049770415 -0.16939661
0003b0 dc 82 73 3b 94 28 74 bd 84 f5 86 3d 5c 60 82 3d
       0.0037156856 -0.05960901 0.06589797 0.06366035
0003c0 8c 3d 7d bb 08 ff 06 3e 62 81 48 3d 81 bd ae 3c
       -0.003864142 0.13183224 0.048951514 0.021330597
0003d0 18 b3 db 3d d7 df 31 3e 25 cf 56 bd 1d 8c 04 3e
       0.10727519 0.17370544 -0.052443642 0.12944074
0003e0 58 b1 04 3e b8 96 3f bd a4 19 8c bb ea d9 40 bd
       0.12958276 -0.046774596 -0.0042755175 -0.04708282
0003f0 64 b7 f9 3d d3 dd 06 be 98 31 8e 3c c5 c5 12 bd
       0.12193182 -0.13170557 0.017357633 -0.03583314

conv3.bias f4 [16]
000000 28 d2 c1 3c 85 0c dc 3a 26 33 23 bc e1 58 f2 3b
       0.02365978 0.0016788399 -0.009960925 0.007395849
000010 6d 10 a3 3c f8 97 28 bc bf 92 ba ba 82 b8 b4 ba
       0.019905293 -0.010290138 -0.0014234408 -0.0013787898
000020 be 5e 03 3c 99 50 c0 3b e2 19 4e bc 2c 50 6a 3b
       0.008018194 0.005868983 -0.012579413 0.0035753353
000030 d8 e4 f9 bb 5a 81 da bb fa 39 34 bc b2 59 9d 3c
       -0.0076261573 -0.006668252 -0.011000151 0.01920781

bn3.weight f4 [16]
000000 c0 28 8f 3f 9b ac 83 3f 38 3a 81 3f 26 75 8b 3f
       1.1184311 1.028705 1.0095892 1.0895126
000010 7e 74 8e 3f 60 9d 86 3f f4 77 5f 3f 8d 6d 82 3f
       1.11293 1.0516777 0.8729241 1.0189682
000020 cd e8 81 3f 35 b8 85 3f d1 b4 8b 3f 55 60 7f 3f
       1.014917 1.044684 1.0914556 0.99756366
000030 e1 b9 89 3f d0 a3 80 3f 2c d3 86 3f 58 28 85 3f
       1.0759851 1.0049992 1.0533195 1.0402937

bn3.bias f4 [16]
000000 14 aa 5b 3d 45 ad 3c 3b 22 18 71 bc b7 f3 42 3d
       0.053628996 0.00287898 -0.014715226 0.047595706
000010 52 54 35 3d ee cc b2 bb 97 96 c2 bd f3 4b 90 3b
       0.044269867 -0.0054565584 -0.09501379 0.004403585
000020 ed de ba ba 91 1f 9c 3c 73 fe 5f 3d 7f fb d5 bc
       -0.0014257111 0.01905802 0.05468602 -0.0261209
000030 d1 ee c7 3c 1b 5b 09 bd ec a7 a8 bc 47 62 03 bb
       0.024405869 -0.03353415 -0.020587884 -0.0020047592

bn3.running_mean f4 [16]
000000 a6 71 88 bf fc 02 6c 3f 89 9a 38 bf 5e 3d 1b bf
       -1.0659683 0.92192054 -0.721108 -0.60640514
000010 54 36 76 bf 77 d5 2e bf 1e a5 9e be 1d 66 24 bf
       -0.9617665 -0.6829447 -0.3098535 -0.6421831
000020 b9 d4 4b 3d 65 ca bc bf 74 5d 72 bf a3 da 2b 3f
       0.049763415 -1.4749266 -0.9467385 0.6713049
000030 9d 8f 43 bf 33 67 1d bf 8a bb a5 be 6d c4 84 bf
       -0.7639101 -0.61485595 -0.32369643 -1.0372444

bn3.running_var f4 [16]
000000 da 30 0c 3f b6 05 27 3f 60 8e e2 3e de 9c 01 3f
       0.5476204 0.6524309 0.44249249 0.50629985
000010 03 ab 13 3f 44 6e 08 3f ff 4d dd 3e f0 33 2a 3f
       0.5768282 0.5329325 0.4322357 0.664855
000020 91 ad 9f 3e 23 81 26 3f 02 9a 21 3f e1 02 15 3f
       0.31187108 0.65040797 0.6312562 0.5820752
000030 81 49 bf 3e c8 8f 19 3f cb d7 14 3f 44 b3 02 3f
       0.37360767 0.5998502 0.58141774 0.5105479

output_layer.weight f4 [11, 3008]
000000 36 a6 b0 bd a7 01 bb bd ca 22 cd bd b7 36 ef bd
       -0.08625452 -0.091311745 -0.10016401 -0.11680358
000010 da f3 cc bd 48 e6 43 bd 44 ab 08 bd 58 1e c3 bd
       -0.100074485 -0.047827035 -0.033366457 -0.09527272
000020 dd 5a ce bd 2d ad 59 bc 73 38 a0 bd 39 52 39 bd
       -0.100759245 -0.013285917 -0.07823267 -0.04524443
000030 40 cf 8f bd 35 67 5d bc 1f e2 51 bd 93 a1 75 bc
       -0.07021952 -0.013513376 -0.051241037 -0.014992136
000040 68 b1 28 bd 85 53 71 bd 52 5b a9 bc 11 88 83 bd
       -0.041184813 -0.05891754 -0.020673428 -0.06422437
000050 40 ca 2f bc d2 e8 94 bd ea 56 1a bd c7 db 78 bd
       -0.0107293725 -0.072709695 -0.037680544 -0.06075647
000060 89 98 7b bd b7 e1 18 bc 2c 13 78 bd 78 b6 bc bc
       -0.061424766 -0.009331158 -0.06056516 -0.023036227
000070 d2 bf 74 bd f7 e1 bc bb 26 f6 95 bd 72 12 09 bd
       -0.059753247 -0.005764242 -0.0732234 -0.033464856
000080 f0 6f 63 bd 2d df 8b bd ae 39 8d bd b1 55 ca bd
       -0.055526674 -0.06829677 -0.06895767 -0.098796256
000090 e4 34 e8 bd fc 61 24 bc 77 7c a1 bd 89 0c c0 bd
       -0.11338213 -0.010033127 -0.07885068 -0.09377391
0000a0 f2 3e 07 bd c7 4a 8d bd b0 01 81 bd f7 7e 31 bd
       -0.033019014 -0.06899028 -0.0629915 -0.043333974
0000b0 c1 e2 2e bd 64 4e 3d bd 4e 39 d1 bd d8 19 f7 bd
       -0.042696718 -0.046217337 -0.10216008 -0.12065476
0000c0 f0 01 96 bd f8 04 bd bd 2b 32 a2 bc 96 19 b9 bd
       -0.07324588 -0.09229463 -0.019799313 -0.09038083
0000d0 76 bc 02 bd 4d 49 d9 bd a1 64 f4 bd 3a d8 0c bd
       -0.03191801 -0.10609684 -0.11933256 -0.034385897
0000e0 42 7c 9e bd 4d a8 86 bd 39 01 68 bd 26 8d 94 bd
       -0.07738544 -0.065750696 -0.05664179 -0.072534844
0000f0 ab c3 0e bd 2b 48 75 bc 70 02 43 bd f7 6e a8 bd
       -0.034854572 -0.0149708195 -0.047609746 -0.0822429
000100 e7 bd e8 bd 9b 87 5d bd cc e6 12 bd 22 79 9d bc
       -0.11364346 -0.0540844 -0.035864636 -0.0192228
000110 0c 6c be b8 0c 7b 0f bd a9 7e ce bc 18 ab b9 bd
       -9.080031e-05 -0.035029456 -0.02520688 -0.09065837
000120 41 99 91 bd b0 fd bb bc 39 da 58 bd b0 cf 91 bd
       -0.07109309 -0.022948116 -0.05294249 -0.07119691
000130 43 67 71 bd b5 d8 5e bd 6b 30 21 bc 31 d7 9c bc
       -0.05893637 -0.054405887 -0.009838204 -0.01914558
000140 8c 7e 22 bd d1 08 47 bc be 67 d0 bc d8 85 0f bd
       -0.039671466 -0.012148098 -0.025440093 -0.035039753
000150 38 67 78 3b 59 cf 9e bc 84 43 c5 bd ff 42 bf bb
       0.003790332 -0.01938598 -0.09632018 -0.005836844
000160 51 f7 18 bd 36 6a 52 bd b8 e6 a8 bd 94 a8 d9 bd
       -0.037345234 -0.051370822 -0.08247131 -0.10627857
000170 f2 cc aa bc 35 a0 0e bd 3d 81 97 bd 17 e8 3f 3c
       -0.020849679 -0.034820754 -0.07397697 0.011713049
000180 c6 ca 4b bc 8e f7 8d bd d5 f2 73 bc 5d cb ec bc
       -0.012438482 -0.06931983 -0.014889439 -0.028905565
000190 06 94 44 bd 34 9c 26 bd 67 77 a2 bc 1d 1a 8f bd
       -0.04799273 -0.04067631 -0.019832326 -0.069874026
0001a0 c6 56 2f bd fe ef f7 bb c7 0b 56 bd 3c a9 22 bd
       -0.042807363 -0.007566451 -0.052257326 -0.039712176
0001b0 25 92 bb bd 20 bd 62 bd f7 11 46 bd ee 24 ad bd
       -0.09158734 -0.055356145 -0.048356976 -0.084543094
0001c0 98 47 1e bd 26 b5 0e bd f8 0d 51 bd 68 45 68 bd
       -0.038642496 -0.034840725 -0.051038712 -0.056706816
0001d0 6a 7b ea bd b9 c5 75 bd c2 7a cd bd d9 dd fa bd
       -0.114493206 -0.060003016 -0.1003318 -0.12249345
0001e0 c9 22 03 be 35 9e d6 bd c4 ef 88 bd ab dd 01 bd
       -0.12806238 -0.10479394 -0.06686357 -0.03170554
0001f0 ff ac 3d bd 2f d0 3e bd 95 c9 1d bd 2f ea 62 bd
       -0.04630756 -0.046585258 -0.03852232 -0.055399116
000200 40 6f a4 bd 0b 26 8c bd 11 19 4d bd 0b 6e df bc
       -0.08029032 -0.068431936 -0.050072733 -0.027274152
000210 f6 d5 82 bd 53 0e 8b bc 77 c4 5c bd de ac c2 bd
       -0.06388466 -0.016974604 -0.0538983 -0.09505628
000220 51 82 a1 bd 62 cb dd bd ca 23 1b bd 7d 1a e4 bd
       -0.07886184 -0.10829808 -0.037875928 -0.11137865
000230 da 32 35 bd e2 8a 6a bd 52 24 b3 bd 2c 68 c1 bb
       -0.04423795 -0.057261355 -0.08747162 -0.005902311
000240 31 07 8d bd 50 f6 57 bd 6e e4 86 bd 95 98 8c bd
       -0.06886137 -0.052725136 -0.06586538 -0.0686504
000250 6c 88 75 bd 50 d4 7b bd 55 00 be bd f0 d5 bf bd
       -0.059944555 -0.061481774 -0.09277407 -0.09366977
000260 dd ec 04 bd e3 16 d6 bc dc 04 8e bd 11 80 a0 bd
       -0.032452453 -0.02613396 -0.069345206 -0.07836927
000270 ce e5 71 bc fb 93 a1 bc 5c 89 45 bd f5 8b df bd
       -0.014764262 -0.019723883 -0.0482267 -0.109153666
000280 eb a8 c0 bd b7 f3 a8 bd 12 b6 a6 bd 46 1c 13 bd
       -0.094072185 -0.0824961 -0.08140196 -0.035915636
000290 72 6c fb bd 3f 19 e2 bd 3f d8 ea bd 43 52 fb bd
       -0.12276544 -0.110399716 -0.11467027 -0.122715496
0002a0 dc d2 bc bd 35 26 81 bd 26 04 29 bd cb 26 8c bd
       -0.09219906 -0.063061155 -0.041263722 -0.06843337
0002b0 c0 01 99 bd 59 b2 45 bc bf 4b aa bd 99 da 7f bd
       -0.07471037 -0.012066447 -0.08315229 -0.06246433
0002c0 f1 96 48 3b 5f 8b 44 bd 25 76 68 bc 7e e7 ab bd
       0.0030607546 -0.047984477 -0.014188324 -0.08393763
0002d0 b8 95 bc bd 3b 5e fd bc f8 d3 5c bd 32 47 5c bd
       -0.09208244 -0.030928722 -0.053913087 -0.053778835
0002e0 c1 10 80 bd 23 ed e4 bc fd 3e e7 bd 1d f5 17 bd
       -0.062531956 -0.027945107 -0.11291311 -0.037098993
0002f0 0e 55 8c 3d bc d8 a9 3d ff 99 a7 3d 2e ae a3 3d
       0.068521604 0.08293292 0.08183669 0.079922065
000300 f2 3f be bb 86 a9 4d 3d 5f 36 14 bb 69 f7 85 3c
       -0.0058059627 0.0502105 -0.0022615416 0.016353326
000310 25 9f 8c 3d f7 d5 bb 3d 69 c5 3f 3d d1 b7 01 3d
       0.06866292 0.0917167 0.046819124 0.03166944
000320 e9 74 c4 3d 42 36 7b 3d 2a 24 70 3d e1 d9 11 3d
       0.09592611 0.06133104 0.05862824 0.035608176
000330 ca 2c a1 3c 75 96 0a 3d f4 f8 9c 3d cb 47 1b 3d
       0.019674677 0.033834893 0.076646715 0.037910264
000340 dd 48 36 3d 64 21 50 bc b9 e4 00 3c 46 90 18 3d
       0.04450308 -0.012703273 0.007867032 0.037246965
000350 eb 52 95 3c ac 76 2b 3d fd d9 3d 3d 5b 70 0c 3d
       0.018228015 0.04186122 0.046350468 0.034286838
000360 04 c9 0b 3c 56 2c a0 3d af ca e0 3c e7 4d 0b 3d
       0.008531813 0.078209564 0.027440397 0.03400984
000370 50 44 b0 3c 59 1c d4 3c ed 7e 52 3d de 11 87 3d
       0.021516949 0.025892423 0.051390577 0.06595205
000380 c7 3e 4d 3d 2a c5 78 3d 85 48 88 3d d2 95 88 3d
       0.050108697 0.060734905 0.06654457 0.06669201
000390 e5 d2 80 3d 10 54 8e 3c a1 25 85 3d f2 f9 07 3b
       0.06290225 0.017374068 0.06501318 0.0020748344
0003a0 75 50 3f 3d eb ce 8b 3d 37 9b 26 3c ad f5 34 3d
       0.04670759 0.06826576 0.010168842 0.044179607
0003b0 e3 84 ce 3c 0a c6 d1 3b 07 c7 16 3d f7 13 bd 3d
       0.02520985 0.006401782 0.0368109 0.092323236
0003c0 b0 6f 29 3d 2e 3f 68 3d 78 0b c0 3c 04 1d b0 3d
       0.04136628 0.056700878 0.023442969 0.08599284
0003d0 3c 1c 14 3c 79 54 f3 3c f0 8d 32 3d 89 7c aa 3d
       0.009039935 0.029703366 0.043592393 0.083245344
0003e0 35 c4 85 3c c2 4d 54 3d 09 e7 0c 3d 0a 65 6b bb
       0.01632891 0.051831968 0.03440002 -0.0035918378
0003f0 6f a3 55 3d 8f c0 15 3d dc 15 1a 3d 53 7e 84 3d
       0.052157816 0.03656059 0.037618503 0.06469407

output_layer.bias f4 [11]
000000 f4 7b dc bb 39 d3 7f bc f4 3c 0e 3a b7 d7 98 bc
       -0.0067286436 -0.015614324 0.0005425953 -0.018657548
000010 d9 4c 95 bc b9 5f 0b bb 25 98 3d 3c aa 8d 33 3c
       -0.01822512 -0.0021266772 0.011571919 0.010959068
000020 3f f9 a4 bc ab b1 f3 3b 37 fa fc 3c
       -0.020138381 0.007436951 0.03088103
