libemg_3dc/split_by_samples/checkpoints/Split by samples (standartized by train set). subjects=22,num_epochs=20,batch_size=64,Adam(learning_rate=0.001,weight_decay=0),CosineAnnealingLR(T_max=20, eta_min=1e-05).pt (torch, 213735 bytes, 20 tensors)

conv1.weight f4 [64, 10, 5]
00000000: 85ed 823b 0cd6 00bd 17e4 a2bc 8e16 1d3e
00000010: 5f50 d4bd 9687 493e 21d2 d6bd 200b 1cbe
00000020: 3339 31bd 9d76 593e a95d cdbb 982b 2c3e
00000030: 5982 7fbd c7da 1dbe 74e2 83bd 86af abbd
00000040: ba6f 133c a7ed 3f3e f1c6 95bd e257 353c
00000050: 4aab d9bc 026d 443a f48f 363d 8a90 013e
00000060: 5af2 0bbd f7c9 c6bc c63f a5bd a34c ecbc
00000070: e07b ec3c e60b dabd 0279 033e d46a da3d
00000080: fb09 053d 0935 ab3d b34e 613d 1dab a83d
00000090: 5baf 1dbe 03c6 06be cdc9 17be 4f17 d53c
000000a0: fbd7 b93d 2a9c b1bd 485b e1bd 150b e33d
000000b0: 28e6 2cbd 96c8 27be 4dfc 58be 9dcc 613e
000000c0: 6d1c f93e ed38 5e3e 9389 95bd 489d 153c
000000d0: 7974 313e 1a8f c53d 19d0 0dbd 170e d7bd
000000e0: 2a3b 4d3d ba64 8b3e 5c6a b93d a6ee 33bd
000000f0: 3dfa 8dbd a30d 1a3e ef78 02be a2e5 f4bd
00000100: 5e74 2a3d a0fa 9ebd 7649 ad3d 0d33 aabd
00000110: 7bd8 14be 01e0 a13e 7fa2 f93d de1c 983e
00000120: 6996 adbc 01c4 063d cf0b 9b3e a765 c2bd
00000130: fa93 b6bc 5106 33be bac0 d0bc e5c2 0c3e
00000140: ab55 9e3d 3676 13bd bfac 903d e273 d23b
00000150: 788f 51bd 2d44 ec3c 1356 83be 0f77 4d3e
00000160: 21dd 453e 01bd e2bd af29 9c3b c5fc fabc
00000170: d694 6d3d 5afd 13bd 9d04 60be 79dd 333c
00000180: 2761 89bc f609 053e a221 193e 89a8 8ebd
00000190: 1c86 8b3e 11f6 12bd 1d7e 07be 29fc 48be
000001a0: 4f99 e83d f44c cf3d 3c6b 1d3d 6607 83bc
000001b0: cd22 99bd 93d1 7abc badd 263e 18ae 7d3d
000001c0: 9d43 55bd 1fc1 6dbe 78c7 8ebe 5b97 3cbd
000001d0: b115 d1bd 064a a73d 4e76 883d 340e d9bc
000001e0: bae0 97be 3549 d7bd e448 8c3e ab05 633e
000001f0: 7bc6 5d3e 095a 2bbe e293 6cbc 7e9d d63d
00000200: d0ea f23d 273e c13d 96c4 0b3d c084 abbc
00000210: 6137 86ba ec36 f6bd 7ba0 c9bd 1c31 46be
00000220: 6e17 f83c 6151 633d 1b14 4c3c b312 a2bd
00000230: 5e41 98bd c46e 72bc a284 79ba cf1a fc3d
00000240: a38d bc3d bce1 fd3d 99a5 ea3c b96b fa3b
00000250: 592a a9bd fe89 b53d 5728 2fbc 3b54 d6ba
00000260: e0f6 e2bd 2a1f 013d 191a c53d 5111 193e
00000270: 25e4 68bd 3828 8fbd db6b 21be 0ef9 423e
00000280: e0a9 51bd 8478 453e fbe9 90be 2292 f7bd
00000290: 3525 f23c f918 413e aa4e d43d 3ac1 103e
000002a0: 8c96 d83d a2ee fb3d 0b2d 413d 8433 6cbd
000002b0: 89e4 f63d 740f 293e 16ac 993c 6121 0cbe
000002c0: b959 31be 360f 86bd 13aa 983d b01d 66bb
000002d0: 6b9b f93c 95c4 01be bfd9 12bd 80cf 00be
000002e0: 75ef 52bd bab1 83be 54d7 5cbe 5e25 033e
000002f0: 3f55 fd3b 3aeb d5be 0dc5 333d 55b6 b9bd
00000300: 86fa 6f3e 580f 2b3e 03ed 08be f07a 2a3c
00000310: 49ab 84bd accf 79bd 7271 3d3e 565d c2bd
00000320: b254 8e3d 3dd6 9b3c 7ffa 3f3a 95fe 9ebd
00000330: cc5d 453d 0abf 553d 493c ec3d ba76 e73c
00000340: da8c e5bd 3014 bd3c 728e 953c bb45 163e
00000350: 89a3 1a3e abaa adbd da4a 633d 5f51 13be
00000360: d281 18bd a8e1 1dbe 588a 213e 8453 ae3e
00000370: d530 173d 6dd6 a13c 66c1 a5bd 5d10 3abe
00000380: 1e42 0a3e b378 86bd d1f8 973d af70 7cbd
00000390: 0c7b e43d 4271 3a3e 9857 f03d 0ab1 963d
000003a0: adad 44be 4a55 aebd a016 b73d 08d7 74bd
000003b0: 6929 8c3d 3a03 253c ae88 0cbd 749f 573d
000003c0: f035 253d 58c9 14be 1e40 5fbe dd0b 443e
000003d0: f8d9 a83e 5948 2b3e c8e9 1ebe fb24 9abd
000003e0: 7d7f 393e 4ccb 4d3d 8473 2d3d 8a35 f4bb
000003f0: bc0b fe3d f249 dfbd 427b 12be 8b4d 1c3e
0.0039955997 -0.03145413 -0.019884152 0.15340635 -0.10366892 0.19680628 -0.10489298 -0.15238619
-0.04326744 0.21236654 -0.0062672687 0.16813505 -0.06238017 -0.15415488 -0.06439677 -0.08383088
0.008998806 0.18743001 -0.07313336 0.011068316 -0.026570935 0.000749305 0.04457088 0.12652794
-0.03416667 -0.024266226 -0.080688044 -0.028845137 0.028867662 -0.10646801 0.1283913 0.10664907
0.03248022 0.08359725 0.055006694 0.08235762 -0.15398924 -0.13161473 -0.14823075 0.026012091
0.09074398 -0.08672364 -0.11003739 0.11086098 -0.04221168 -0.16385111 -0.21189995 0.2205071
0.486545 0.21701403 -0.07301631 0.009131737 0.17329587 0.09646435 -0.034622286 -0.10500734
0.05010525 0.27225286 0.090534896 -0.043928765 -0.06932495 0.15044264 -0.12741445 -0.119578615
0.041614883 -0.07762647 0.08461277 -0.083105184 -0.14535706 0.31616214 0.12189197 0.29709524
-0.021189885 0.032901768 0.30282447 -0.09492045 -0.022287358 -0.17482878 -0.025482524 0.13746221
0.077311836 -0.036001407 0.07064199 0.0064225057 -0.051162213 0.028841102 -0.25651607 0.20064948
0.19322635 -0.11071206 0.0047657113 -0.030638108 0.05800327 -0.036130287 -0.2187676 0.010978096
-0.016769959 0.12992081 0.14954236 -0.06965739 0.27250755 -0.0358792 -0.13231702 -0.19627441
0.11357366 0.101220995 0.038432345 -0.015994739 -0.07477341 -0.015308755 0.1629552 0.061933607
-0.052066434 -0.23218201 -0.27886558 -0.04604278 -0.102092154 0.08168416 0.0666319 -0.02649603
-0.2966364 -0.1051201 0.2739936 0.22170131 0.21657746 -0.16733564 -0.014439555 0.10479258
0.11861193 0.09435683 0.034123026 -0.020937324 -0.0010239893 -0.12022194 -0.09845062 -0.19354671
0.03028461 0.05549753 0.012455965 -0.07913723 -0.07434343 -0.014796916 -0.000951836 0.12309801
0.092067026 0.12396571 0.028643416 0.007642236 -0.0826003 0.088642105 -0.01069077 -0.0016352007
-0.11082244 0.03152386 0.09624118 0.14948012 -0.0568582 -0.06990093 -0.157638 0.1904032
-0.051187396 0.19284254 -0.28303513 -0.120884195 0.029558757 0.18857183 0.103665665 0.1413621
0.105755895 0.12301375 0.047162097 -0.057666317 0.12055308 0.16509801 0.018758815 -0.13684608
-0.17319383 -0.0654587 0.07454314 -0.003511291 0.030469617 -0.12672646 -0.03585219 -0.12579155
-0.051497895 -0.25721532 -0.21566516 0.12807223 0.0077311094 -0.41781026 0.043889094 -0.0906798
0.23435411 0.16705072 -0.13371663 0.010405287 -0.064779826 -0.060989067 0.18500307 -0.09490459
0.06949748 0.019023055 0.00073233986 -0.077634014 0.048185155 0.052184142 0.11534936 0.028254855
-0.11208506 0.023080915 0.0182564 0.14675038 0.15101446 -0.08479818 0.055491306 -0.1438651
-0.03723318 -0.15418112 0.1577543 0.34048092 0.036911804 0.019755566 -0.080935284 -0.18170305
0.13501784 -0.0656599 0.07420505 -0.0616309 0.11156282 0.18207267 0.11735457 0.07357986
-0.19206877 -0.08512361 0.08939862 -0.059775382 0.06843836 0.01007157 -0.034310035 0.0526423
0.040334642 -0.14529932 -0.21801803 0.1914515 0.32978797 0.16726817 -0.15518868 -0.07526585
0.18115039 0.050242707 0.042346492 -0.0074526714 0.12404582 -0.10902776 -0.14304832 0.15263955

conv1.bias f4 [64]
00000000: 8430 893b 92ea 0b3d 89cb ab3b a19f d7bb
00000010: a50c 843b 42d0 943d 9ad0 57bd ed98 91bd
00000020: 0003 513b 4fe7 b4bc f022 9d3b 6f00 bb3c
00000030: 125a 42bb 8b48 61bb af25 a1bb a166 333d
00000040: a939 083d 34d7 5d3c 53d9 e03b 49dd 8e3b
00000050: d8e8 133c a7e9 8a3c ff71 5bba bfab 00bd
00000060: 7f13 bcbb 281f d03b 833d 04bd 36f6 66bc
00000070: e3b2 003d 8668 223d d2bf 143c ac6a 133d
00000080: 122f 19bc 5bb7 fe3c 2672 983b f96f 8bbc
00000090: c981 823b 42eb d43b b15c 45bc 1645 57bb
000000a0: cd8f 37bd 3f3b 9cbc 7d83 acbc 0835 f9bc
000000b0: 0768 11bc 5c08 0d3c 3891 163c 303e 083c
000000c0: d8d0 8d3c 8e26 973c 9a14 093d 3b0b 013d
000000d0: 6c40 453d 1e73 663c b4dd d4bc ce83 023d
000000e0: fb0f 53bd 48c9 c3bc 36c2 673d 5bb9 d3bc
000000f0: 1f0e 5ebc 84a1 aa3d 8a5c e0bc dde2 983b
0.0041866917 0.03415925 0.005242769 -0.0065803085 0.0040298277 0.072662845 -0.052689172 -0.071092464
0.0031892657 -0.022082953 0.0047954246 0.022827355 -0.0029655737 -0.0034375514 -0.0049178223 0.043799046
0.033258114 0.013540078 0.0068618446 0.0043598753 0.009027682 0.016957117 -0.0008371174 -0.03141379
-0.005739629 0.0063513704 -0.032285225 -0.014096787 0.0314206 0.039650463 0.009078937 0.035990402
-0.009349601 0.03109329 0.0046522794 -0.017021166 0.0039827568 0.0064977715 -0.012046025 -0.0032847575
-0.044814873 -0.01907122 -0.021058792 -0.030420795 -0.0088749 0.00860795 0.009189896 0.008315608
0.017311499 0.018451001 0.033466913 0.03150485 0.04815714 0.014065532 -0.025984623 0.03186398
-0.051528912 -0.02389969 0.0565817 -0.02584522 -0.013553171 0.08331588 -0.027387876 0.004665716

bn1.weight f4 [64]
00000000: 751c 6e3f 0d75 843f aa3c 7d3f 8f62 853f
00000010: 28da 793f 4cff 8b3f 2564 903f c8a8 8b3f
00000020: 59de 913f 549c 873f 51da 553f 214c 6a3f
00000030: 4552 7d3f b781 7e3f 4317 823f 8ad6 833f
00000040: 17a0 6a3f efd8 893f 2e52 773f a1da 853f
00000050: 6747 813f 2673 843f b4f5 8c3f a7d5 8c3f
00000060: d440 863f 3875 733f eeba 563f 8047 663f
00000070: a7ea 803f e292 813f 248d 923f 5036 8c3f
00000080: 9e12 673f 5307 813f 0bdf 783f 8419 853f
00000090: 48aa 803f 3836 6c3f a079 773f a5fd 893f
000000a0: 4d54 863f 0e77 723f 06ad 6a3f 73d4 923f
000000b0: 996e 813f ca59 7c3f c95e 6f3f b40e 803f
000000c0: c0af 823f 8456 5f3f 1128 913f c756 7c3f
000000d0: 78ae 803f 403a 743f 46cc 7f3f a2a5 7f3f
000000e0: 1bf4 6c3f 80e0 5a3f 2ae1 6e3f d96f 693f
000000f0: 6813 763f 98b3 543f 5f91 7d3f 590b 7b3f
0.9301217 1.0348221 0.9892069 1.0420703 0.97598505 1.0937285 1.1280562 1.0910883
1.139598 1.0594583 0.8353625 0.91522413 0.9895366 0.9941668 1.0163349 1.0299847
0.9165053 1.0769328 0.9660977 1.0457345 1.0099915 1.034764 1.1012483 1.1002702
1.0488534 0.95100737 0.8387898 0.8995285 1.007161 1.012295 1.1449323 1.0954075
0.9026278 1.008036 0.97215337 1.0398412 1.0051966 0.9227023 0.9666996 1.0780531
1.0494477 0.94712913 0.9167026 1.1471084 1.0111877 0.9857451 0.93504006 1.0004487
1.0209885 0.8724139 1.1340352 0.9856991 1.0053244 0.9540138 0.9992107 0.9986211
0.92559975 0.8549881 0.93312323 0.9118629 0.9612336 0.8308654 0.99049944 0.9806419

bn1.bias f4 [64]
00000000: 6c4f 30bd 064f 053b e707 a1bc e821 4ebc
00000010: 8c1d 133c 9d58 873d fc4d b5bc 7428 2a3e
00000020: bb0b debc 567d 38bd 687b bc3b f3ba 013d
00000030: ea16 fe3c dd5a 1b3e 0286 4abc cf7c 6f3d
00000040: a1ad bbbc b8a9 f1bc 8f24 d23c 31e7 b1bc
00000050: d5a7 ab3d 7c21 153d 824c c6bc ca4a ea3c
00000060: 64e2 0b3e 6b4e ad3c 5f96 833d 7b96 133d
00000070: 31d4 783d 5ac5 433d 2b00 ffbc 5bf8 443d
00000080: 2df2 08bd fa73 f03b 9b20 193e c190 16bd
00000090: 6cb4 7fbb a608 5ebd 8d92 b3bd 4410 afbc
000000a0: f835 213a 3211 093d 1bd4 6ebc 3610 76bc
000000b0: e6b7 a0bc e6a0 8d3b 4432 193e 4256 923d
000000c0: 9905 8a3d 3e1f ac3c 39a9 88bd 4f5f 12be
000000d0: f39a 373c 789c 3c3d cfba 2a3b 9c55 7bbd
000000e0: 40ef 43bc cbf0 adbd d006 063d b2a4 473d
000000f0: 6c10 dbbb 298d 7c3e 0ab1 c7bc 455b 5c3d
-0.043044493 0.002034129 -0.019657088 -0.012581326 0.0089792125 0.066086985 -0.022131912 0.16616994
-0.027105203 -0.045041405 0.005752016 0.03167243 0.031016786 0.1517138 -0.0123610515 0.058468636
-0.022909941 -0.029499874 0.025652198 -0.021716686 0.08381621 0.036408886 -0.024206404 0.028600115
0.1366058 0.021155557 0.064251654 0.03603218 0.060749236 0.04779563 -0.03112801 0.048088413
-0.03343408 0.0073380442 0.14953844 -0.03675914 -0.0039017452 -0.054207467 -0.08768187 -0.02137006
0.00061497046 0.033463664 -0.014576937 -0.015018513 -0.01961894 0.004322159 0.14960581 0.071453586
0.06739349 0.021010991 -0.06672902 -0.1429417 0.011206376 0.046047658 0.0026051288 -0.06136094
-0.011958897 -0.08493193 0.03272134 0.04874105 -0.0066853072 0.24663223 -0.024376411 0.05379798

bn1.running_mean f4 [64]
00000000: ead6 a73b 2c37 093d 258b 9f3b 4c0f c7bb
00000010: 1ac2 423b 0a79 913d 28e3 57bd 3f06 95bd
00000020: 7fc1 333b f2c6 babc 9c77 9e3b da61 bc3c
00000030: db70 3abb 32a5 aebb 924a 98bb 1760 2f3d
00000040: cba7 083d 75f2 4c3c fc0a d43b b9c9 b03b
00000050: 6777 083c 1217 913c 0e64 eeb9 6949 febc
00000060: 061e 0dbc 3aad e23b 729b 07bd 12b4 74bc
00000070: 272b ff3c 47dd 1b3d 6de7 0f3c 0e15 0f3d
00000080: 592f 3cbc 9425 fc3c 9e60 753b de13 82bc
00000090: 7eef 713b b0d2 e23b 0533 41bc ff72 22bb
000000a0: cc4c 3abd 8a0d a5bc 8edf b9bc d0c9 f8bc
000000b0: 2584 0ebc d1f0 f33b d871 173c 6bd7 f23b
000000c0: f890 913c 8ea5 853c 029f 033d db6b 023d
000000d0: b1f0 413d d0a8 673c 5629 e6bc c891 fa3c
000000e0: d80b 5dbd 50eb cfbc f02c 5d3d 7b6b d6bc
000000f0: 5c9c 64bc a4b0 a73d a222 c1bc f6a2 963b
0.0051220553 0.03349988 0.0048688822 -0.0060748216 0.0029717744 0.071031645 -0.052706867 -0.07276582
0.0027428565 -0.022799943 0.004836036 0.022995878 -0.0028448615 -0.0053297514 -0.0046475613 0.042816248
0.033363145 0.012508978 0.006471036 0.005395141 0.008329249 0.017711196 -0.00045469444 -0.031040864
-0.008613115 0.006917623 -0.03310723 -0.01493551 0.031148506 0.038052823 0.008783204 0.03493219
-0.011485898 0.030779637 0.0037441622 -0.015878614 0.003691643 0.0069220886 -0.011791949 -0.0024787781
-0.045483395 -0.020148057 -0.022689607 -0.03036967 -0.008698498 0.007444479 0.009243451 0.0074109337
0.017769322 0.016314294 0.032134064 0.03184114 0.04734868 0.014139369 -0.028095882 0.030587092
-0.053966373 -0.02538076 0.053997934 -0.026174298 -0.013953295 0.081879884 -0.023576085 0.004597063

bn1.running_var f4 [64]
00000000: 55e2 5a3f 32d4 353f 8575 a43f 5298 6c3f
00000010: 19c8 273f 052d 9c3f 2ace f33e a3ed 233f
00000020: c1d7 eb3e 4ea9 083f 42dc c43f 6a87 693f
00000030: 3b44 c63f 83ef 2f3f 6f98 213f 69b9 8b3f
00000040: 40b4 4c3f 9db5 603f 4441 0d3f a831 213f
00000050: 357a 8d3f cb85 883f 29de 343f 3ae0 f23e
00000060: fca6 4b3f f9df c93f 7ecd 283f afbf 963f
00000070: 956f 243f 9c55 9a3f 53bd 2d3f 8142 823f
00000080: 7537 803f f606 863f 3d8d 323f 76ad f93e
00000090: 5d1f 743f 102e 523f f242 213f 217f 3f3f
000000a0: acfd fb3f 9be3 4c3f 440f a43f 48bd 093f
000000b0: 4d36 9d3f 9d0e 473f 0693 503f 846e b03f
000000c0: eeea 223f 4a88 963f 5e64 043f e485 a13f
000000d0: 285e 5f3f bfbe 953f 56e2 8a3f ebc7 ad3f
000000e0: e810 853f 0fe6 923f e809 c33f fd20 b63f
000000f0: d29d 0640 f4bd 8b3f 5901 b83f d35a 7a3f
0.85501605 0.7102691 1.2848364 0.9241992 0.655397 1.2201239 0.47618228 0.6403448
0.46063045 0.5338334 1.5379717 0.9122225 1.5489572 0.6872484 0.6312322 1.0915958
0.7996254 0.8777712 0.5517771 0.62966394 1.105292 1.066583 0.7065149 0.47436696
0.7955167 1.5771476 0.65938556 1.1777247 0.6423276 1.2057376 0.6786701 1.0176545
1.0016924 1.0470874 0.6974676 0.48765153 0.95360357 0.82101536 0.62992775 0.7480336
1.968679 0.800348 1.2817159 0.53804445 1.2282196 0.77756673 0.8147434 1.3783727
0.63639724 1.1760342 0.5171565 1.2618985 0.87253046 1.1698836 1.0850322 1.3576635
1.0395784 1.1476458 1.5237398 1.4228817 2.1033826 1.0917344 1.4375411 0.97794837

conv2.weight f4 [32, 64, 5]
00000000: 3c1f 8bbe 6687 cabd b33b 44be 4b41 d2bc
00000010: 51f0 70be 0e0a 1a3e cecc 183d 2560 433c
00000020: 8a5d 1a3e 178b 7e3d 0325 1abe 2f5a 6abe
00000030: ef41 d2bd 3255 9ebc 9766 75be c5e7 8abe
00000040: f523 f0bd ddc7 fdbd 1d49 c8bd eee2 b6be
00000050: 9f62 01be 6804 ebbd a37f a2bd ca82 d7bd
00000060: 4542 55be 86ce 85be 7b3c 80be 02f4 403d
00000070: b3d7 983d 1749 47be 5b8a 34be 0be3 00be
00000080: 8b2d 6b3d 77a7 edbc 1a2f 84be 5311 423e
00000090: c57d 67bd 068a db3c d5d8 de3d 6ccd 9ebc
000000a0: e46d ef3d 8411 21be acbe 7abd b86f b03d
000000b0: c1a2 c0bd 8bf5 5ebd ffac 7d3d 2734 113d
000000c0: 68df 0fbd ef25 48be c538 59be ecbc 09be
000000d0: 7be7 0d3d fbb9 3cb9 32dc 3dbc 3660 10bd
000000e0: 381b 08be 1f0a aa3d 9bdf f33c cf43 ffbd
000000f0: 3de8 62bd 2580 7fbe 5aba 88bc dd51 b2bd
00000100: 7fef 1dbe 36f3 fa3d cf9d 613d bb9e 333e
00000110: 2256 d5bd 14b9 c4bd 80e4 02be 4352 33be
00000120: bac2 51be ab41 763d a095 2a3d 4ec1 313e
00000130: 6815 a5bd bb8b 4f3d 804a e6bc fe85 0c3e
00000140: 3ceb d6bc f3b0 8fbe b8a7 64be c57b d03d
00000150: 4a36 bc3d 13f8 ddbc 3d9b a33d 1ee3 373d
00000160: e9a0 fd3c daac 0ebe 111d 403c b6ba 26bc
00000170: 37c9 c4bc abae 463e b42c 013e 61ed 3d3e
00000180: 3b8f af3d 0ebf 653e bede 8e3d 4f86 3b3e
00000190: b089 9fbd 0b29 a1bb 5d60 8c3c 95b4 a43d
000001a0: 592e cd3c c2cd adbe 7f6a 49be 9419 ccbc
000001b0: a19d 6cbe 0164 8abe dce7 03be 4a91 8a3d
000001c0: 0c05 70bd d482 b23d eba0 a13d 5a5f 023e
000001d0: 83f8 053e 6596 0bbd 4e55 173e d125 663a
000001e0: c7f4 393d 7dab 293d 6e8c 473c 4154 5cbc
000001f0: cd38 67be ac9d d6bd ef08 143d 2047 883d
00000200: 7a8b 8a3d 89ad 26bc e1ad 54bd 6a31 b83d
00000210: 2a4b 42bd c7b5 fbbd fdf2 17bd 6b51 80be
00000220: 2609 81bd 474d 80be 8196 88be 129f 80bd
00000230: eedd 87bb 5448 f8bc 5098 e4ba 921f 253d
00000240: c078 a6bd 3c5b dfbd 118d b7bb 7c99 b2bd
00000250: c194 efbd e7ef eabd 3978 f33d e532 afbc
00000260: 0b1b b93d 7b6b 06bc 69d6 b5bd 92f6 5abd
00000270: 0ef7 133e 6a91 d3ba de39 43be 65dc b8be
00000280: afde 273e 5e4b cf3c 344b c73d 63c2 193e
00000290: 395d e63d 3e0f 1dbe a935 e53d 86b4 8c3b
000002a0: e28d fbbc bd0e f0bd 3e3d 21bd 580d c33d
000002b0: 66ab 5a3e 4c46 023e 98c8 09bd 3043 69bd
000002c0: 67e0 a2bd 98aa ef3c 7774 593c fc84 3cbd
000002d0: bd75 dd3d 317b b63d 0c3a 913c 285a b9bd
000002e0: 8c1c bd3c b430 0ebe 1705 90be 6e25 b4bd
000002f0: 2452 6b3d be97 d6bd 0bd0 333c 4323 863d
00000300: fb29 88bd 276f fc3d 8930 b8bd e810 0e3e
00000310: 0220 453e ee93 7d3d 9287 3f3e 0d91 f73d
00000320: bd74 aabe 2683 cdbe 31b9 67be 813a d1bd
00000330: b0b9 6abe af7f d0bb d00f ffbb e7f8 0d3e
00000340: 8de7 cfbc 83fd 5bbd 2dbf 213d af3c 95bd
00000350: 93c3 05bc cc97 eabd fb6f 89be 5929 533d
00000360: 6b58 333e 7b0b 4b3d 4287 e03d 2822 f83b
00000370: 0ecd 713d c40c a63d ba3a 7d3d 616e ea3b
00000380: aed5 cf3d 4d69 3cbd 1dba c3bd 0d7b dcbd
00000390: 9ede a6bd 135c 91be 365c 0a3e dae3 083e
000003a0: b9c4 67bd 83b6 0b3e 813d bd3c c4d2 98bd
000003b0: e146 d4ba c05a 9e3d 5cea b8bc 7209 3abe
000003c0: d6e2 2b3e 72b5 2ebd 7029 6a3c dc76 873d
000003d0: 5227 d13d 5005 553d 91e8 a6bd d01f 81be
000003e0: 2020 2ebe a682 f1bd d6c9 383d 0e5e 35be
000003f0: 035a 9bbd 51eb d63d 53a9 b7bc 44dc 2cbe
-0.27172267 -0.098891065 -0.19163398 -0.0256659 -0.23529173 0.15042898 0.037304692 0.011924778
0.15074745 0.062144365 -0.15053181 -0.22885965 -0.10266482 -0.019327734 -0.23964916 -0.2712995
-0.11725608 -0.123916365 -0.0977957 -0.3572001 -0.12635277 -0.1147545 -0.07934501 -0.10522993
-0.20826061 -0.26134127 -0.25046143 0.047107704 0.07463016 -0.19461475 -0.17630903 -0.1258661
0.05741648 -0.029010518 -0.25817186 0.18951921 -0.056516428 0.026799213 0.10881201 -0.019385062
0.11690882 -0.15729338 -0.061216995 0.08615059 -0.09406043 -0.054433387 0.06193256 0.035450127
-0.035125166 -0.1954572 -0.21213062 -0.13450974 0.034644585 -0.0001799836 -0.011588143 -0.035248004
-0.13291633 0.08302712 0.02976971 -0.12464105 -0.05539726 -0.24951227 -0.016690422 -0.087070204
-0.15423392 0.1225342 0.05508214 0.1754102 -0.10416819 -0.09605613 -0.12782478 -0.17511849
-0.20484439 0.06012122 0.0416466 0.17358896 -0.080607235 0.050670367 -0.028111696 0.13722989
-0.026235215 -0.2806469 -0.22329605 0.10179857 0.09190042 -0.02709583 0.07988594 0.04489433
0.030960517 -0.13933125 0.01172568 -0.010176351 -0.024021728 0.19402568 0.12614709 0.18547584
0.08572241 0.22436163 0.069760785 0.18312953 -0.07789934 -0.004918223 0.017135793 0.08042256
0.025046514 -0.33946043 -0.19669531 -0.02491454 -0.23107006 -0.27029422 -0.12881416 0.06765993
-0.058598563 0.0871636 0.07892021 0.12731686 0.13083081 -0.034078974 0.14778635 0.0008779439
0.045399453 0.04142331 0.012179477 -0.013447822 -0.22580262 -0.10479292 0.036141332 0.06654191
0.06764884 -0.01017321 -0.051923636 0.089938 -0.047434963 -0.12290531 -0.037096966 -0.25062117
-0.06300573 -0.25058958 -0.26677325 -0.0628034 -0.004146329 -0.030307926 -0.0017440412 0.04031331
-0.081285 -0.109060735 -0.005601533 -0.08720681 -0.116982944 -0.11471539 0.11888165 -0.021386573
0.09038361 -0.008204336 -0.08878786 -0.053457804 0.14449713 -0.0016141359 -0.19065043 -0.36105648
0.16393541 0.025304493 0.09731141 0.15015559 0.112482496 -0.15337846 0.111918755 0.004293981
-0.030707303 -0.11721561 -0.039365046 0.095240295 0.21354446 0.12722129 -0.033638567 -0.05694884
-0.079529576 0.02925615 0.013272396 -0.04602526 0.108134724 0.08910216 0.017727874 -0.09050399
0.023084901 -0.13885766 -0.28128883 -0.08796202 0.057451382 -0.10478161 0.010974894 0.065496944
-0.06648632 0.12325888 -0.08993632 0.13873637 0.19250491 0.061908655 0.1870406 0.12088213
-0.3329219 -0.4013912 -0.22629239 -0.10216237 -0.22922397 -0.0063628773 -0.0077838674 0.1386448
-0.025378967 -0.053708564 0.03948896 -0.07286965 -0.008164304 -0.11454734 -0.26843247 0.051553104
0.17514198 0.049571496 0.109632984 0.007572431 0.059033446 0.081079036 0.061823584 0.0071542715
0.10148178 -0.04599886 -0.09556983 -0.107656576 -0.081479296 -0.2839056 0.13511738 0.13368168
-0.056584094 0.13643841 0.023100616 -0.07462075 -0.001619544 0.07732153 -0.022572689 -0.18167666
0.1678575 -0.04265351 0.014292106 0.066144675 0.10212578 0.05200702 -0.08149827 -0.25219584
-0.17004442 -0.11792497 0.04511436 -0.1771166 -0.07585528 0.10494102 -0.022419607 -0.168809

conv2.bias f4 [32]
00000000: ac50 f5bc 745f e9bb 33ac 863c caf5 bc3c
00000010: e72f 07bc 1a2a 0abb feba e4bb 994c bdbb
00000020: e518 55bc 707b 25bc 6538 95bb 6b02 74bb
00000030: 9fb4 aa3c 60a6 943b d60f 7b3c ef54 89bc
00000040: 11b1 d7bb d37e 063d 904a 133d 88f7 e1bc
00000050: f002 e43c 5219 293c a3fb 433d 748b d1bc
00000060: 7400 1fbb 7dd8 01bc 2f4f f83b 40c3 093d
00000070: 3e98 acba 21cd 11bc 6898 243c 0f22 a93c
-0.029945694 -0.0071219746 0.016439533 0.02306642 -0.008251167 -0.0021082223 -0.006980299 -0.0057769534
-0.013006424 -0.010100231 -0.004553842 -0.0037232887 0.02083808 0.004536435 0.0153236 -0.016764132
-0.0065823873 0.032835793 0.03595978 -0.027583852 0.027833432 0.010320978 0.0478474 -0.025579192
-0.0024261745 -0.00792515 0.007577799 0.03363347 -0.001316793 -0.008899004 0.010046102 0.020646123

bn2.weight f4 [32]
00000000: a3cb 833f 9b5b 8e3f 0728 843f e1b4 683f
00000010: 89c4 6d3f 708e 833f 90cd 803f 5d9a 5f3f
00000020: d4d0 743f a448 7d3f 6685 713f b37b 593f
00000030: bde6 823f 265c 743f 8a22 823f 7c93 6a3f
00000040: 2959 7b3f 41c0 8b3f 38cf 843f 573f 8e3f
00000050: 60de 8e3f 1de7 783f b89c 823f cda8 7f3f
00000060: 894b 843f 9aea 813f a465 623f 7fe8 6c3f
00000070: 7e91 403f 32fe 813f d7fe 823f 49a7 6d3f
1.029652 1.1121706 1.0324715 0.90901 0.92878014 1.0277843 1.0062733 0.87344915
0.95631146 0.98938966 0.94344175 0.84954375 1.0226666 0.9545311 1.016679 0.91631293
0.9818292 1.0918046 1.0375738 1.111308 1.1161613 0.9722765 1.0204077 0.99866945
1.0335552 1.014972 0.8843634 0.9254226 0.75222003 1.0155699 1.0234021 0.9283338

bn2.bias f4 [32]
00000000: fabe 24bd 9416 1abe be7d 58be 9bc8 8dbe
00000010: 1f95 8cbe 8510 25be ab7d 6cbe 7ca0 31be
00000020: a655 0ebe 751c e9bd d697 b7bd 2c92 98be
00000030: 56fd eabc 33f5 01be 4ad6 47be 0ae1 42be
00000040: a488 debd f591 b4be ffe7 31be d539 20be
00000050: 5eb1 11be cf8b f4bd 963a fcbd bcb0 41be
00000060: ea05 1bbe 5670 cebd 0838 83be 7442 b5bd
00000070: 98dd 4dbe a3e1 69be 9d85 b6bd 490a 87be
-0.040221192 -0.15047675 -0.21141717 -0.27692112 -0.2745752 -0.16119583 -0.23094814 -0.17346376
-0.1389986 -0.11382381 -0.08964507 -0.2979902 -0.028685253 -0.12691192 -0.19515339 -0.19031158
-0.10865906 -0.35267606 -0.17373656 -0.15647061 -0.14227816 -0.11940729 -0.12315862 -0.18915075
-0.15138975 -0.1008002 -0.25628686 -0.088505656 -0.20104063 -0.2283998 -0.089122035 -0.26375034

bn2.running_mean f4 [32]
00000000: d7e1 10c0 dc94 04c0 624a 36c0 c1c3 1ac0
00000010: cad5 00c0 9e51 11c0 0a94 0dc0 ea77 13bf
00000020: 2996 11c0 046b 1fc0 6f71 b8bf 4ae9 b8be
00000030: 2429 1bc0 7f4f 65bf 103f a2bf a8ec 09c0
00000040: d7a7 cdbf 0ea6 05c0 0df4 04c0 23d5 01c0
00000050: 2bf0 03c0 5100 f0bf e0f0 1ec0 3c19 dcbf
00000060: c95b d4bf f3f8 8bc0 b006 edbf ff63 0cc0
00000070: 9c99 193f 096c 02c0 58d6 17c0 e15d 06c0
-2.2637842 -2.0715857 -2.84829 -2.4181979 -2.0130486 -2.2706065 -2.2121606 -0.5760485
-2.27479 -2.4909067 -1.4409617 -0.36115485 -2.424386 -0.89574426 -1.2675495 -2.1550694
-1.6066846 -2.0882602 -2.0773957 -2.0286338 -2.0615337 -1.8750097 -2.4834518 -1.7195201
-1.6590511 -4.3741393 -1.8517666 -2.1936033 0.60000014 -2.037844 -2.3724575 -2.09948

bn2.running_var f4 [32]
00000000: 541c df40 8815 f940 aad8 2241 3f55 1741
00000010: f35c 2b41 4d47 0c41 8eea 0241 77a0 8a40
00000020: d23c f340 249e 0c41 e0f4 b740 c9cb 5f40
00000030: 40a3 3241 c038 ec40 f345 9740 e3d0 0e41
00000040: 3d76 aa40 598e f940 7670 bc40 fb90 c740
00000050: 8ad5 0941 1bc6 c240 7f99 0541 1780 bc40
00000060: 8089 b940 8fb4 8741 6f32 d640 d8e6 1241
00000070: b80c b340 aa49 0241 8174 1141 48e7 3f41
6.972208 7.7838783 10.1778965 9.458312 10.710193 8.767407 8.182264 4.332088
7.6011744 8.788609 5.748642 3.496813 11.164856 7.3819275 4.7272887 8.925998
5.3269334 7.7986264 5.888728 6.236448 8.614634 6.086683 8.349975 5.890636
5.7980347 16.963163 6.6936564 9.181358 5.5953026 8.142984 9.090943 11.993965

conv3.weight f4 [16, 32, 5]
00000000: 8757 54bd 5be3 10be 0361 08be 578e bdbc
00000010: c8d7 eabc 4c4e 223e 7648 1ebd 1629 cbbd
00000020: 11ce dabd 178d c4bd 48d1 35be 497b 7abe
00000030: 9094 3e3d f6c7 d8bc 0877 e5bd 85e6 6d3e
00000040: 81f0 9bbd c94a 51be ff9d 953e a334 3e3e
00000050: 8d59 b53d 2636 403d dc49 14bd 4c7a d3bd
00000060: 9ebd 7fbd 2a9a 5d3e c9a1 97bd d89a aa3d
00000070: 2018 313e 139d 793e e79a a43d 377e 7b3e
00000080: 4901 fe3d e699 103e 682c 68be 1a36 15be
00000090: 225e d6bd 9e77 32be 5b9f f0bd 79e7 1e3d
000000a0: 58d8 1dbd ffc4 38be b093 dd3c 161c 863d
000000b0: b0d7 e83d 83ba e6bd 4aee 9b3c 2efc 3cbe
000000c0: 1366 39be 6d82 c83d 986e 50bd 297d 8cbd
000000d0: 35a1 63be c2b8 c2bd cc33 87bd f845 16bd
000000e0: 87c2 113d 2766 14be bb07 69bd 061e 83be
000000f0: 740e 30bd d095 abbd be09 28be a016 c0bd
00000100: 814b 0c3e 41fd b0bd 1185 ab3d 1142 1bbe
00000110: 570e b5bd 9120 84be 9a4f 003e b57b c5bc
00000120: 0cf1 93be d1ff ab3d a571 a63d b020 eb3d
00000130: 2877 48bc 0fb6 96ba 4276 ddbd 7b1f 50be
00000140: 025f d33d bcd1 24bd 3e3a 11be e3ae 6f3d
00000150: 5ffc 613e 0c3a 043e 5a05 4e3e 16b5 943e
00000160: cc7e 383e 145d 20be 3d95 473d 9dd6 e23d
00000170: d4e1 3f3d 8673 acba b5f5 f93d f1e1 0f3e
00000180: c11a 9a3d 22e0 f13d b4a7 473e f71b 2a3e
00000190: 629c df3d c14b 1dbd 0414 74be a3dd d6bd
000001a0: 98fa 653d 8c8d 3a3d 54ca 9ebd a30c edbd
000001b0: 8721 06bd 3801 b8bc a044 65be 7f6d aebd
000001c0: 1007 25be ad27 1cbe 23b4 8f3d a483 c23d
000001d0: fd4f 01bd 68d0 053d 3b63 9b3d dc54 d6bc
000001e0: 75c1 52be dfa9 3dbe 813e 35be 1e35 853d
000001f0: e581 76be 56ed 6ebe fa86 2e3b e214 9d3c
00000200: 8998 39be 98c9 4bbd 4052 ba3d e846 2c3e
00000210: ba0b 58bd 8256 203e cf08 a2bd fb42 77be
00000220: fa68 14be ba6e 9abc 8594 69be 7dc5 a9bd
00000230: 3025 6f3d fd70 c13d e6c0 7dbd 3a64 f0bd
00000240: 6717 59be 4fc4 44bd b336 573d f8f9 a83d
00000250: 5624 6e3e 9077 1e3d 97c0 17be 2991 42be
00000260: 205f 71be 4220 1ebd e54b f13c cc10 453d
00000270: 95ee c7bd 45b6 b8bd 984a 223c db4c 533e
00000280: b03b 693e f1c1 5b3e 1628 543d b93f d13d
00000290: d697 0fbd 1a0e f5bd 9e06 233c 7c95 58be
000002a0: ab2d b2bc 37dd ccbd 2645 373e 9fcb 7f3e
000002b0: 44f3 083e 263a 323e ff90 8d3d 8fcc 893d
000002c0: 49ed 4c3c 82f8 d5bd f3a7 67be c1d6 d73d
000002d0: b23e 163e 5568 ebbb fab1 9e3c 5f3c 113e
000002e0: c9b2 de3b f193 39be a1d4 23be 0482 9cbd
000002f0: 233c 69be 8c15 e6bd fbf4 47be 26fa 04be
00000300: f61a 853c 41d0 c3be 6c0f c8be be1e 733d
00000310: 391a 9abd 37ec cdbd 7564 00be 74fc 19be
00000320: 556a 42be 4bb4 c1be a0af babd eff6 4abe
00000330: 0824 a3bd 579b cf3d b577 af3d b0cc 633e
00000340: 1498 073e 9b94 3f3e a187 1ebe abb6 6e3c
00000350: d4fb 593d 180e cabd 376f 913b 76fe 8cbe
00000360: 5a4f 83be 4371 5bbe 4064 4fbe 19ba 8ebe
00000370: eff9 1fbd d2de b83c 8d38 cc3d 44da 1cbd
00000380: 2ca0 4d3e 1e36 cfbd fc1a d6bd 2737 83bd
00000390: 74db 42be 9022 3e3d 0f0b 853c 40e6 17bd
000003a0: a781 a2bc 44b7 213e 50b9 a8bd 9536 3ebe
000003b0: d77a f53c 6951 983d f784 193e bbeb 2c3e
000003c0: b3f7 3abd 80bb ee3d bdc1 bc3d e38a b23d
000003d0: 360a 1b3e 071a b33e 56c4 403d 16bf b83d
000003e0: a501 0d3e 6fe7 703d eaac 88bd ebdd f9bd
000003f0: 9f5f d93d 2788 52be 9b64 cbbd d1ea cabc
-0.051841285 -0.14149229 -0.13318257 -0.023139162 -0.028667346 0.1585018 -0.038643323 -0.09919946
-0.10683835 -0.09597223 -0.17755616 -0.24461092 0.0465284 -0.026462536 -0.11204344 0.23232467
-0.07614232 -0.20438685 0.29222104 0.18574767 0.08854971 0.04692664 -0.03620325 -0.10326061
-0.062436692 0.2164084 -0.07403905 0.08330315 0.17294359 0.24376325 0.08037358 0.24559866
0.12402589 0.14121208 -0.2267319 -0.1457142 -0.10467173 -0.17428443 -0.11749145 0.03879497
-0.0385364 -0.18043898 0.027047962 0.06548326 0.11369264 -0.11266043 0.019034524 -0.18455574
-0.18105344 0.09790502 -0.05088672 -0.0685981 -0.22229464 -0.09507896 -0.06601676 -0.03668782
0.035585906 -0.14492093 -0.056892138 -0.25608844 -0.042982534 -0.08378184 -0.16409966 -0.093793154
0.13700677 -0.08642054 0.0837499 -0.15161921 -0.08840626 -0.25806096 0.12530366 -0.02410684
-0.28894842 0.083984025 0.08127145 0.11480844 -0.01223544 -0.001149835 -0.108135715 -0.20324509
0.10320856 -0.04023908 -0.14182374 0.058516394 0.22068928 0.12912768 0.20119229 0.29044408
0.18017119 -0.15660506 0.04872631 0.110760905 0.046846226 -0.0013156987 0.12205068 0.14051034
0.07524634 0.11810328 0.19497567 0.1661223 0.109184995 -0.038402323 -0.2383576 -0.104914926
0.056147188 0.045545146 -0.07753435 -0.11574676 -0.032746818 -0.022461519 -0.2238946 -0.085169785
-0.16115975 -0.1524951 0.0701678 0.09497765 -0.031570423 0.032669455 0.07587286 -0.026163511
-0.2058161 -0.18521832 -0.17699625 0.06504272 -0.24072988 -0.23332724 0.0026630745 0.019174997
-0.18124594 -0.0497528 0.09097719 0.16823924 -0.05274556 0.15658 -0.07911836 -0.24146645
-0.1449317 -0.018851627 -0.22810562 -0.08289621 0.058385074 0.09445379 -0.06195154 -0.11737867
-0.21200334 -0.048038777 0.0525424 0.08250803 0.23256049 0.038688242 -0.14819561 -0.19000687
-0.23571444 -0.038604982 0.029455135 0.048111722 -0.09762303 -0.0901914 0.00990548 0.20634787
0.22776675 0.21460702 0.05179604 0.10217232 -0.03505691 -0.1196558 0.009950308 -0.21150774
-0.021750292 -0.10003131 0.17897472 0.24980019 0.13374048 0.17404994 0.069124214 0.067284696
0.012507745 -0.1044779 -0.22622661 0.10539008 0.14672354 -0.007184068 0.019371975 0.14183186
0.006796215 -0.18122841 -0.1599908 -0.07641986 -0.22776847 -0.112345785 -0.19527046 -0.12986049
0.016248208 -0.38244823 -0.39074266 0.05935549 -0.07524533 -0.1005482 -0.12538321 -0.1503771
-0.18985875 -0.37832865 -0.09115529 -0.1982076 -0.07965857 0.101370506 0.08567754 0.22246051
0.13241607 0.18709032 -0.15481426 0.014569919 0.053218678 -0.098659694 0.0044383067 -0.27537888
-0.25646478 -0.21429925 -0.20253086 -0.27876356 -0.039056715 0.022567187 0.09971724 -0.03829409
0.20080632 -0.10117744 -0.104543656 -0.06407004 -0.19029027 0.04641968 0.016240625 -0.037084818
-0.019837214 0.15792567 -0.082384706 -0.18575509 0.029965801 0.07437403 0.14992128 0.16886799
-0.04564638 0.116568565 0.0921664 0.08717897 0.15140614 0.34980795 0.04706224 0.09020822
0.13770159 0.058814462 -0.06673606 -0.122005306 0.106139414 -0.2055975 -0.09931298 -0.024770172

conv3.bias f4 [16]
00000000: e951 37bd eaf3 98bc 80bd 3bbb ce65 95bd
00000010: ea80 26bd 5806 df3c d5a3 d0bd 2471 46bd
00000020: 2c86 00bd 9354 0f3c 4a46 b73d 1297 74bd
00000030: 27d4 edbc 87f0 1cbd 9a61 983d 0051 0d3c
-0.04475585 -0.018670995 -0.0028646886 -0.07294808 -0.040650286 0.027224705 -0.101874985 -0.048447743
-0.031377956 0.008748191 0.089489534 -0.059714384 -0.029031826 -0.038315322 0.07440491 0.008625269

bn3.weight f4 [16]
00000000: 6424 8a3f 1845 833f 5de7 833f 8fbd 953f
00000010: 7832 9b3f 0e23 903f 0f41 873f 4848 963f
00000020: 3f8c 5d3f 91d3 773f 9b31 993f 903d 763f
00000030: 1960 963f 9e7c 7a3f 2d53 993f d800 8f3f
1.0792356 1.0255461 1.0304981 1.1698474 1.2124777 1.1260698 1.0566729 1.1740808
0.86542124 0.968072 1.1968263 0.96187687 1.1748077 0.978464 1.1978508 1.1172132

bn3.bias f4 [16]
00000000: f351 0bbe 0d29 aebd 6c66 31be 9d38 b1bd
00000010: 90fe 00bb 5b76 873c 5f97 4bbd 040f 04be
00000020: e08e 3ebe a197 b6bd b0ea 58bd 4976 80be
00000030: 88ef 7ebd 32e0 4cbd 8f5b ecbc 5ffc d5bc
-0.1360548 -0.085039236 -0.17324227 -0.08653376 -0.001968298 0.016535928 -0.049704906 -0.12896353
-0.1860919 -0.0891564 -0.05295819 -0.25090244 -0.062240154 -0.050018497 -0.028852252 -0.026121316

bn3.running_mean f4 [16]
00000000: 2a8a 7bbf ce78 adbf cdd6 0dbf d892 f2be
00000010: c307 9fbf 8831 04bf 3161 5bbf 74e7 83bf
00000020: ea3f 873f 3314 1cbf d89d a6be 340d 6c3f
00000030: 63f8 30bf 0356 2bbf d6b0 bdbe ec69 96bf
-0.98257697 -1.3552492 -0.55405885 -0.47377658 -1.2424244 -0.5163808 -0.8569518 -1.0305009
1.056638 -0.6096832 -0.325423 0.92207646 -0.6912901 -0.6692812 -0.37048978 -1.1751075

bn3.running_var f4 [16]
00000000: 3f32 013f 7394 253f 9607 223f 7a81 023f
00000010: b4af 223f 0016 323f 0351 f33e 0294 6a3f
00000020: 7487 923f 93d1 ff3e 1be2 ea3e 0131 223f
00000030: f74f 0a3f 941b fa3e c30f 023f 064b 5f3f
0.50467294 0.6467964 0.63292825 0.50978816 0.6354935 0.6956482 0.47522745 0.9163209
1.1447587 0.4996458 0.4587563 0.63356024 0.54028267 0.48849165 0.508053 0.8722385

output_layer.weight f4 [11, 3008]
00000000: 15fd 8ebe 3d70 b2be c227 6abe 58d2 79be
00000010: 053c c8bd 48df 3c3d a1a4 8cbd d6b0 9cbd
00000020: cb55 bbbb 6eae cc3d 8b3c 59be 6b03 84bd
00000030: 4113 c1bd efc4 0abe 199b e3bd 5e06 cebd
00000040: 9029 67be 6a86 70bc 3b75 c53d fe10 c5bd
00000050: 2fb0 4bbe 4753 8fbd 0012 61bd 4a8e 2dbe
00000060: f772 ecbd 99c6 8abd 6578 5fbe 8af8 75be
00000070: bb40 98be e26b 90be fd64 b6be 2435 76be
00000080: 56fd 52be a59f 9ebd 9ba8 03bd 29ce 1ebe
00000090: 9417 80be 43ae eabd 6833 4fbe 9678 b0be
000000a0: 2fc2 6ebe 43be 01be d8f6 653d 1814 743c
000000b0: be28 e4bd fbcd 09be 1d7a 0ebe ce2e 5ebe
000000c0: 37ea adbd 63ba 073d e5f4 df3d e9bf 02be
000000d0: 7a63 51bd 70da 8cbd 489d 0abe d4f5 adbd
000000e0: 0457 adbd e2df 82be 9a76 11be 0e6b 59be
000000f0: a377 88be 9c43 ddbd a03c 7aba 3697 4fbd
00000100: 8624 84be e655 0abe 2b7c 4cbe 0538 84be
00000110: d24e f0bd a0ad fabd f554 d53b b479 30bd
00000120: fcda c7bc e5cb e03c a521 18bd 82ea 03be
00000130: 59de 2bbe 2167 2fbe 5eee 7abe 09ba 11be
00000140: a21c 3abe dd61 08be 85da 53be e540 d0bd
00000150: eef1 55bd 8875 b6bd 97ae 55be 4b54 84bd
00000160: 4643 76be d747 41be 672c 15be 3085 c1bd
00000170: 8581 72bc f9b0 7cbd 46ac 67be 2c14 0abe
00000180: 4d53 77be c6d2 21be 1220 72bd 7498 02bd
00000190: 1fb2 1cbe 0b7e 78be a2f4 96be f3cc 95be
000001a0: 5568 a2be 761b 48be 110b 18be f565 27be
000001b0: 1451 72be d6f4 26be c559 95bd f2b5 65be
000001c0: 4300 03be 3a89 44bd a556 f1bd 97cb 61be
000001d0: 817a 6bbe a05e c1bd 54d9 25be 3ecc 7abe
000001e0: 8642 b6be 9fe7 66be eb64 a4bd de4b 2ebe
000001f0: 8810 5dbe b8c4 81be f8c7 20be e7ac 82be
00000200: c6f9 bebe 6198 6fbe 9354 60be 8be1 54be
00000210: 0662 84be c31a cdbd 850a 0dbd 4974 24be
00000220: 5fac 35be 9b04 97be f1ea 0abe 8241 fcbd
00000230: 2f22 b2bd 2c5e 62bc 253e 6a3d d0dd b53d
00000240: 626e c7bd 22cd 81bd 6982 f1bd a63a 0fbe
00000250: 3d05 0abe 6da1 acbd fa99 47be 2b89 9abe
00000260: 263b 5dbe 4080 45bd 06dc abba 2a99 ad3c
00000270: fd43 81bd 9550 f7bc fe98 ccbd f434 c7bd
00000280: e6af 3abd 80fe d0bd 5a38 54be b4af cfbd
00000290: cea2 15be 7251 e2bd 2b6d 3cbe 09a5 96be
000002a0: bafd 44be 779d 0bbe 431f 2fbe 1cb3 84be
000002b0: da96 86be d52b 3bbe 0b94 98be 05b2 10be
000002c0: 5d94 f8bc d3c2 6abe 847c 87be d079 1bbe
000002d0: 6cc3 1bbe d171 4abe 87a7 2bbe af1e 6ebc
000002e0: 8956 a2be d969 36be 6e40 57be 8c29 ddbd
000002f0: 1d0f 503c 8c4d 8bbc 16f9 a93d 951e b13d
00000300: 1aba 2a3c 625a dc3c 0745 85bc 02ab 233d
00000310: 32c2 023d b4db 953c 53a1 8cbc f9b2 bdbc
00000320: 44f8 173d 96ff aebc eeec 31bd 64ac 60bd
00000330: 4e9a 3fbd c0e9 233d f994 0c3e 3aab 213e
00000340: abb6 2c3e d84d 3f3d 1685 403d 2481 883d
00000350: 4cec 813d 2491 4c3d eb99 563d bf07 e43d
00000360: e2ea d83d 53fa 323e 6b00 e03d 2f94 ae3d
00000370: f41b f53c 3cc9 d83c 195d f33c a012 013d
00000380: ff2e d63d 2b6c 603d 472f 9fbd 5ddc 01bd
00000390: d3be 45bd 2085 5fbd 5d51 403d 593c 183d
000003a0: a938 b93d cc7d 053e c5e2 dc3d 6d8d 613e
000003b0: de98 463e ad47 1e3e f946 493e 128a 5d3e
000003c0: 5b6b ca3d 782c 993d 2b9c f93c 6552 b23d
000003d0: 3910 18bd 02c4 fabc fba9 20bd 1e12 2fbd
000003e0: 3c5e 4dbd 6106 d83c 6ad9 be3d 52eb b63d
000003f0: 8be2 083e fd61 be3d db5d c13b 016f 403d
-0.2792746 -0.34851256 -0.22866729 -0.24396646 -0.09777073 0.046111375 -0.06867338 -0.07650916
-0.0057170144 0.09994207 -0.21214502 -0.064459644 -0.094275005 -0.13551687 -0.11113567 -0.10059808
-0.22574449 -0.014680484 0.096415006 -0.09622382 -0.19891427 -0.06998306 -0.054948807 -0.1694881
-0.11545365 -0.06776161 -0.2182327 -0.24020591 -0.29736885 -0.28207308 -0.35623923 -0.24043709
-0.20604452 -0.077452935 -0.032143217 -0.15508331 -0.2501799 -0.11459019 -0.20234454 -0.34467
-0.23316263 -0.12670235 0.05614361 0.014897369 -0.111405835 -0.13457482 -0.1391377 -0.21697542
-0.084919386 0.033136737 0.10935382 -0.1276852 -0.05112026 -0.06877601 -0.1353656 -0.084941536
-0.084638625 -0.25561434 -0.14205399 -0.21232244 -0.26653776 -0.10803911 -0.0009545777 -0.050681315
-0.25809115 -0.1350933 -0.19969241 -0.2582399 -0.11733784 -0.122401476 0.006510372 -0.043084815
-0.024396412 0.027440974 -0.03714146 -0.12882426 -0.16784038 -0.17129184 -0.24504992 -0.14231123
-0.18174985 -0.13318582 -0.20688827 -0.10168628 -0.052232675 -0.08909136 -0.20867382 -0.0646139
-0.240491 -0.18875061 -0.1456772 -0.094492316 -0.014801388 -0.06169221 -0.22624311 -0.13484257
-0.2415287 -0.1580306 -0.059112616 -0.031883672 -0.15302323 -0.24266832 -0.29483515 -0.29257926
-0.31720224 -0.19541726 -0.14847971 -0.16347487 -0.23663741 -0.16304335 -0.07292513 -0.22432688
-0.12793069 -0.047982432 -0.11784104 -0.2205032 -0.2299595 -0.094418764 -0.16196185 -0.24491975
-0.35597628 -0.22549294 -0.08027061 -0.17021129 -0.21588337 -0.25345397 -0.15701282 -0.2552254
-0.37299937 -0.23397972 -0.21907263 -0.20789163 -0.25856036 -0.1001487 -0.03443386 -0.16059984
-0.17741536 -0.294957 -0.13566186 -0.12317182 -0.08697926 -0.013816398 0.057188172 0.08880198
-0.09737851 -0.06337954 -0.11792452 -0.13987216 -0.13478561 -0.08429227 -0.19492331 -0.30182776
-0.21604595 -0.04821801 -0.0013111837 0.021191198 -0.06311796 -0.030189792 -0.099901184 -0.09726897
-0.045577906 -0.10204792 -0.20724621 -0.101409346 -0.14612886 -0.11050691 -0.1840102 -0.29422787
-0.19237414 -0.13634287 -0.17101769 -0.259179 -0.26286966 -0.1827844 -0.29800448 -0.14130409
-0.030344183 -0.22925882 -0.26462185 -0.15183187 -0.15211266 -0.1976998 -0.16763125 -0.014533683
-0.31706646 -0.17813815 -0.21020672 -0.1079894 0.012698916 -0.01700475 0.082994625 0.08648411
0.010420347 0.026898567 -0.016268266 0.039958008 0.03192348 0.01829324 -0.01716677 -0.02315663
0.037102 -0.021362107 -0.043438844 -0.054851905 -0.046778016 0.040017843 0.13728704 0.15787974
0.16866557 0.046705097 0.04700192 0.066652566 0.06343898 0.049943104 0.05239288 0.1113429
0.10591675 0.17478304 0.1093758 0.085243575 0.029920556 0.026463144 0.029707478 0.031511903
0.104581825 0.054790657 -0.07772689 -0.031704295 -0.048277687 -0.054570317 0.046952594 0.037166927
0.0904401 0.13036269 0.1078544 0.22026606 0.19394252 0.1545703 0.1965598 0.21634701
0.09883758 0.07479185 0.030469975 0.08707122 -0.037124846 -0.030611042 -0.039224606 -0.042741887
-0.050138697 0.02637023 0.09318812 0.089316025 0.1336767 0.092960335 0.005901081 0.04698086

output_layer.bias f4 [11]
00000000: 78dc 83bd 3708 a93d 0f24 4f3d d1b2 bf3c
00000010: f3ef 1fbd 883b 87bd 97ea 313c 6d9b 8bbd
00000020: 7425 27bd 3348 d6bb 4ebe c33d
-0.064385355 0.0825352 0.050571498 0.023400696 -0.039047193 -0.066031516 0.010859153 -0.068167545
-0.040807202 -0.0065393685 0.09557782
