libemg_3dc/split_by_samples/checkpoints/Split by samples. subjects=22,num_epochs=20,batch_size=64,Adam(learning_rate=0.001,weight_decay=0),CosineAnnealingLR(T_max=20, eta_min=1e-05).pt (torch, 212851 bytes, 20 tensors)

conv1.weight f4 [64, 10, 5]
-0.01496587 0.04624593 -0.062087394 0.13297342 -0.049407583 0.16006051 -0.085848 -0.14896354
-0.045439385 0.18370841 0.15936768 0.25454214 -0.040939927 -0.112445325 -0.008573483 -0.20567891
-0.11330905 0.17427325 -0.013524084 0.06681168 0.015531648 0.091277905 0.07969883 0.028018788
-0.06591976 -0.031959508 -0.13511139 0.06218365 0.09899066 -0.16694055 0.094673336 0.107093126
0.12572323 0.12562127 0.042840805 -0.074775614 -0.25686666 -0.110580675 -0.02705254 0.079791315
0.014546112 -0.07148162 -0.096846454 0.044715013 -0.04402624 -0.20599721 -0.2955064 0.06381451
0.37706804 0.22354813 -0.072446324 -0.060069744 0.118222326 0.06456752 -0.04589698 -0.16221967
-0.0019792952 0.28614396 0.07911845 -0.13675162 0.03898586 0.10175948 -0.12022639 -0.08746997
-0.0043766815 -0.05089372 0.1589602 -0.09135363 -0.23503144 0.24764605 0.074776836 0.16480759
-0.13360012 -0.022771206 0.34662703 -0.12942213 0.0026537078 -0.20178361 -0.124414995 0.062146425
0.11234672 0.023901867 0.095172554 0.021899808 -0.094807446 -0.09283584 -0.22369578 0.2362242
0.16804284 -0.10513366 -0.093990974 -0.0443949 0.06314291 -0.01592368 -0.20333938 -0.061193347
0.048344284 0.23232321 0.13941991 -0.1327058 0.1675727 -0.0485124 0.0015162365 -0.027389148
0.1554082 0.078966506 0.069756165 0.05309719 -0.052956592 -0.093419135 0.04363112 -0.07365918
-0.08123179 -0.1667567 -0.23070695 -0.11111174 -0.2360567 0.16037983 0.3031074 0.12925835
-0.017350148 -0.051569317 0.12293527 -0.09670527 0.11697804 -0.08201726 0.024337929 0.16562018
0.17592289 0.20320295 0.0016093743 -0.0034092104 0.071032755 -0.03985961 -0.08022965 -0.22229546
0.07535211 0.16986024 0.1836157 -0.11175022 -0.21856318 -0.2550665 -0.09404642 0.053945385
0.025447171 -0.05415266 -0.08560673 0.014799779 -0.0945123 -0.03316405 0.01546789 -0.06514167
-0.13957402 0.009065041 0.054446865 0.14954314 -0.042139284 -0.06482448 -0.14364098 0.18827674
0.014292297 0.21695429 -0.27056986 -0.064694 0.11061717 0.13948472 0.039483435 0.17859294
0.21273118 0.09309316 0.14084905 -0.03194968 0.059166506 0.049697142 -0.1035462 -0.19539492
-0.2823231 -0.11699923 0.15539029 0.13260055 -0.06328002 -0.067702755 0.056344602 -0.114054136
-0.061258674 -0.2484269 -0.23804066 0.07174813 0.06623533 -0.257772 0.029198006 -0.061203208
0.23850024 0.14256823 -0.19724992 -0.011961298 -0.121026844 -0.025265614 0.22283278 -0.091715075
-0.015321535 0.012594149 -0.092815444 -0.023692612 0.14379819 0.0428365 0.0087879365 -0.085499436
-0.08354904 0.10666995 0.023176968 0.15438916 0.055508524 -0.2458085 0.031129127 -0.0009125171
-0.040999975 -0.18640894 0.1909357 0.27638987 0.0909284 0.01685556 -0.007474841 -0.09508077
0.054887123 -0.038959656 0.03227001 -0.18291818 0.04039876 0.1862148 0.031116998 0.16072871
-0.107928626 -0.092466116 0.0129133 -0.1366882 0.050273474 -0.07476822 -0.15905021 -0.005921621
-0.14700267 -0.11299327 -0.07546783 0.23417984 0.35014692 0.24225123 -0.07300761 -0.15853165
0.09928859 0.14395615 0.024793983 -0.058943547 0.06677914 -0.049112517 -0.06147349 0.17240906
00000000: 6933 75bc 5f6c 3d3d 5a4f 7ebd 2f2a 083e
00000010: 9b5f 4abd e7e6 233e 14d1 afbd e689 18be
00000020: a61e 3abd 0f1e 3c3e 4831 233e 5953 823e
00000030: a0b0 27bd bc49 e6bd cb77 0cbc 7e9d 52be
00000040: 930e e8bd b074 323e 1f94 5dbc 90d4 883d
00000050: 7478 7e3c e9ef ba3d 2439 a33d a887 e53c
00000060: f000 87bd f9e7 02bd a45a 0abe 48b4 7e3d
00000070: 9dbb ca3d 77f2 2abe 18e4 c13d a453 db3d
00000080: 97bd 003e dda2 003e d779 2f3d f523 99bd
00000090: 0784 83be 1f78 e2bd 4a9d ddbc a169 a33d
000000a0: d152 6e3c f564 92bd 6f57 c6bd 1727 373d
000000b0: dc54 34bd eff0 52be 9d4c 97be 2fb1 823d
000000c0: 100f c13e cde9 643e bd5e 94bd b10b 76bd
000000d0: 8c1e f23d fa3b 843d 79fe 3bbd ea1c 26be
000000e0: 10b7 01bb 7681 923e db08 a23d 9e08 0cbe
000000f0: a3af 1f3d 4667 d03d 4139 f6bd 7523 b3bd
00000100: 446a 8fbb ef75 50bd 76c6 223e 9d17 bbbd
00000110: 15ac 70be ed96 7d3e 9924 993d 52c3 283e
00000120: 78ce 08be ae8a babc 1979 b13e 3c87 04be
00000130: d4e9 2d3b 5da0 4ebe 4acd febd 408d 7e3d
00000140: 0a16 e63d d9cd c33c d4e9 c23d 3a67 b33c
00000150: 682a c2bd b820 bebd 8210 65be c2e4 713e
00000160: 6c13 2c3e 5150 d7bd 577e c0bd 6dd7 35bd
00000170: 1251 813d 6172 82bc 3338 50be e0a5 7abd
00000180: a804 463d 23e6 6d3e 18c4 0e3e 07e4 07be
00000190: 2e98 2b3e f0b4 46bd 74bc c63a 355f e0bc
000001a0: 5423 1f3e 31b9 a13d 52dc 8e3d 707c 593d
000001b0: 03e9 58bd 8852 bfbd 8cb6 323d a0da 96bd
000001c0: da5c a6bd 45c2 2abe 713e 6cbe 8d8e e3bd
000001d0: d9b8 71be 9c3a 243e e530 9b3e 4d5c 043e
000001e0: e621 8ebc 593a 53bd 7dc5 fb3d 6a0d c6bd
000001f0: 2f92 ef3d aaf8 a7bd 5660 c73c 5698 293e
00000200: 2125 343e 6f14 503e a4f1 d23a 0f6d 5fbb
00000210: 9f79 913d d543 23bd 714f a4bd 6ca1 63be
00000220: 3552 9a3d d8ef 2d3e c105 3c3e 4ddd e4bd
00000230: 07cf 5fbe 1498 82be 699b c0bd d6f5 5c3d
00000240: 9676 d03c 2ecf 5dbd 9552 afbd c67a 723c
00000250: aa8f c1bd 07d7 07bd 086d 7d3c ff68 85bd
00000260: 7eec 0ebe 8a85 143c ad03 5f3d d621 193e
00000270: 3e9a 2cbd b2c2 84bd 9f16 13be 9ecb 403e
00000280: 3d2a 6a3c 4429 5e3e 2288 8abe 4a7e 84bd
00000290: 418b e23d 15d5 0e3e 62b9 213d 11e1 363e
000002a0: 34d6 593e a0a7 be3d bc3a 103e abdd 02bd
000002b0: 9458 723d 3b8f 4b3d 0810 d4bd 9b15 48be
000002c0: a78c 90be 4b9d efbd a21e 1f3e 70c8 073e
000002d0: f598 81bd bea7 8abd 99c9 663d 3795 e9bd
000002e0: 60ea 7abd 9f63 7ebe eec0 73be aff0 923d
000002f0: 64a6 873d b1fa 83be a830 ef3c 37b0 7abd
00000300: 6839 743e 68fd 113e e2fb 49be 52f9 43bc
00000310: ecdc f7bd d5f9 cebc 472e 643e 1dd5 bbbd
00000320: 2d07 7bbc b157 4e3c 0616 bebd 0217 c2bc
00000330: d53f 133e 5375 2f3d 47fb 0f3c 541a afbd
00000340: c21b abbd c675 da3d a0dd bd3c 3118 1e3e
00000350: e85c 633d 39b5 7bbe 8302 ff3c fc35 6fba
00000360: 97ef 27bd fce1 3ebe a684 433e f982 8d3e
00000370: ab38 ba3d ac14 8a3c 83ef f4bb b5b9 c2bd
00000380: 52d1 603d 2994 1fbd 8f2d 043d e74e 3bbe
00000390: 2c79 253d 18af 3e3e 13e9 fe3c 1196 243e
000003a0: af09 ddbd e05e bdbd 4e92 533c fef7 0bbe
000003b0: 8feb 4d3d 1520 99bd 0fde 22be 280a c2bb
000003c0: de87 16be 0469 e7bd e18e 9abd d7cc 6f3e
000003d0: 7546 b33e b510 783e 0485 95bd 1f56 22be
000003e0: d157 cb3d 3e69 133e c01c cb3c ca6e 71bd
000003f0: 80c3 883d 352a 49bd a0cb 7bbd 008c 303e

conv1.bias f4 [64]
-0.018175893 0.02308539 -0.02441491 -0.025405647 0.004440566 -0.017450549 -0.027430728 0.021763755
0.12762399 -0.040581092 0.006362473 0.0377893 0.014017603 0.0047365497 0.009495799 0.02180123
0.019194262 -0.032952346 0.020808423 0.09816318 0.02633759 0.022992494 0.052582826 -0.010268313
0.02820398 0.034587972 0.0021223743 -0.0024136056 -0.035759524 0.010501384 0.062376667 -0.027432308
0.023010787 -0.013422922 0.01408285 -0.007474772 0.017083418 0.007953932 0.027650382 -0.022258079
-0.04140434 -0.006923371 -0.030498136 0.0117575545 0.0049537593 -0.07895428 0.033907626 0.05075616
0.08365761 -0.021456247 -0.046284508 -0.018806366 -0.064043835 -0.0004145609 0.01759923 0.04050348
0.016811786 -0.036356535 -0.0073883636 -0.037338953 0.018405257 0.020302096 -0.03714882 -0.072784744
00000000: 9ce5 94bc 921d bd3c c701 c8bc 811f d0bc
00000010: 2b82 913b 74f4 8ebc 68b6 e0bc e749 b23c
00000020: ddaf 023e 5c38 26bd 4b7c d03b f4c8 1a3d
00000030: 17aa 653c 0f35 9b3b 4594 1b3c 7e98 b23c
00000040: 493d 9d3c 0af9 06bd 6d76 aa3c c709 c93d
00000050: eec1 d73c c15a bc3c 1761 573d 6d3c 28bc
00000060: 080c e73c 1eac 0d3d 8817 0b3b 952d 1ebb
00000070: 9478 12bd ff0d 2c3c ad7e 7f3d b8b9 e0bc
00000080: 1e81 bc3c d1eb 5bbc c1bb 663c efee f4bb
00000090: 86f2 8b3c 3551 023c 0e83 e23c 9356 b6bc
000000a0: 9997 29bd 72dd e2bb 3ad7 f9bc c2a2 403c
000000b0: 2553 a23b c8b2 a1bd b9e2 0a3d b1e5 4f3d
000000c0: ae54 ab3d 03c5 afbc d394 3dbd cf0f 9abc
000000d0: 6a29 83bd 6c59 d9b9 432c 903c fae6 253d
000000e0: dfb8 893c 97ea 14bd 161a f2bb bbf0 18bd
000000f0: 9fc6 963c 9550 a63c 5c29 18bd 2b10 95bd

bn1.weight f4 [64]
0.8791409 1.067723 0.8686416 1.0315578 1.039928 1.0861491 1.1754673 1.0333174
1.2050204 1.1786515 0.8848348 0.98425937 0.9746585 0.97828275 0.99449366 0.8910041
0.86323285 1.061244 0.9689182 1.1290168 1.0856476 0.9290903 0.961697 0.90205467
1.0107182 0.9979282 0.9570294 0.9580118 0.8356223 1.0472131 1.222346 1.1375251
1.0080599 1.0000769 1.0158209 1.028068 0.9509377 0.80751455 1.0303825 1.1310719
1.0502123 1.0362409 1.0293503 1.0484844 1.0100826 1.0021952 0.92433673 0.9688309
1.0184675 0.9260356 1.0129728 1.0353203 1.0859034 0.920139 0.85192996 1.0634927
0.95744485 0.8835895 0.88941115 0.9113805 0.9952792 0.7652931 0.9629415 0.9870142
00000000: 610f 613f 26ab 883f 4c5f 5e3f 160a 843f
00000010: 5c1c 853f ef06 8b3f b675 963f bf43 843f
00000020: 1c3e 9a3f 0dde 963f 8984 623f 6cf8 7b3f
00000030: 3883 793f bd70 7a3f 2397 7e3f d818 643f
00000040: d4fc 5c3f d8d6 873f 060b 783f 9f83 903f
00000050: 80f6 8a3f ddd8 6d3f c631 763f 0eed 663f
00000060: 375f 813f 3978 7f3f e1ff 743f 4340 753f
00000070: 58eb 553f 140b 863f d575 9c3f 6c9a 913f
00000080: 1b08 813f 8502 803f 6b06 823f bb97 833f
00000090: a770 733f 46b9 4e3f 93e3 833f f7c6 903f
000000a0: 5b6d 863f 8ba3 843f c0c1 833f bd34 863f
000000b0: 634a 813f ef47 803f 55a1 6c3f 4d05 783f
000000c0: 255d 823f ab10 6d3f 18a9 813f 6085 843f
000000d0: e2fe 8a3f 3b8e 6b3f 1518 5a3f 8720 883f
000000e0: 1b1b 753f ec32 623f 73b0 633f 3c50 693f
000000f0: 9eca 7e3f 40ea 433f 5683 763f f6ac 7c3f

bn1.bias f4 [64]
0.06681086 0.03942822 0.028248332 0.006700057 -0.08354537 0.010831532 -0.06510995 -0.027157132
-0.008275278 0.013174466 -0.0186394 -0.008296051 0.00916135 -0.02314964 -0.03583134 0.012847654
-0.08051584 -0.033594754 0.078910895 -0.049536407 0.009311311 0.009165943 -0.013321405 -0.088643305
0.14607728 0.013208151 0.04288053 0.010351492 0.2912835 0.008542424 -0.015288983 0.20390059
-0.06684185 0.032256622 0.36079141 -0.00073828624 -0.036264118 0.20719528 0.07483134 -0.023361744
0.009061682 -0.03281515 -0.040584955 -0.021508144 0.051689424 -0.025842918 -0.032348853 -0.00056842534
0.08017754 -0.14070061 -0.08886308 -0.112951994 -0.04016469 0.2988024 -0.029882025 -0.06634414
-0.00822651 -0.21704918 -0.047562685 -0.040489048 0.060321037 0.13804662 0.029035447 0.041859925
00000000: 22d4 883d 7c7f 213d 0c69 e73c 278c db3b
00000010: d619 abbd bd76 313c 5e58 85bd a278 debc
00000020: 0895 07bc b7d9 573c a8b1 98bc 29ec 07bc
00000030: 7d19 163c 50a4 bdbc e2c3 12bd f77e 523c
00000040: 7de5 a4bd a79a 09bd 099c a13d b0e6 4abd
00000050: 788e 183c c02c 163c 0642 5abc 9f8a b5bd
00000060: 4895 153e 0067 583c 7fa3 2f3d 4e99 293c
00000070: 1c23 953e 86f5 0b3c a47e 7abc 51cb 503e
00000080: 61e4 88bd 851f 043d a7b9 b83e 8d89 41ba
00000090: af89 14bd 002b 543e 2c41 993d 2161 bfbc
000000a0: 7377 143c 2e69 06bd 693c 26bd d931 b0bc
000000b0: 4ab8 533d 87b4 d3bc 3b80 04bd 6102 15ba
000000c0: 1f34 a43d d213 10be d9fd b5bd 6053 e7bd
000000d0: bb83 24bd a1fc 983e 26cb f4bc 70df 87bd
000000e0: 7cc8 06bc 2442 5ebe 17d1 42bd d8d7 25bd
000000f0: 3113 773d 185c 0d3e bfdb ed3c 5075 2b3d

bn1.running_mean f4 [64]
-0.016179463 0.022582123 -0.02731142 -0.02456092 0.0050484533 -0.015940538 -0.027502099 0.022434229
0.12764572 -0.04024587 0.00573167 0.03586355 0.014432562 0.004550441 0.009979542 0.020775042
0.017253336 -0.031906653 0.016513405 0.100502126 0.025941413 0.022471245 0.051457413 -0.009808122
0.025682347 0.03438076 0.0021317818 -0.0035629838 -0.036425218 0.00852288 0.06163347 -0.02796241
0.02375953 -0.013579046 0.013094231 -0.005548292 0.017902864 0.008152162 0.028349597 -0.020089572
-0.041153446 -0.0063433894 -0.029661097 0.011076123 0.004216889 -0.07918055 0.033952262 0.050273865
0.08259169 -0.022509366 -0.046705704 -0.017665943 -0.0634079 -0.00081574765 0.01933861 0.04022833
0.017663212 -0.03718539 -0.0062410133 -0.036131922 0.016553737 0.01983634 -0.035688624 -0.07294774
00000000: cb8a 84bc 25fe b83c 33bc dfbc fc33 c9bc
00000010: 7f6d a53b bb95 82bc 154c e1bc fdc7 b73c
00000020: 8fb5 023e dad8 24bd bcd0 bb3b a8e5 123d
00000030: 8d76 6c3c de1b 953b 3c81 233c 6c30 aa3c
00000040: de56 8d3c 8db0 02bd 1f47 873c 0fd4 cd3d
00000050: 1683 d43c 9e15 b83c 02c5 523d 3fb2 20bc
00000060: c963 d23c d7d2 0c3d 5db5 0b3b f380 69bb
00000070: 9c32 15bd 8da3 0b3c 6173 7c3d 6d11 e5bc
00000080: 59a3 c23c a67a 5ebc 2f89 563c 72ce b5bb
00000090: 07a9 923c a590 053c 6a3d e83c e392 a4bc
000000a0: 8490 28bd 35dc cfbb d4fb f2bc a178 353c
000000b0: d42d 8a3b 6a29 a2bd 8711 0b3d f8eb 4d3d
000000c0: d525 a93d 9065 b8bc 7b4e 3fbd 2bb8 90bc
000000d0: 00dc 81bd e6d7 55ba 016c 9e3c 76c6 243d
000000e0: 71b2 903c b54f 18bd 6a81 ccbb 11ff 13bd
000000f0: b49b 873c d27f a23c 3c2e 12bd a065 95bd

bn1.running_var f4 [64]
1.0052251 0.7293595 1.027689 0.943811 0.66918427 1.1638445 0.5345018 0.69340664
0.4226241 0.38557333 1.5515769 0.88865054 1.3457227 0.80884916 0.82377803 1.3527299
0.849177 0.9568194 1.1036102 0.6264665 0.9513334 0.95741475 0.8825455 0.6623373
0.8214372 1.4657983 0.63295543 1.6817112 0.885405 0.71807367 0.99162 0.9552087
0.58639044 0.9523367 0.7122316 0.5102806 0.8872277 1.0355692 0.6451479 0.5284042
1.1029817 0.73154783 1.6985273 0.53156567 0.76646656 1.0331048 1.6698233 1.6421385
0.75254995 0.96058 0.6150415 1.4581821 0.8851708 0.75905675 0.6135548 1.2150216
0.8716369 1.0220709 1.2273803 0.9350525 2.0395305 1.3704 1.5483221 0.8195679
00000000: 37ab 803f 4eb7 3a3f 508b 833f 999d 713f
00000010: a94f 2b3f dbf8 943f 1cd5 083f 1983 313f
00000020: 3062 d83e de69 c53e 129a c63f 9a7e 633f
00000030: a440 ac3f bd10 4f3f 1ee3 523f 4126 ad3f
00000040: aa63 593f 1ef2 743f 1943 8d3f 1c60 203f
00000050: 968a 733f 2219 753f 80ee 613f f08e 293f
00000060: b549 523f 479f bb3f 5e09 223f 5042 d73f
00000070: e7a9 623f add3 373f cfda 7d3f 8f88 743f
00000080: af1d 163f 57cc 733f cf54 363f c0a1 023f
00000090: 5b21 633f 888d 843f 6a28 253f 7f45 073f
000000a0: 812e 8d3f b846 3b3f 5869 d93f b014 083f
000000b0: 2737 443f c73c 843f c5bc d53f 9831 d23f
000000c0: 1da7 403f 92e8 753f 5c73 1d3f b6a5 ba3f
000000d0: 8e9a 623f 8b51 423f ed11 1d3f d485 9b3f
000000e0: 9923 5f3f 38d3 823f cc1a 9d3f 9a5f 6f3f
000000f0: ab87 0240 4469 af3f 6b2f c63f 34cf 513f

conv2.weight f4 [32, 64, 5]
-0.15224671 -0.022440597 -0.06390776 0.11679333 -0.05191946 0.1902756 0.022918226 -0.0510026
0.1481427 0.14237493 0.043053485 -0.1632935 -0.061873637 0.031313155 -0.17157306 -0.14199188
0.013016031 -0.07221761 -0.21019028 -0.35233516 -0.26314294 -0.2963014 -0.10609555 0.03265466
-0.03871223 -0.3650858 -0.38213554 0.046119843 0.038163956 -0.32238764 -0.14935917 -0.12862909
-0.018124333 -0.10249817 -0.2295992 -0.07182389 -0.21112274 -0.023156116 0.044564687 -0.1634553
0.16861786 -0.2901389 0.05240702 0.14570393 -0.14540596 0.041092906 0.17627813 0.14676502
0.15641452 0.049316585 -0.07949003 -0.11776838 0.03541289 0.045688026 0.088493995 0.1049178
-0.15287125 0.10029741 0.04716505 -0.08179602 -0.008007856 -0.20762755 0.08599706 0.020045824
-0.09862073 -0.020409584 -0.08866634 0.123420484 -0.07446511 -0.13971554 -0.046859775 -0.0018298154
0.0036483777 0.16148853 0.09747367 0.09768258 -0.11029025 -0.03128839 -0.14408974 -0.007569491
-0.091511555 -0.13363218 -0.09001287 0.027124532 0.06677215 -0.09545799 -0.052475028 -0.06059171
0.015228141 -0.07492578 0.171123 0.15601477 0.038236503 0.1170799 0.09585421 0.19077088
0.10828166 0.24525253 0.065344475 0.16534173 -0.1557633 -0.109084845 -0.034537643 0.034824558
-0.09925016 -0.26598665 -0.21851692 -0.029572414 -0.15321559 -0.2187077 -0.12214761 0.060468778
-0.13279654 0.0142229395 -0.015739093 0.057460815 0.18623586 0.032368656 0.23069006 0.1238592
0.08084314 -0.0050229975 -0.0136995325 0.06218379 -0.09238128 -0.081711434 0.007417723 -0.075946644
-0.15187413 -0.1801987 0.09917439 0.10351163 -0.02093267 0.07594676 0.07017211 -0.5505588
-0.18941787 -0.2378897 -0.32741916 -0.33843204 0.103358135 0.0098431725 -0.053998493 -0.015212893
-0.07148339 0.08849951 0.1291853 0.0054289675 -0.027056875 0.105599046 -0.039401077 -0.21719536
-0.093822695 -0.13848938 -0.1664117 0.08748484 0.24177055 -0.027620923 -0.14035937 -0.10805766
0.16230264 0.01906199 0.10918906 0.062320802 -0.05749871 -0.09063523 0.06492765 -0.14217898
-0.1654257 0.0057415725 -0.08079403 -0.018767778 0.09025536 0.07050703 -0.05142604 0.03439812
-0.09527822 -0.018195363 0.0076212473 0.032236516 0.021957694 0.07642581 0.087923 -0.027508529
5.4279095e-05 0.00075278 -0.1261251 0.037507474 0.19893456 0.0628352 -0.03741108 0.055074688
-0.058700517 0.19153103 -0.009802167 0.21090794 0.22993286 0.13887283 0.2636494 0.23092656
-0.3154137 -0.37137505 -0.28583094 -0.24073699 -0.33204508 -0.056064617 -0.08608119 -0.0130471205
-0.2070671 -0.13367614 0.05207156 -0.09396199 -0.02846877 -0.052568693 -0.17663747 -0.020022687
0.2065823 -0.06999251 -0.21088699 -0.02384858 0.08074308 0.10783912 0.051665224 0.0765121
0.2199631 -0.21905123 -0.305406 -0.29511473 -0.19256923 -0.31876966 0.05450848 0.0850228
-0.074846596 0.1022879 0.021222698 -0.05854435 -0.039712135 0.0027050173 -0.10195533 -0.15422684
0.13237803 -0.15432653 -0.06321831 0.029140793 0.064389065 -0.033704285 -0.17063668 -0.18050326
0.017370524 -0.019761307 -0.003827494 -0.16800249 -0.08138049 0.0528438 -0.050947994 -0.06448983
00000000: 90e6 1bbe 58d5 b7bc 12e2 82bd 5731 ef3d
00000010: 80a9 54bd 9bd7 423e 01bf bb3c 1ae8 50bd
00000020: b8b2 173e bcca 113e da58 303d 6936 27be
00000030: 366f 7dbd 3942 003d d9b0 2fbe 5266 11be
00000040: 3141 553c d4e6 93bd 1f3c 57be 4665 b4be
00000050: acba 86be d1b4 97be a048 d9bd e5c0 053d
00000060: b790 1ebd 87ec babe 45a7 c3be 29e8 3c3d
00000070: cf51 1c3d fe0f a5be 9cf1 18be 58b7 03be
00000080: 7b79 94bc 90ea d1bd 0d1c 6bbe 6718 93bd
00000090: 8f30 58be e5b1 bdbc 7689 363d d360 27be
000000a0: 29aa 2c3e 168d 94be bea8 563d 6933 153e
000000b0: 4de5 14be 0951 283d 4182 343e 9249 163e
000000c0: 212b 203e 3000 4a3d abcb a2bd 8c30 f1bd
000000d0: 1b0d 113d 5e23 3b3d 573c b53d 25df d63d
000000e0: 488a 1cbe ba68 cd3d 2430 413d ac84 a7bd
000000f0: 6233 03bc 519c 54be 3a1f b03d 2437 a43c
00000100: aaf9 c9bd 0032 a7bc b396 b5bd e1c3 fc3d
00000110: 2a81 98bd 9711 0fbe 09f0 3fbd 6bd6 efba
00000120: 9f19 6f3b 405d 253e 47a0 c73d ce0d c83d
00000130: dbdf e1bd 4128 00bd 438c 13be 7e09 f8bb
00000140: 696a bbbd e0d6 08be ab58 b8bd 4434 de3c
00000150: d6bf 883d 7b7f c3bd 0ef0 56bd 032f 78bd
00000160: 747f 793c b072 99bd de3a 2f3e 56c2 1f3e
00000170: e19d 1c3d 96c7 ef3d 364f c43d 7159 433e
00000180: c6c2 dd3d 7b23 7b3e 53d3 853d 584f 293e
00000190: 6a80 1fbe e067 dfbd 5877 0dbd 32a4 0e3d
000001a0: ab43 cbbd 672f 88be e6c2 5fbe d941 f2bc
000001b0: 8ce4 1cbe e9f4 5fbe 8728 fabd 1cae 773d
000001c0: d1fb 07be 5507 693c 45ef 80bc 085c 6b3d
000001d0: 9db4 3e3e ff94 043d 043a 6c3e e4a9 fd3d
000001e0: 1791 a53d f597 a4bb 0174 60bc 6eb4 7e3d
000001f0: 6632 bdbd 5358 a7bd 5f10 f33b ea89 9bbd
00000200: e484 1bbe 0286 38be f11b cb3d e8fd d33d
00000210: fe7a abbc fa89 9b3d 65b6 8f3d 6cf1 0cbf
00000220: c2f6 41be 5c99 73be 7ca3 a7be f746 adbe
00000230: 6ead d33d 4245 213c 862d 5dbd 7f3f 79bc
00000240: e265 92bd 3b3f b53d 2749 043e 7be5 b13b
00000250: 61a6 ddbc 5044 d83d 0663 21bd 7668 5ebe
00000260: 1d26 c0bd 29d0 0dbe d467 2abe 402b b33d
00000270: b392 773e 4645 e2bc 5eba 0fbe 564d ddbd
00000280: aa32 263e e427 9c3c 849e df3d 1944 7f3d
00000290: c483 6bbd f79e b9bd caf8 843d 5e97 11be
000002a0: 5b65 29be cd23 bc3b 5777 a5bd e2be 99bc
000002b0: cdd7 b83d fd65 903d 1ca4 52bd 0be5 0c3d
000002c0: 3a21 c3bd 710e 95bc a8bb f93b 700a 043d
000002d0: 9fe0 b33c 2385 9c3d f910 b43d 9159 e1bc
000002e0: bca9 6338 3656 453a f026 01be 70a1 193d
000002f0: 80b5 4b3e beaf 803d 5c3c 19bd ff95 613d
00000300: f46f 70bd b620 443e 4599 20bc 40f8 573e
00000310: 8573 6b3e ae34 0e3e 0efd 863e 0378 6c3e
00000320: e87d a1be df24 bebe 6f58 92be c283 76be
00000330: d001 aabe 03a4 65bd 564b b0bd 97c3 55bc
00000340: 6609 54be 66e2 08be fd48 553d 256f c0bd
00000350: 5737 e9bc 4552 57bd 74e0 34be 9e06 a4bc
00000360: 4f8a 533e 3c58 8fbd c2f2 57be 195e c3bc
00000370: a15c a53d c2da dc3d ea9e 533d 60b2 9c3d
00000380: 023e 613e f74e 60be 2d5e 9cbe 4719 97be
00000390: de30 45be c735 a3be 4944 5f3d 6f20 ae3d
000003a0: 2c49 99bd 527c d13d 39db ad3c 33cc 6fbd
000003b0: 31a9 22bd a946 313b f5cd d0bd a4ed 1dbe
000003c0: 1b8e 073e c607 1ebe 9a78 81bd acb8 ee3c
000003d0: 6ade 833d 810d 0abd 62bb 2ebe d9d5 38be
000003e0: a14c 8e3c 77e2 a1bc b2d6 7abb d808 2cbe
000003f0: d0aa a6bd be72 583d d8ae 50bd 3e13 84bd

conv2.bias f4 [32]
-0.016150791 0.03178234 -0.02058658 0.00031606763 -0.016787183 -0.004203143 0.030990703 -0.0010593256
0.051977035 0.0009172803 -0.038355988 -0.0040200935 0.038039133 0.0055181654 0.036992714 0.014186769
0.01653649 0.03370922 0.015832717 -0.05689131 -0.0028805975 0.017414197 0.026043437 0.033409085
0.021015111 0.006829207 0.00181714 0.04513969 0.011641068 -3.381086e-05 -0.003529533 -0.006560035
00000000: aa4e 84bc 332e 023d 30a5 a8bc e1b5 a539
00000010: 4685 89bc 85ba 89bb 37e0 fd3c 12d9 8aba
00000020: dfe5 543d a475 703a 2b1b 1dbd fdba 83bb
00000030: ecce 1b3d bad1 b43b ac85 173d 9f6f 683c
00000040: 8877 873c ae12 0a3d 9db3 813c dd06 69bd
00000050: 68c8 3cbb 38a8 8e3c 0c59 d53c f7d7 083d
00000060: e227 ac3c 8ac7 df3b 1a2d ee3a 65e4 383d
00000070: 2eba 3e3c 22d0 0db8 bd4f 67bb 90f5 d6bb

bn2.weight f4 [32]
1.0661621 1.1092284 1.0213832 0.9207511 0.97682464 1.021284 1.0103053 0.9272217
0.9927794 0.92682165 0.9878442 0.8084819 1.0121485 0.9120685 1.0701348 1.0280497
1.0274899 1.118786 0.9272286 1.129214 1.0424267 1.0002087 0.99297124 1.0381645
0.9939878 1.0653377 0.9446804 1.0017885 0.77182937 0.8942493 1.0321654 0.94583917
00000000: 0078 883f 32fb 8d3f afbc 823f 58b6 6b3f
00000010: 2e11 7a3f 6fb9 823f af51 813f 675e 6d3f
00000020: ca26 7e3f 2f44 6d3f 5ce3 7c3f abf8 4e3f
00000030: 158e 813f 527d 693f 2dfa 883f 2297 833f
00000040: ca84 833f 6134 8f3f db5e 6d3f 168a 903f
00000050: 3d6e 853f d706 803f 5d33 7e3f 93e2 843f
00000060: fc75 7e3f fc5c 883f 93d6 713f 9b3a 803f
00000070: 9c96 453f 86ed 643f ff1d 843f 8422 723f

bn2.bias f4 [32]
-0.12599576 -0.31833193 -0.18212996 -0.28809434 -0.26315352 -0.29799035 -0.2400603 -0.24895692
-0.23485632 -0.09869672 -0.005546049 -0.321551 -0.15626216 -0.15246876 -0.2157863 -0.14697495
-0.18343441 -0.32027486 -0.13026607 -0.10538623 -0.17191438 -0.124081306 -0.14492187 -0.16231893
-0.1497693 -0.12945604 -0.19841698 -0.093308404 -0.14071934 -0.22889744 -0.011548315 -0.15530066
00000000: 0805 01be 67fc a2be 4780 3abe 1a81 93be
00000010: 0fbc 86be 3192 98be 5ed2 75be 90ee 7ebe
00000020: 2d7e 70be 8221 cabd a2bb b5bb 55a2 a4be
00000030: 3003 20be c520 1cbe 15f7 5cbe 9a80 16be
00000040: 3bd6 3bbe 11fb a3be 7864 05be bcd4 d7bd
00000050: 530a 30be 571e febd 6666 14be ef36 26be
00000060: 205d 19be 2090 04be d22d 4bbe 7a18 bfbd
00000070: bb18 10be 1764 6abe 2535 3dbc 2307 1fbe

bn2.running_mean f4 [32]
-2.2335238 -2.7613246 -1.7207831 -1.5367578 -2.4359047 -2.5009046 -2.4783788 -0.32502484
-2.0939088 -1.7721167 -2.0778499 -0.051766567 -1.5029037 -1.8217741 -3.0879903 -2.497187
-1.7643543 -2.212134 -1.3306096 -2.020833 -2.7326958 -2.164786 -3.324537 -1.8230973
-2.0897374 -2.62215 -2.207734 -3.07517 1.2353635 -1.1000836 -3.5824544 -1.7234322
00000000: 0ef2 0ec0 8bb9 30c0 9f42 dcbf 7bb4 c4bf
00000010: dde5 1bc0 d20e 20c0 c29d 1ec0 a869 a6be
00000020: 9a02 06c0 b8d4 e2bf 7efb 04c0 2e09 54bd
00000030: 265f c0bf e52f e9bf a2a1 45c0 e9d1 1fc0
00000040: 5dd6 e1bf 9a93 0dc0 6a51 aabf 5455 01c0
00000050: 7de4 2ec0 db8b 0ac0 37c5 54c0 415b e9bf
00000060: 42be 05c0 4ed1 27c0 844b 0dc0 96cf 44c0
00000070: 6420 9e3f 8acf 8cbf ef46 65c0 6d99 dcbf

bn2.running_var f4 [32]
8.1624775 10.15 6.9448895 6.514125 9.761153 11.351012 9.290275 4.1781945
8.805548 6.841176 6.379736 4.9175496 5.549574 10.643587 11.578044 9.3259945
6.153999 6.6332016 6.4262033 6.0705266 11.327248 8.068049 11.812017 6.782937
7.470033 12.082342 6.7514462 10.8186455 5.8124013 6.974352 14.372706 10.773064
00000000: 8299 0241 6666 2241 893c de40 b673 d040
00000010: af2d 1c41 bf9d 3541 f7a4 1441 c5b3 8540
00000020: 86e3 0c41 eaea da40 cc26 cc40 915c 9d40
00000030: 1c96 b140 224c 2a41 ab3f 3941 4637 1541
00000040: 8fed c440 3043 d440 75a3 cd40 c141 c240
00000050: 683c 3541 bb16 0141 06fe 3c41 d20d d940
00000060: 830a ef40 4651 4141 d90b d840 2c19 2d41
00000070: 31ff b940 e42d df40 9bf6 6541 785e 2c41

conv3.weight f4 [16, 32, 5]
0.10680372 -0.0062100617 -0.022313183 0.1258399 0.19468766 0.034832112 -0.06707853 -0.11268528
-0.08335044 -0.054749314 -0.22915573 -0.22320414 0.20023952 0.121888876 -0.081367284 0.18653148
-0.04915532 -0.20145907 0.17142732 0.12451375 0.100450754 -0.0036705453 -0.10958326 -0.09519815
0.02949045 0.25100797 -0.121730335 0.093763 0.26733682 0.29891324 -0.017938264 0.21086231
0.13626416 0.18719889 -0.032173548 -0.110860236 -0.04641735 -0.1662216 -0.10066849 0.036358286
-0.039575264 -0.11451781 0.09964511 0.09051338 0.1136151 0.00038054373 0.09637169 -0.07117889
-0.04448195 0.12828162 -0.12791982 -0.19303207 -0.32534325 -0.17019162 -0.07235732 0.021949442
0.062040027 -0.08452921 0.07120592 -0.05174535 0.03619531 -0.052164983 -0.21931653 -0.067821845
0.22317877 -0.11489835 0.05965354 -0.1164672 -0.03860443 -0.30588213 0.16563809 0.040356223
-0.2645196 0.111893214 0.16929188 0.06631309 -0.00518359 -0.02096554 -0.12259648 -0.080967605
0.046993297 -0.14341597 -0.28019646 -0.047052428 0.109944746 0.23218738 0.37213585 0.4284054
0.31678644 0.053224206 -0.058806278 0.057204008 -0.026066931 -0.056123905 0.111746445 0.13091044
-0.0053624334 0.10530496 0.12828584 0.036165413 0.13948697 0.07082006 -0.15912573 -0.012428268
0.118479274 0.10451745 -0.075467505 -0.1603117 -0.07305954 -0.059548758 -0.19328606 -0.07640827
-0.14365156 -0.13531436 0.053941343 0.08574751 -0.08216379 -0.106804125 -0.01841275 -0.08895332
-0.111492984 0.019230673 0.042201184 0.1406136 -0.14317922 -0.32155377 -0.011559468 -0.109094
-0.39319515 -0.17664641 0.047031924 0.20452638 -0.021999136 0.15880755 -0.059574135 -0.15782571
-0.08389328 -0.0111788735 -0.25819337 -0.07491707 -0.029217899 -0.012814216 -0.08157594 -0.10611882
-0.21311055 -0.01894657 0.045535658 -0.12567984 0.037141267 -0.03658276 -0.061833516 -0.09902989
-0.16527206 0.028060094 0.11834814 -0.058100227 -0.22524752 -0.098937124 0.10312307 0.12527506
0.15273559 0.16922066 -0.054960106 -0.059702497 -0.13618024 -0.17418349 -0.054521848 -0.1723184
0.028450187 -0.10254894 0.08000742 0.049271204 -0.078304805 0.04418333 -0.17829819 0.22111705
0.111982204 0.032936968 -0.04219428 0.3195458 -0.0347653 -0.08083915 0.01778608 0.15250558
-0.026414769 -0.0092540765 0.2031261 0.15645002 -0.14586021 0.15145391 0.1614999 0.07834219
0.20628867 -0.12643309 -0.22088386 -0.030050864 -0.099706456 -0.09135121 -0.12239171 -0.12308475
0.18756208 -0.09762078 0.09831102 -0.16260579 -0.07231155 0.030773563 0.019545821 0.14205584
0.1419021 0.27640432 -0.06254182 0.08863663 0.10921173 -0.08541166 0.03790695 -0.07664994
-0.08981563 -0.07540544 -0.08087905 -0.15267509 -0.076311074 -0.025147917 0.029724108 -0.10040333
0.13696705 -0.44157684 -0.3005717 -0.27326965 -0.35399377 -0.17396036 -0.0798115 -0.083016664
-0.14955191 -0.0017752333 -0.04512115 -0.2694596 -0.044205893 -0.058135662 0.07544146 0.08455885
0.10839312 0.26199782 0.20788752 0.11681774 0.25787732 0.27261594 -0.02108625 0.14775442
0.17013857 -0.06612639 -0.04170243 -0.07170746 0.14053003 -0.22328465 -0.074442916 -0.24485987
00000000: e9bb da3d c67d cbbb 23ca b6bc 2ddc 003e
00000010: 345c 473e 1eac 0e3d 7860 89bd 8ac7 e6bd
00000020: a3b3 aabd d140 60bd cda7 6abe a08f 64be
00000030: 970b 4d3e e0a0 f93d e4a3 a6bd 1c02 3f3e
00000040: 1757 49bd 494b 4ebe a58a 2f3e 1101 ff3d
00000050: 20b9 cd3d 888d 70bb 306d e0bd 3ff7 c2bd
00000060: f595 f13c 1e84 803e c14d f9bd d106 c03d
00000070: 5fe0 883e 280b 993e 44f3 92bc 4aec 573e
00000080: d588 0b3e 11b1 3f3e 69c8 03bd b10a e3bd
00000090: 1f20 3ebd ff35 2abe 482b cebd 6dec 143d
000000a0: ac19 22bd 5088 eabd bc12 cc3d 145f b93d
000000b0: 09af e83d b783 c739 855e c53d 3dc6 91bd
000000c0: b532 36bd 425c 033e 6afd 02be 33aa 45be
000000d0: 6493 a6be b646 2ebe 1330 94bd 51cf b33c
000000e0: af1d 7e3d a71d adbd 69d4 913d eff2 53bd
000000f0: 8941 143d f3aa 55bd 8394 60be 2ee6 8abd
00000100: fa88 643e d34f ebbd 4557 743d 5b86 eebd
00000110: ae1f 1ebd 959c 9cbe 089d 293e 914c 253d
00000120: 1d6f 87be 4528 e53d da5a 2d3e 28cf 873d
00000130: 1bdb a9bb edbf abbc dd13 fbbd 58d2 a5bd
00000140: 0b7c 403d a3db 12be e975 8fbe 0cba 40bd
00000150: b62a e13d 87c2 6d3e 9788 be3e f457 db3e
00000160: d531 a23e a001 5a3d dade 70bd c04e 6a3d
00000170: 518a d5bc 2ee2 65bd 52db e43d 630d 063e
00000180: 5ab7 afbb 20aa d73d 5d5d 033e 2f22 143d
00000190: acd5 0e3e 1c0a 913d dbf1 22be ef9f 4bbc
000001a0: 43a5 f23d 3f0d d63d b58e 9abd c028 24be
000001b0: 3da0 95bd 66e9 73bd c8ec 45be f07b 9cbd
000001c0: 6519 13be d98f 0abe 99f1 5c3d 649c af3d
000001d0: 7d45 a8bd 1fbc dabd 56d6 96bc 292d b6bd
000001e0: 6f56 e4bd a589 9d3c 26db 2c3d 03fd 0f3e
000001f0: 939d 12be b2a2 a4be ec63 3dbc ad6c dfbd
00000200: e050 c9be cce2 34be 8ca4 403d 5d6f 513e
00000210: 8837 b4bc 729e 223e 0204 74bd 109d 21be
00000220: 3dd0 abbd 9827 37bc ec31 84be 1f6e 99bd
00000230: 605a efbc b8f2 51bc 4911 a7bd d354 d9bd
00000240: a739 5abe d635 9bbc 9983 3a3d 37b2 00be
00000250: 7121 183d ced7 15bd 2445 7dbd 2fd0 cabd
00000260: 143d 29be 48de e53c 8260 f23d 81fa 6dbd
00000270: 49a7 66be 8c9f cabd 3032 d33d 1b48 003e
00000280: b866 1c3e 2e48 2d3e d91d 61bd 9b8a 74bd
00000290: d572 0bbe 285d 32be 4d52 5fbd 3c74 30be
000002a0: 5e10 e93c 2e05 d2bd eeda a33d 9ad0 493d
000002b0: 455e a0bd 94f9 343d cd93 36be 826c 623e
000002c0: ed56 e53d eae8 063d e9d3 2cbd 829b a33e
000002d0: 0f66 0ebd ff8e a5bd 1db4 913c 6c2a 1c3e
000002e0: c963 d8bc 699e 17bc 4a00 503e 6f34 203e
000002f0: 615c 15be bc16 1b3e 3b60 253e df71 a03d
00000300: 563d 533e ad77 01be 612f 62be 3b2d f6bc
00000310: e632 ccbd 5816 bbbd 81a8 fabd db13 fcbd
00000320: 4610 403e 67ed c7bd 4a57 c93d 2282 26be
00000330: 1418 94bd d718 fc3c 8f1e a03c 1677 113e
00000340: c94e 113e de84 8d3e ed15 80bd 1f87 b53d
00000350: 66aa df3d 4fec aebd 5144 1b3d a5fa 9cbd
00000360: 42f1 b7bd 2b6e 9abd eaa3 a5bd dc56 1cbe
00000370: fb48 9cbd 0103 cebc f97f f33c 43a0 cdbd
00000380: 1741 0c3e 5c16 e2be 89e4 99be 00ea 8bbe
00000390: ac3e b5be aa22 32be 3674 a3bd a404 aabd
000003a0: 2324 19be f2ae e8ba f4d0 38bd 9cf6 89be
000003b0: 3d11 35bd a91f 6ebd 0d81 9a3d 312d ad3d
000003c0: 36fd dd3d 9424 863e 77e0 543e 243e ef3d
000003d0: 7f08 843e 5194 8b3e 12bd acbc ef4c 173e
000003e0: ce38 2e3e 466d 87bd 2bd0 2abd 5cdb 92bd
000003f0: 1be7 0f3e bba4 64be 8775 98bd 8cbc 7abe

conv3.bias f4 [16]
0.0118129095 0.008013009 -0.07093141 0.015078235 -0.036341596 -0.042444643 0.0023395328 -0.022473741
-0.027136905 -0.0023652532 -0.03898869 -0.06567379 -0.104811944 0.0073653716 -0.051339954 -0.028457833
00000000: ef8a 413c ff48 033c 7d44 91bd b40a 773c
00000010: edda 14bd 6fda 2dbd d952 193b da1a b8bc
00000020: 374e debc 5d02 1bbb 9bb2 1fbd fb7f 86bd
00000030: a5a7 d6bd 3759 f13b d849 52bd 6720 e9bc

bn3.weight f4 [16]
1.1104512 0.9352864 1.1893691 1.194345 1.2200289 1.1921662 0.9882712 1.1346054
0.9499132 0.9804025 1.1768302 0.99266833 1.0946625 0.9995903 1.2410955 1.0874422
00000000: 4423 8e3f ee6e 6f3f 3f3d 983f 4ce0 983f
00000010: e829 9c3f e798 983f 57ff 7c3f c03a 913f
00000020: 832d 733f a9fb 7a3f 5fa2 963f 831f 7e3f
00000030: e71d 8c3f 26e5 7f3f 38dc 9e3f 4e31 8b3f

bn3.bias f4 [16]
-0.154685 -0.19390723 -0.0020274823 -0.048491724 9.360014e-05 0.06781041 -0.092436306 -0.13388851
-0.25036153 -0.12140787 -0.018349597 -0.23253183 -0.108482644 -0.09720464 0.00064561435 -0.10702805
00000000: bf65 1ebe 9e8f 46be 82df 04bb 429f 46bd
00000010: 314b c438 2fe0 8a3d 3f4f bdbd 121a 09be
00000020: 632f 80be b0a4 f8bd e551 96bc d31c 6ebe
00000030: 262c debd 3a13 c7bd 723e 293a 8631 dbbd

bn3.running_mean f4 [16]
-0.6146959 -0.9151296 -0.51433235 -0.508511 -1.320973 -0.4678537 -1.2722859 -0.4818063
1.0586576 -1.0714905 -0.80347836 -0.4060621 -0.63180554 -0.8097302 -0.535891 -0.9579737
00000000: b65c 1dbf ef45 6abf 49ab 03bf c72d 02bf
00000010: a515 a9bf 858a efbe 44da a2bf 51af f6be
00000020: 1882 873f 9a26 89bf c2b0 4dbf 5fe7 cfbe
00000030: 02be 21bf 7a4a 4fbf 2730 09bf c43d 75bf

bn3.running_var f4 [16]
0.52802384 0.6301021 0.60537773 0.5802855 0.98459285 0.67020226 0.80201423 0.72220826
1.1042414 0.6766175 0.6665783 0.35776 0.5808784 0.57732517 0.5057568 0.6312381
00000000: 922c 073f 5f4e 213f 09fa 1a3f 978d 143f
00000010: 470e 7c3f 6092 2b3f ce50 4d3f a4e2 383f
00000020: c857 8d3f ce36 2d3f e0a4 2a3f 522c b73e
00000030: 72b4 143f 95cb 133f 4779 013f d298 213f

output_layer.weight f4 [11, 3008]
-0.35777423 -0.422789 -0.37174973 -0.2166314 -0.1520297 -0.09130219 -0.15026852 -0.18795016
-0.24731468 -0.124707915 -0.19954892 -0.109567456 -0.23675667 -0.17043512 -0.018370608 -0.07524589
-0.058809545 -0.191662 -0.08685192 -0.18339288 -0.30224577 -0.30068836 -0.16722302 -0.31588402
-0.27876118 -0.27774397 -0.48984852 -0.39997503 -0.45484424 -0.27526683 -0.41588885 -0.2506684
-0.26792935 -0.21735716 -0.14429912 -0.23263575 -0.31238797 -0.1129998 -0.11824893 -0.18862209
-0.36902365 -0.32842436 -0.20416027 -0.18038012 -0.33316913 -0.23424809 -0.26282847 -0.31903988
-0.11519813 -0.104910694 -0.08625673 -0.13054167 -0.20886995 -0.21278746 -0.2093831 -0.071221456
-0.09794085 -0.2676485 -0.26358393 -0.074033625 -0.11775099 -0.18641312 -0.13347532 -0.13492203
-0.2205495 -0.16877036 -0.14605455 -0.22797386 -0.30610657 -0.16821827 -0.074713536 -0.2147363
-0.10066057 -0.033997882 -0.31311825 -0.21024647 -0.1497047 -0.08712848 -0.10728804 0.02340707
-0.1224377 -0.11499817 -0.13495801 -0.037917096 -0.096153796 -0.13645859 -0.16746983 -0.029805657
-0.19211556 -0.3043199 -0.15023518 -0.165309 -0.091939434 -0.22477813 -0.22196166 -0.3130166
-0.34634587 -0.20962384 -0.11361881 -0.13586162 -0.17060247 -0.14379118 -0.40123445 -0.3140025
-0.23064014 -0.14183486 -0.20311612 -0.1991923 -0.23439087 -0.13838953 -0.17638944 -0.25355768
-0.18162851 -0.27887464 -0.19703127 -0.1894416 -0.15962265 -0.13012035 -0.099771716 -0.10682018
-0.18439113 -0.25781047 -0.19733092 -0.25563928 -0.29656556 -0.3555411 -0.415647 -0.32561603
-0.4542028 -0.3846223 -0.35508493 -0.24494201 -0.46100956 -0.4283225 -0.2531245 -0.17909628
-0.26265132 -0.27445254 -0.17033802 -0.1455025 -0.18593289 -0.19142975 -0.16769868 -0.12775224
-0.36353898 -0.31946525 -0.34292874 -0.17070882 -0.08975095 -0.008536033 -0.10598011 -0.11383996
-0.0857472 -0.05276047 -0.16947113 -0.12905416 -0.17530976 -0.32731277 -0.14825933 -0.091534175
-0.2556149 -0.31529754 -0.17373346 -0.08305862 -0.18865289 -0.25501892 -0.27435052 -0.47858307
-0.26789623 -0.25764376 -0.35241416 -0.34715664 -0.09692593 -0.12633099 -0.4610165 -0.38308495
-0.104708806 -0.23033941 -0.2744403 -0.22939494 -0.16511446 -0.2997479 -0.24353634 -0.24069332
-0.33130616 -0.25753024 -0.37437576 -0.12120756 0.20143901 0.12990382 0.16702028 0.09002878
0.023159666 0.16089453 0.05855058 0.1033484 0.11696081 0.111436024 0.09325464 0.14647597
0.15241086 0.10883017 0.04796327 -0.00045728986 0.025625037 -0.012266681 0.05853163 0.044437125
0.07014021 0.017472196 0.08007294 0.089447826 0.06718111 -0.0079256985 0.02328956 0.057754952
0.0018033386 0.13544597 0.09048366 0.12401275 0.1220078 0.08656107 0.08768444 0.15310533
0.1475747 0.15144052 0.11710177 0.07984037 0.019937633 0.011155383 0.07616001 0.108668745
0.1523615 0.1646502 0.11308288 0.15887824 0.15970103 0.123883925 0.11034625 0.14661372
0.107522026 0.15950723 0.115474194 0.19753732 0.14690287 0.17525852 0.17371777 0.09776746
-0.023787804 0.06495045 0.11344905 0.044976406 0.086477965 0.09364952 0.07888491 0.082039855
00000000: 2f2e b7be cd77 d8be fb55 bebe 9fd4 5dbe
00000010: acad 1bbe a5fc babd fedf 19be 0276 40be
00000020: 0f40 7dbe dd66 ffbd 8d56 4cbe e764 e0bd
00000030: 5770 72be 8b86 2ebe f57d 96bc 841a 9abd
00000040: 47e2 70bd 0b43 44be 6bdf b1bd 58cb 3bbe
00000050: f5bf 9abe d3f3 99be 833c 2bbe 8dbb a1be
00000060: c9b9 8ebe 7534 8ebe 6dcd fabe 87c9 ccbe
00000070: 58e1 e8be c6ef 8cbe 62ef d4be 9c57 80be
00000080: 092e 89be e092 5ebe 26c3 13be 1138 6ebe
00000090: 51f1 9fbe 706c e7bd 7f2c f2bd 2626 41be
000000a0: abf0 bcbe 3d27 a8be 640f 51be 91b5 38be
000000b0: 2595 aabe bbde 6fbe 7491 86be 3259 a3be
000000c0: ffec ebbd 6bdb d6bd 5ea7 b0bd b7ac 05be
000000d0: 01e2 55be f5e4 59be 8668 56be 8edc 91bd
000000e0: 3695 c8bd 3909 89be 79f4 86be f19e 97bd
000000f0: 6e27 f1bd 15e3 3ebe c1ad 08be 0029 0abe
00000100: bad7 61be 23d2 2cbe 538f 15be fb71 69be
00000110: 00ba 9cbe 6941 2cbe 6903 99bd d5e3 5bbe
00000120: 2127 cebd 5d41 0bbd 0951 a0be da4a 57be
00000130: 304c 19be 6b70 b2bd d5b9 dbbd 2fc0 bf3c
00000140: 9ec0 fabd 2984 ebbd 6f32 0abe f54e 1bbd
00000150: 48ec c4bd cdbb 0bbe 367d 2bbe fe2a f4bc
00000160: f1b9 44be d1cf 9bbe 40d7 19be c346 29be
00000170: be4a bcbd 3d2c 66be eb49 63be b643 a0be
00000180: 3f54 b1be a2a7 56be fbb0 e8bd 4f1f 0bbe
00000190: 6ab2 2ebe ff3d 13be 9a6e cdbe f0c4 a0be
000001a0: ee2c 6cbe 283d 11be acfd 4fbe 11f9 4bbe
000001b0: 2904 70be fcb5 0dbe 6f9f 34be 50d2 81be
000001c0: d3fc 39be a8c8 8ebe 91c2 49be fbfc 41be
000001d0: 1f74 23be 453e 05be 1d55 ccbd 8ac4 dabd
000001e0: 07d1 3cbe bcff 83be 1e11 4abe 27e3 82be
000001f0: 71d7 97be 7c09 b6be afcf d4be 25b7 a6be
00000200: 458d e8be 37ed c4be b1cd b5be 14d2 7abe
00000210: 7209 ecbe 164d dbbe 8999 81be 0465 37be
00000220: 3c7a 86be 0b85 8cbe 176d 2ebe 9bfe 14be
00000230: 3165 3ebe 2906 44be 34b9 2bbe 7cd1 02be
00000240: c821 babe f390 a3be 5b94 afbe 4bce 2ebe
00000250: 59cf b7bd b8da 0bbc 1a0c d9bd ed24 e9bd
00000260: 3a9c afbd 5d1b 58bd d789 2dbe c626 04be
00000270: 6784 33be 8a95 a7be 4bd1 17be 4576 bbbd
00000280: f5df 82be ae6e a1be 2fe7 31be a31a aabd
00000290: 392e 41be d791 82be ac77 8cbe d708 f5be
000002a0: b229 89be e2e9 83be a16f b4be 84be b1be
000002b0: 1a81 c6bd e95c 01be 5b0a ecbe b623 c4be
000002c0: 9271 d6bd 18de 6bbe 7083 8cbe 82e6 6abe
000002d0: c413 29be 8f78 99be 9761 79be 4f78 76be
000002e0: f6a0 a9be 01db 83be 2eae bfbe ab3b f8bd
000002f0: 0746 4e3e 8205 053e 5d07 2b3e 0261 b83d
00000300: 57b9 bd3c 89c1 243e bcd2 6f3d 53a8 d33d
00000310: 2689 ef3d 9238 e43d 4afc be3d ccfd 153e
00000320: 9811 1c3e 5ae2 de3d 2275 443d 68c0 efb9
00000330: 99eb d13c 30fa 48bc ddbe 6f3d b403 363d
00000340: aca5 8f3d da21 8f3c 48fd a33d 6c30 b73d
00000350: 4096 893d cada 01bc bfc9 be3c 7590 6c3d
00000360: 015e ec3a 59b2 0a3e 7f4f b93d 66fa fd3d
00000370: 3adf f93d ee46 b13d e693 b33d a5c7 1c3e
00000380: d21d 173e 3913 1b3e 0ed3 ef3d 5983 a33d
00000390: 3f54 a33c 11c5 363c c8f9 9b3d b88d de3d
000003a0: a704 1c3e 109a 283e ff97 e73d fab0 223e
000003b0: ab88 233e dbb6 fd3d 37fd e13d e821 163e
000003c0: 8234 dc3d dd55 233e bc7d ec3d 3947 4a3e
000003d0: b56d 163e f876 333e 12e3 313e 4e3a c83d
000003e0: a4de c2bc be04 853d fa57 e83d 2e39 383d
000003f0: 5c1b b13d 52cb bf3d 698e a13d 8304 a83d

output_layer.bias f4 [11]
-0.022578925 0.087670736 0.063822955 0.056252006 -0.06876177 -0.1424502 0.021959724 -0.061859332
-0.04587802 -0.03750841 0.10993078
00000000: 70f7 b8bc b78c b33d 9cb5 823d 8168 663d
00000010: f9d2 8cbd 77de 11be e1e4 b33c 3660 7dbd
00000020: 97ea 3bbd 6ba2 19bd 6423 e13d
