libemg_3dc/split_by_samples/checkpoints/Split by samples (standartized by train set). subjects=2,num_epochs=20,batch_size=64,Adam(learning_rate=0.001,weight_decay=0),CosineAnnealingLR(T_max=20, eta_min=1e-05).pt (torch, 213708 bytes, 20 tensors)

conv1.weight f4 [64, 10, 5]
000000 7a c7 dd bb 55 e8 ba 3c 68 b6 86 bd 23 a6 4c 3d
       -0.006768164 0.022815863 -0.0657776 0.049963128
000010 c5 ec ad bd 34 8a d7 3d a4 35 86 bd 96 0e 8b bd
       -0.08492426 0.10524407 -0.065532 -0.067898914
000020 be 7c 22 bd 83 e9 d1 3d fd a9 92 bd 2c 5e 82 3d
       -0.039669745 0.10249617 -0.07161329 0.06365618
000030 5e 9d b7 bd 48 38 97 bd af a9 39 bd c0 13 28 bd
       -0.08965562 -0.07383782 -0.04532784 -0.04103446
000040 d6 00 9f bd 1b f8 ed 3d 8c 34 f0 bc 99 a8 31 3d
       -0.07763831 0.11619588 -0.029321931 0.043373678
000050 d8 4b ab bc ac db 12 bd 02 6a ba 3c 82 e1 ac 3d
       -0.020910189 -0.035854027 0.022755627 0.0844145
000060 af 41 bf bd 3d 68 80 3c f0 33 8c bd 54 3a b7 3d
       -0.093387 0.015674705 -0.06845844 0.08946672
000070 dc 16 a5 3d bf c1 17 be 71 13 df 3d 06 be 8a 3d
       0.08061001 -0.14820002 0.1089238 0.06774525
000080 75 42 ab 3d e9 e9 d2 3d 30 f9 13 3e 80 e1 13 bd
       0.08362285 0.10298521 0.14450526 -0.036103725
000090 f1 b6 2d be 3e 24 ee bd 26 83 0f be cc 2c 9b b9
       -0.16964318 -0.116280064 -0.14014873 -0.0002959728
0000a0 14 38 36 3d be bb 24 bc 8b 60 ad b9 aa a1 fc 3d
       0.044487074 -0.010054527 -0.00033069061 0.123355225
0000b0 a7 96 7b 3c 7c e0 26 3d 29 77 fb bb 9d f4 9d bc
       0.015355743 0.04074143 -0.007674117 -0.01928168
0000c0 4a 38 48 3d a8 06 3a 3d fb bf fb 3c a9 1c 47 3c
       0.048881806 0.045416504 0.030731192 0.012152829
0000d0 4d ba c3 3c d0 06 46 3d 24 4a ce bc 65 e9 eb bd
       0.023892546 0.04834634 -0.025181837 -0.11519126
0000e0 a3 09 92 bd df a8 f7 3d 39 dc ab 3c 8d ca cd bd
       -0.07130744 0.120927565 0.020979034 -0.10048399
0000f0 a4 c2 1c 3c 7e 99 b0 3d 1b 23 85 bd 00 07 fc bb
       0.00956789 0.08623026 -0.065008365 -0.007691264
000100 02 4d 8c bc 39 37 ef bc a8 c7 2b bd 9f 36 21 3d
       -0.017126564 -0.029201137 -0.041938454 0.03935873
000110 23 a9 7f bd 6f 93 40 3d 72 65 f8 3d 92 a9 84 3d
       -0.06241716 0.047015604 0.12128724 0.064776555
000120 2e 2c a6 bd 0a 34 bd bd bd 44 91 3d ba ab 94 3d
       -0.08113895 -0.09238441 0.07093189 0.07259317
000130 30 63 f6 3d 1c b7 b7 bd 6a c9 56 bc 31 52 71 3d
       0.12030637 -0.08970472 -0.013109544 0.058916274
000140 4d 32 89 3d 2c 23 19 3d 4c c9 3c 3d a0 2b 3f 3b
       0.06699047 0.03738706 0.04609041 0.002917029
000150 db c6 70 bd a4 20 94 3c eb c7 46 bd fc b1 79 3d
       -0.058783393 0.01808197 -0.0485305 0.060960755
000160 da f1 1d 3b aa b3 e0 3c eb f9 af bd 4f 07 d8 3d
       0.0024100454 0.02742942 -0.0859259 0.10548269
000170 9b 05 21 3c 18 06 91 3d 0a 3c 30 bd c6 6d 9a 3d
       0.009827997 0.070812404 -0.043026008 0.07540469
000180 a3 1b 69 3e 15 9c 54 3e 44 58 31 3e 94 58 66 3c
       0.22764449 0.20762666 0.17318827 0.014059205
000190 ba 77 98 3d e3 a6 fd bd 77 8e ba bc 26 67 05 be
       0.07444711 -0.12385347 -0.02277301 -0.1302763
0001a0 e8 de ae bd 2e cc 10 bd 6b b4 aa bc 15 67 85 3d
       -0.0853861 -0.03535097 -0.020837983 0.06513802
0001b0 47 58 e2 38 31 11 7b bd f0 4c 84 3d 63 7f d3 bd
       0.00010792963 -0.061295692 0.06459987 -0.103270315
0001c0 ff c6 a8 3b cf 6b 82 bd e5 52 05 bd e7 0a 5c bb
       0.0051506753 -0.06368219 -0.032549758 -0.0033575834
0001d0 e0 79 c1 bd 81 2d 75 3b 65 12 3c 3d 6a 3d fa 3d
       -0.09447074 0.0037411156 0.04591598 0.12218745
0001e0 db e8 69 bd ba f4 12 3d 19 05 09 3e 51 8a 74 bd
       -0.057106834 0.03587792 0.13380851 -0.05970222
0001f0 51 83 49 3e 61 a8 69 bd 76 1c 34 3d e4 e9 47 3d
       0.19679 -0.057045344 0.043972455 0.04880704
000200 b7 38 ff 3c b4 d6 f4 3d 2a 13 58 bd 99 f0 24 3d
       0.031154973 0.11955014 -0.05275265 0.040268514
000210 06 c7 10 3d 50 d7 8a bd 48 48 f8 3c 8b ba dd bd
       0.035346054 -0.06779349 0.030307904 -0.10826596
000220 47 48 46 3d 38 88 5b 3c ba 63 59 3d 62 2b c5 3b
       0.048408773 0.013399176 0.053073622 0.0060171345
000230 00 9d fe bc 81 65 34 bd a2 ee 34 3d 1a 6d 0a 3e
       -0.031080723 -0.044042114 0.04417289 0.13518181
000240 06 73 4a 3d 1a c5 60 bd fb a2 70 bd ef 9b cd 3c
       0.0494261 -0.05487547 -0.05874918 0.025098769
000250 6b d5 a0 bd f6 03 90 bd 0c cc 89 bd ba 6d b8 bc
       -0.07853206 -0.070320055 -0.06728372 -0.02251326
000260 92 6d 0f 3d 2f 6e 1e 3e 95 86 14 3e 06 e1 cd 3d
       0.035016604 0.15471719 0.14504464 0.100526854
000270 e4 91 9b bd 2d 96 61 3c cc e5 d6 bd 44 6a af 3d
       -0.07596186 0.013768715 -0.10493049 0.085651904
000280 60 fd 6e bd e7 36 89 3d 76 4c f1 bd 5e 7f a6 3d
       -0.058347106 0.06699925 -0.11782162 0.08129762
000290 13 ea f0 3d e2 26 a9 3c 5a c0 74 bb 9e e7 d4 3d
       0.11763396 0.020648424 -0.0037346096 0.1039574
0002a0 88 50 af 3d 92 bd e1 3d 40 5b 56 bd dd 8f 95 bd
       0.08560282 0.11022486 -0.052333117 -0.0730283
0002b0 9e 6a 98 3d 86 5d b0 3d 41 db 8f bd fb e8 d9 bd
       0.074422106 0.08611588 -0.07024241 -0.106401406
0002c0 1b 73 d2 bd 8f b7 9b 3c 5b 78 30 3e 98 86 3b 3d
       -0.10275861 0.019008426 0.17233412 0.045782655
0002d0 36 7d b3 3b 71 2e 43 bc 97 a5 d9 3d 69 6b 27 bd
       0.005477573 -0.011912928 0.10627287 -0.04087392
0002e0 a8 49 e4 bc 73 cc bc 3b 95 e0 ef bc 63 c3 a0 3d
       -0.027867153 0.005761677 -0.029281894 0.07849767
0002f0 2b b1 9f 3d bf 5e 09 be 69 54 9d bd 60 fe bd bd
       0.07797464 -0.13415049 -0.076821156 -0.09277034
000300 5d 3f 8e 3d b9 7f c8 3d a2 52 eb bd 09 b6 a7 bc
       0.06945679 0.09789986 -0.1149037 -0.020472543
000310 ca 97 8f 3d c8 3d 73 bd 45 dc 11 3e fc 99 79 3d
       0.07011373 -0.05938509 0.14244182 0.060937867
000320 fc 66 97 bc 97 38 0e 3d 1d 02 2f 3d d5 74 3d bd
       -0.018481724 0.034721937 0.042726625 -0.046253998
000330 3e de b4 bd df af cf 3c b1 b8 20 3c c0 5e 71 bc
       -0.08831452 0.025352417 0.009809659 -0.014732063
000340 0d 95 38 bd 7c ba 5e 3d 54 24 45 3b e3 ae 77 bc
       -0.04506402 0.054377064 0.0030081468 -0.01511738
000350 c9 a9 20 3d 7b 6c 75 bd d7 b5 22 3d 01 a7 d5 bd
       0.03922442 -0.05991791 0.039724197 -0.10432244
000360 64 91 53 3c 14 80 9b bd 84 47 27 3d 54 29 c6 3d
       0.012913082 -0.07592788 0.040839687 0.096758515
000370 d1 35 32 be 92 25 27 be 55 f0 18 3d 70 3f cf 3c
       -0.17403342 -0.16322926 0.037338573 0.025298804
000380 44 d4 09 3e ca 67 cc bd 91 2a 89 bd 9e 56 f8 bd
       0.13459879 -0.09980734 -0.06697572 -0.12125896
000390 0c ec 64 3d f4 40 a6 3a 57 0a fc bc b9 02 8b bb
       0.055889174 0.0012684152 -0.03076665 -0.004242268
0003a0 dc 5e 8f bd 7b 57 6d 3d 1f 75 ad 3a db dd e4 bd
       -0.07000515 0.057944756 0.0013233757 -0.11175128
0003b0 97 fb 46 3d 27 bc 68 3d b7 2c a0 bd 1b 7a 60 3d
       0.04857978 0.05682006 -0.07821029 0.05480395
0003c0 c0 91 53 3d 5c 65 dd bc ad 28 4e bd 35 bf 29 3d
       0.05165267 -0.027025871 -0.05033176 0.041442115
0003d0 2a f1 a7 3d 0a 6c 66 3d ac 1e 26 be d0 cb ef bd
       0.08200295 0.056255378 -0.16222638 -0.11708796
0003e0 82 72 7e 3d e3 2a 04 3d d7 7a 5b 3d 6c f5 9e bd
       0.062120922 0.032267462 0.053583946 -0.07761654
0003f0 ee b0 b1 3d 20 04 f2 bd 39 5f 10 bd d4 03 ae 3b
       0.08676325 -0.11817193 -0.03524706 0.005310515

conv1.bias f4 [64]
000000 b5 51 89 bb bb 69 ee 3b a5 74 e7 bb ec eb 53 bb
       -0.0041906484 0.0072757876 -0.0070634657 -0.0032336665
000010 f3 d1 11 bc 68 2d 82 3b 7b 35 bd bb 53 85 89 ba
       -0.008900153 0.003972698 -0.0057741976 -0.0010492004
000020 0d 67 34 3b e2 17 81 bb f4 7a c6 ba 38 92 c0 39
       0.0027527243 -0.0039396146 -0.0015142844 0.00036730035
000030 71 1b 9e bb 00 d4 c7 3b f4 01 a9 3b ae e6 71 3b
       -0.0048250486 0.0060982704 0.0051577035 0.0036911177
000040 a2 8d 31 3a 02 d0 e4 b9 e7 b9 7b bb 7c 17 80 ba
       0.0006773119 -0.00043642527 -0.0038410367 -0.0009772624
000050 c9 7a 73 bb aa 1c 83 3b a4 b4 d5 bb 6a 90 16 bb
       -0.0037152043 0.0040012198 -0.006521778 -0.002297426
000060 bd 3f 52 bc 98 2b d3 3a f0 b7 15 bb 95 87 84 ba
       -0.012832579 0.0016111014 -0.002284523 -0.0010111207
000070 0a e5 a6 3b 55 d0 48 ba e5 e6 44 39 40 1d 4c 3b
       0.0050932216 -0.00076604384 0.00018778032 0.0031145364
000080 91 8b 52 3c 6a d0 84 3b 26 e5 3b bc bb 1c 63 3b
       0.012850658 0.004053165 -0.011468207 0.0034654576
000090 31 35 8d ba 82 86 42 bb a6 3a dc bb 4c 2d c1 ba
       -0.0010773299 -0.0029682224 -0.0067208586 -0.0014738231
0000a0 6d 3c c6 3b b1 5a 3d 3b c0 d4 16 3b f4 e9 25 bc
       0.006049684 0.0028893168 0.0023014992 -0.01012658
0000b0 f7 e1 52 3b 5f c7 43 b9 d1 01 b0 bb 7d 75 56 bb
       0.0032178143 -0.0001867092 -0.0053713103 -0.0032723837
0000c0 b1 f2 2e bb 3f e8 2b 3b 63 54 3d bb 4e 3b cd 3b
       -0.0026694948 0.0026230959 -0.002888941 0.006263173
0000d0 de dc c0 b9 a0 2a 79 bb 5d 32 8d bb bf 75 3e 3a
       -0.00036785653 -0.0038019791 -0.0043089823 0.00072654703
0000e0 b0 7b e9 3b 75 d7 0f 3c 68 5b 00 3c 67 e0 22 ba
       0.0071253404 0.008779396 0.007834293 -0.0006213248
0000f0 56 6f 0d bb 50 e8 a2 3b 73 75 3b bb e5 db 64 3b
       -0.0021581254 0.0049715415 -0.002860394 0.0034921106

bn1.weight f4 [64]
000000 7f c1 81 3f ed e9 74 3f 01 a4 80 3f df ef 80 3f
       1.0137175 0.9566944 1.005005 1.0073203
000010 5e 2d 80 3f ec 43 81 3f bb 15 7f 3f 76 77 77 3f
       1.0013845 1.0098853 0.99642533 0.9666666
000020 52 d6 7c 3f 46 3b 76 3f 69 a0 7c 3f f2 b0 79 3f
       0.98764527 0.96184194 0.98682266 0.9753562
000030 c3 ae 78 3f de 9b 78 3f 62 c8 7c 3f f0 ca 82 3f
       0.97141665 0.97112834 0.9874326 1.0218182
000040 70 1d 75 3f 66 3f 7c 3f 82 cb 7d 3f 2b 78 81 3f
       0.95748043 0.9853424 0.99138653 1.0114797
000050 b0 3c 80 3f 2e a8 8b 3f f0 1b 74 3f 64 6b 85 3f
       1.001852 1.0910699 0.9535513 1.0423398
000060 10 ff 82 3f 4f 32 7b 3f f6 dc 81 3f 49 aa 81 3f
       1.0234089 0.9812364 1.0145557 1.0130092
000070 be 97 7b 3f f6 b7 78 3f ad 1c 7c 3f cc 7a 79 3f
       0.98278415 0.971557 0.98481256 0.97453
000080 98 e9 87 3f 24 1a 7e 3f 7e 13 83 3f 1a f3 7b 3f
       1.0618162 0.9925864 1.0240324 0.9841782
000090 b4 9c 81 3f 9a 43 80 3f 5d f6 81 3f 4e cf 7b 3f
       1.0125947 1.002063 1.0153309 0.98363197
0000a0 3d ce 80 3f 2b d6 74 3f 45 97 81 3f d7 bb 82 3f
       1.0062939 0.95639294 1.0124289 1.0213574
0000b0 0f 6b 7f 3f 27 ce 7d 3f 7f bd 7a 3f e6 3c 7e 3f
       0.99772733 0.9914269 0.979454 0.99311674
0000c0 31 8c 7a 3f 46 31 7e 3f 5e a8 7d 3f e5 81 7f 3f
       0.97870165 0.99293935 0.9908503 0.9980758
0000d0 16 ae 6d 3f aa ca 81 3f 2e 3f 82 3f 23 73 7f 3f
       0.9284376 1.0139973 1.0175531 0.9978506
0000e0 85 57 7e 3f 2c aa 84 3f 44 8b 7f 3f fe 6d 78 3f
       0.99352294 1.0364432 0.9982188 0.97042835
0000f0 31 d1 80 3f 5a f6 80 3f 75 3c 7a 3f 8f 68 84 3f
       1.006384 1.007518 0.977485 1.0344409

bn1.bias f4 [64]
000000 dd d1 16 3c 54 e2 23 bd cf a0 9b bc f0 ef 1e 3c
       0.009205309 -0.040010765 -0.018997578 0.00970076
000010 74 b0 4e bc 39 0b 63 3d 6d fc 52 3c bf 9c 03 3d
       -0.012615312 0.055430625 0.012877566 0.032131907
000020 04 c3 71 3d a0 4a f5 bb 08 6c 40 3c c1 04 41 bd
       0.059023872 -0.0074857026 0.011744507 -0.047123674
000030 e9 22 8b 3d 0e 71 27 bd 93 d7 6a 3d 15 0c 1c 3d
       0.06793768 -0.0408793 0.057334494 0.03809746
000040 25 5b 44 3b 52 ed 92 bd 19 7e a6 3d 86 ab be bc
       0.0029961553 -0.071741715 0.0812952 -0.023275148
000050 3f e6 4d 3d 7c 7f 77 bc 2d 83 23 ba 77 c8 85 bc
       0.050268408 -0.015106078 -0.0006237503 -0.01633094
000060 78 b5 95 3c 73 32 0d 3d 91 a8 24 3d c1 e0 87 3c
       0.018275008 0.03447194 0.04019982 0.016586663
000070 3f cf e3 3d 53 e7 e4 3c af ec a4 3d aa a4 ea 3b
       0.111235134 0.027942335 0.08052956 0.0071607428
000080 08 13 1f 3c c6 3b 04 3c f2 3f 47 3b f2 c8 98 3c
       0.009709127 0.008070892 0.0030403105 0.018650506
000090 6c 9d 04 3e bc 4e 8b 3c 3a 02 ea 3b 24 9e 5d bb
       0.12950677 0.017005317 0.0071413787 -0.0033816183
0000a0 9e 0b 96 bd 1b 9e 7c 3d 2c 0a 8b ba 05 3c 22 3d
       -0.073264346 0.06167422 -0.001060789 0.03960802
0000b0 70 d9 1c 3d ed ec 22 bd f2 14 55 3d 68 f0 cf bb
       0.038293302 -0.03977673 0.052021928 -0.0063457973
0000c0 5f b0 54 3d 3b 5d c9 3c b2 1d af 3a 71 d7 08 3d
       0.051926013 0.024580589 0.001336029 0.033408586
0000d0 bb 28 d3 3d 31 06 80 3c dc 5c af bc a6 90 44 3d
       0.10310503 0.015627952 -0.021406583 0.04798951
0000e0 b7 bc 7c 3d 77 ce 85 3c eb ed 16 3d ae 29 d3 3d
       0.06170341 0.016333802 0.03684799 0.10310684
0000f0 ad 03 25 3c d8 20 4a 3d 11 45 b7 bc 42 39 90 3d
       0.010071677 0.04934773 -0.0223718 0.07042171

bn1.running_mean f4 [64]
000000 bb b8 88 bb 6b be f5 3b ef 53 f7 bb db 5f 3f bb
       -0.004172412 0.007499506 -0.0075478475 -0.0029201421
000010 30 f3 16 bc f7 d9 7a 3b 4d a4 d8 bb 32 52 bf ba
       -0.009213254 0.003827689 -0.006611383 -0.001459664
000020 72 b4 66 3b 61 18 6a bb 88 f2 7a ba d0 4f 0c 39
       0.0035202769 -0.0035720097 -0.0009572883 0.00013381173
000030 7d 0e 97 bb 4f f4 b5 3b 9f c1 8b 3b 2c 68 51 3b
       -0.0046098814 0.0055528055 0.004265025 0.003195296
000040 66 5f c7 39 b5 62 59 ba fe 6e 62 bb 77 90 ac ba
       0.00038027315 -0.00082926016 -0.003455102 -0.0013165612
000050 d1 20 88 bb 43 5a 83 3b ad 2c d7 bb 58 e2 aa ba
       -0.0041543026 0.004008563 -0.006566605 -0.0013037426
000060 4a 1d 4f bc 22 ac bc 3a fa fd f1 ba 60 9c 42 ba
       -0.01264126 0.0014394561 -0.0018462532 -0.00074238144
000070 f2 74 9c 3b 04 eb da ba 20 47 be 39 d9 db 1d 3b
       0.004774683 -0.001670212 0.00036292616 0.0024087338
000080 f2 76 4c 3c 02 d9 8d 3b 4d 98 35 bc b7 c8 47 3b
       0.012479531 0.004328848 -0.011083675 0.0030484626
000090 fc 3e e4 b8 fe a7 1d bb 05 6a d4 bb cf 1c e8 ba
       -0.00010883619 -0.002405643 -0.006482365 -0.0017708781
0000a0 a4 16 cf 3b 28 2f 51 3b b8 1e 20 3b 8b 0e 2a bc
       0.0063198376 0.0031918976 0.0024432372 -0.010379444
0000b0 cd 6d 69 3b 98 19 e3 b9 82 00 9c bb 96 12 6b bb
       0.0035618425 -0.00043315883 -0.0047608027 -0.0035869232
0000c0 80 a9 4e bb 24 58 26 3b 8b 07 84 bb 82 80 e7 3b
       -0.0031534135 0.0025382126 -0.0040292195 0.00706488
0000d0 dc d6 49 b9 6e 35 64 bb e0 02 96 bb 92 90 9d 3a
       -0.00019248895 -0.0034821886 -0.0045779794 0.0012021235
0000e0 11 15 c0 3b 9a b2 0a 3c 59 1d f9 3b c4 d7 21 ba
       0.0058618863 0.0084654335 0.0076023755 -0.0006173814
0000f0 fb b2 0d bb 3d cf 9f 3b 10 63 3b bb 6f 7a 78 3b
       -0.0021621573 0.0048769997 -0.0028592981 0.0037914773

bn1.running_var f4 [64]
000000 72 aa 49 3e c0 19 fd 3e bf b4 fb 3e 4e af 9b 3e
       0.19693926 0.49433708 0.49161336 0.30407184
000010 86 59 c1 3e 5f 59 df 3e 76 e3 c5 3e fc da 32 3e
       0.37763613 0.43622872 0.386501 0.17466348
000020 bb e0 3e 3e ee 7c 0e 3f 5b 5a a1 3e bd 62 16 3f
       0.18640415 0.5565938 0.31514248 0.5874441
000030 0c ba f2 3e 2c c6 77 3e 48 29 b5 3e ca 24 b7 3e
       0.47407568 0.2419669 0.35383058 0.35770255
000040 a3 6e 9e 3e 87 a1 03 3f f3 64 6f 3e 34 a0 b7 3e
       0.30943784 0.51418346 0.23378353 0.35864413
000050 84 9c e1 3e 15 e9 90 3e 25 1b 3d 3e b7 b1 22 3e
       0.44064724 0.28302827 0.18467386 0.15888105
000060 2a 2b c1 3e 2d 59 a9 3e 07 46 8e 3e 31 be e4 3e
       0.37728244 0.33075848 0.27787802 0.44676355
000070 cd 5e ed 3e d2 18 b0 3e 49 7c 6b 3e cf 91 b2 3e
       0.4636139 0.34393936 0.2299663 0.34876868
000080 c3 f3 be 3e c1 cf 14 3f 39 aa 3b 3e b6 39 1f 3e
       0.3729535 0.5812951 0.18326654 0.15549359
000090 df d9 c4 3e 22 f8 88 3e e0 d2 7a 3e e5 99 86 3e
       0.38447472 0.2675181 0.24494505 0.26289287
0000a0 a3 b6 a7 3e 44 3d a2 3e be 42 d2 3e 61 fa c1 3e
       0.32756528 0.31687367 0.41066545 0.37886336
0000b0 7a 7d 9a 3e 45 76 b2 3e f1 05 d3 3e 25 cc fe 3e
       0.30173856 0.34855857 0.4121547 0.49765125
0000c0 b0 9d f7 3e 6b a6 31 3f 40 d1 b6 3e 09 13 ad 3e
       0.48362494 0.6939456 0.3570652 0.33803585
0000d0 b9 36 83 3e 9f eb b7 3e 70 bd 41 3e a3 f8 97 3e
       0.25627688 0.35921952 0.18919921 0.29681882
0000e0 67 4d 09 3f d8 60 7f 3e ad 28 e0 3e 93 8a 8c 3e
       0.5363373 0.24939287 0.43781033 0.27449474
0000f0 1d 9d 20 3f d4 f1 97 3e 90 db 96 3e d0 8c a7 3e
       0.62739736 0.29676688 0.29464388 0.3272462

conv2.weight f4 [32, 64, 5]
000000 06 19 f8 bc e4 79 92 3d 18 44 6d bd ea 02 15 3e
       -0.03028537 0.07152155 -0.057926267 0.14551893
000010 fb 27 76 bc 4a dd b4 3d 7b 6e 90 bd 8f 5f aa bd
       -0.0150241805 0.0883127 -0.070523225 -0.083190076
000020 47 53 2c 3b b1 f1 ca bd d9 ba 00 3c 7f 2e 04 be
       0.0026294754 -0.0990938 0.007857048 -0.12908362
000030 15 ec 70 bd 3d ee d7 3c 2d d4 8c bd d8 c9 39 bd
       -0.058818895 0.026358718 -0.06876407 -0.04535851
000040 64 40 4b 3d 28 ca 9a bd f2 c7 a6 bc 9d 28 c7 bd
       0.049621955 -0.075580895 -0.020359013 -0.09724543
000050 31 e7 a1 bd 03 b4 57 bd 53 21 3c ba 31 de b6 3d
       -0.079054244 -0.052661907 -0.00071765966 0.089290984
000060 bf 80 25 3d 12 76 b4 bc 2e 0a 9c 3c fe 4e 98 3d
       0.040405985 -0.022028957 0.019047823 0.074369416
000070 44 56 86 3d a9 58 ea bd 53 b6 3b bd 2d 05 5f bd
       0.065594226 -0.11442692 -0.045828175 -0.054448295
000080 c5 18 88 3d d8 99 85 3d 8d 6f 80 bd a2 61 11 3d
       0.066453494 0.06523484 -0.062712766 0.0354935
000090 d1 1e 97 bd eb 98 68 3c 41 88 d2 3d f5 f9 8a bd
       -0.07378925 0.014196615 0.102798946 -0.06785957
0000a0 14 62 64 3c 62 a6 ba bd 33 93 d2 bd 01 d3 87 3d
       0.013939399 -0.09113766 -0.10281982 0.06632043
0000b0 df d5 86 bd b4 24 0a bd 85 10 89 3d df 28 34 3d
       -0.065837614 -0.03372641 0.06692604 0.04398429
0000c0 3f 0c 0c 3d e5 40 68 bd 9e 38 a2 bc be 5c dc 3c
       0.034191366 -0.056702513 -0.019802388 0.026899692
0000d0 57 b9 e3 3d 30 95 0a 3d 57 ce 59 3d 9b ee 89 3d
       0.11119335 0.033833683 0.053175297 0.067349635
0000e0 62 65 ef bc 40 c3 d7 3d 45 91 82 bd fd ad fc bd
       -0.029223148 0.10535288 -0.06375364 -0.12337873
0000f0 85 c1 b3 3d 25 9a b4 bd 01 36 3d 3d e3 a6 ef 3c
       0.08777145 -0.08818463 0.04619408 0.029254382
000100 06 9b 26 bd ee ea d8 bb 78 75 03 bd 8b a1 c9 3d
       -0.040675186 -0.0066198027 -0.03209445 0.09845265
000110 18 da a9 bd 8b 0e 92 bd 97 09 cf bd 6b 2c 74 bc
       -0.08293551 -0.0713168 -0.10109251 -0.014903168
000120 d2 3a 8a bd 84 49 c8 3d b3 11 92 3d 90 85 fe 3d
       -0.067495 0.09779647 0.07132282 0.12427819
000130 c3 d2 8e bd 09 0b 12 3d 84 46 b4 bd 1a d6 59 3d
       -0.06973793 0.035655055 -0.08802512 0.0531827
000140 1f e2 bd bd af 30 9a bd e3 60 49 bd 3f d7 9c 3d
       -0.09271645 -0.07528817 -0.049164664 0.076582424
000150 e6 48 96 3d 93 3d af bd a5 d8 f5 3c 34 99 e2 3c
       0.07338123 -0.08556666 0.03001053 0.027660944
000160 76 8c 75 bc 0c 6f ca bd 0f 73 55 bd 5c 42 82 bc
       -0.014987102 -0.09884462 -0.05211168 -0.015900783
000170 99 c5 88 3c 7f fd ba 3d 09 da 12 bd 9d d7 f8 3c
       0.016695784 0.09130382 -0.035852466 0.03037625
000180 47 dc 13 bc 59 8a d3 3d 0f 63 a7 bd 24 9a c8 3d
       -0.009024686 0.10329122 -0.08173191 0.09795025
000190 89 8e 8e bc be 2d 8d 3c 88 1e de 3c b0 12 c8 3d
       -0.01740195 0.017233726 0.027114168 0.09769189
0001a0 0e e8 66 bc 7d b8 81 bd 03 0c 21 bd 74 5d db 3c
       -0.014093412 -0.063340165 -0.039318096 0.02677796
0001b0 c9 d4 cd bd bb c7 dc bc 96 f2 9b bd ee c7 af 3d
       -0.10050351 -0.026950708 -0.07614629 0.085830554
0001c0 84 80 b6 bd c0 31 fc bc c3 18 4f 3c 95 0a 93 bb
       -0.08911231 -0.030785441 0.012640181 -0.0044873455
0001d0 45 90 ef 3d ce 24 bd bd 6e 34 9d 3d 70 9c 8d 3d
       0.11697439 -0.092355356 0.07676016 0.06914604
0001e0 a2 01 ec 3c 00 0d 3b 3d 32 16 38 3c b6 f5 8c bc
       0.028809372 0.045666695 0.0112357605 -0.017207008
0001f0 c0 47 fa bd c5 e0 83 bd 28 16 a9 3d 10 cd f7 3c
       -0.122207165 -0.06439356 0.08256179 0.030249149
000200 c9 c8 4e 3d 3b b4 48 bd 1c cf 2e bb 90 18 f3 ba
       0.050484452 -0.049000006 -0.002667374 -0.0018546749
000210 76 2b bf bd 0c c9 00 bd 62 c8 4c bc 98 f8 ca bd
       -0.093344614 -0.031441733 -0.012498947 -0.09910697
000220 5c ad 31 3c dd ee 0d be a3 56 23 be c4 9f 18 be
       0.010844555 -0.1386065 -0.15951018 -0.14904696
000230 15 4d 05 3d 05 5a d5 bc e5 c0 2b 3b 04 db d4 3d
       0.032544214 -0.026043901 0.0026207503 0.103933364
000240 31 c7 97 3d ed 03 9c bd 63 12 8b 3a 78 7b a8 bd
       0.074110396 -0.07617936 0.0010610338 -0.08226675
000250 07 88 b1 bd 00 5c 15 be 38 d6 58 3d d2 83 64 bd
       -0.08668523 -0.14585876 0.05293867 -0.055789776
000260 89 da b5 3d ee bf dc bc 05 f1 df bd 2a 97 18 bd
       0.08879573 -0.026946988 -0.10934643 -0.037253536
000270 d8 d6 bd 3d 20 5d 05 bd ff d6 d6 bd 35 d0 a3 bd
       0.09269494 -0.032559514 -0.10490226 -0.07998697
000280 78 2b a4 3d 95 4c 92 bd 8e b1 3e 3c cf a7 e0 3d
       0.080161035 -0.07143513 0.011639012 0.10969507
000290 1c 4a 19 3d 5f be 7d bd 00 be ae 3d 4f ec 61 bd
       0.03742419 -0.06194913 0.085323334 -0.055157002
0002a0 45 ae 7e bc cc c9 44 bc bd fe 27 3b e2 ab 71 3d
       -0.015544479 -0.012011003 0.0025634014 0.05900181
0002b0 92 ab f5 3d cd 68 0b bb 2e 4f 72 bd c6 f3 94 3d
       0.11995615 -0.0021272183 -0.059157543 0.072730586
0002c0 f3 df b2 bd cf 50 25 3c fd da 67 bb fe de 8c bd
       -0.08734121 0.010090067 -0.003537833 -0.0687847
0002d0 7d ea 84 bc 6a 6e 95 3b ea 0f dc bb 27 02 b0 bd
       -0.016225094 0.0045602815 -0.0067157643 -0.085941605
0002e0 c8 98 18 bd 29 c3 d7 3b 98 c6 ea bd a9 17 91 3c
       -0.03725508 0.006584544 -0.1146366 0.017711477
0002f0 5f 91 ad 3d d2 d3 a5 bd 8d 60 74 bd 81 84 bf 3c
       0.08474993 -0.08097042 -0.05966239 0.023378612
000300 03 10 ea bd 3e bc c0 3d 4b 9f 45 bd 81 b6 cc 3c
       -0.11428835 0.09410904 -0.048247617 0.024989368
000310 e0 96 a8 3d fd 82 73 bd 66 2b 8a 3d 97 be 38 bd
       0.08231902 -0.059451092 0.06746559 -0.045103636
000320 10 8f 00 be 09 2c 1f be ca 7c df bd 0e 66 65 bc
       -0.12554574 -0.15544142 -0.109124735 -0.0140013825
000330 de 9d b8 bd aa e0 f8 bb fc 83 46 bd 6d 40 9c 3d
       -0.09014486 -0.0075951414 -0.048465714 0.07629476
000340 d0 0e fd bd 0a 05 e0 bd 46 26 8c 3d b9 38 52 bd
       -0.12356341 -0.10938461 0.068432376 -0.051323626
000350 f0 e2 74 3d 55 9a 85 3c 8d 1d e2 bd 82 92 86 3c
       0.059786737 0.016308943 -0.110407926 0.016427282
000360 d4 65 e3 3d ca 72 a7 bd 2c c3 d1 bc 93 5e 80 bd
       0.111034065 -0.08176191 -0.02560576 -0.062680386
000370 01 ac df 3d df 97 2e 3d da b2 59 3a b3 7c d2 bc
       0.10921479 0.042625304 0.0008304544 -0.025694227
000380 d6 dc bb 3c 9a 40 25 3c 0e 4c 49 bd b8 ea 74 bd
       0.022932451 0.010086203 -0.049144797 -0.059794158
000390 da 7a 62 3d bb ca c6 bd ac e1 92 3d be 38 e8 3d
       0.05529294 -0.097066365 0.0717195 0.11338948
0003a0 7e 00 73 bd d6 01 60 3d 55 6c c9 bd f0 9b bb 3c
       -0.05932664 0.05468925 -0.09835116 0.022901505
0003b0 3b 61 03 3c 7b 1a a2 3d eb 98 81 3d 14 04 b2 bc
       0.008018787 0.07915207 0.06327995 -0.02173046
0003c0 d9 28 45 bd e2 53 27 be 66 bf 62 bd 45 43 4f 3c
       -0.04813466 -0.16340593 -0.055358313 0.012650316
0003d0 83 ed b1 3b 56 44 b8 3a aa ff 7f bd 0e f9 cd bd
       0.005429925 0.0014058452 -0.06249968 -0.10057269
0003e0 bd c5 f6 3c 80 34 49 bc e7 b6 36 3d dc 20 ba bd
       0.030123586 -0.012280583 0.044608023 -0.09088299
0003f0 bf 32 11 bd 95 6e be 3d 2d af 82 bd e3 1a 09 be
       -0.035448786 0.092984356 -0.063810684 -0.13389163

conv2.bias f4 [32]
000000 aa 8b 01 bc bf e9 7a 39 90 10 06 3c 2a 2d ad bb
       -0.007906834 0.00023928935 0.00818266 -0.005284925
000010 79 a5 ed 3b 1e 6d 5b bb b1 f8 0f 3b 93 29 38 bb
       0.007252392 -0.0033481787 0.00219683 -0.0028100952
000020 7c 23 b6 b9 af 42 14 bc 70 97 7f b7 55 83 79 3a
       -0.00034740183 -0.009049102 -1.5234444e-05 0.0009518166
000030 22 50 95 38 c7 5b 20 3b c6 66 6a 3a ab 7a 90 3b
       7.1197996e-05 0.0024468766 0.0008941706 0.0044091544
000040 27 4a 1a 3c 66 d0 b3 bb 38 dd 96 bb c2 66 85 bb
       0.009417093 -0.0054874895 -0.004604008 -0.0040710876
000050 98 59 39 3b 97 6f fd 3b 05 08 36 ba 5a de b2 ba
       0.0028282162 0.00773425 -0.0006943944 -0.0013646588
000060 f9 85 a4 bb 63 3c a3 3b df 72 b7 3b 8d 8e e1 3a
       -0.0050208536 0.004981564 0.0055984105 0.0017208621
000070 80 fa a0 39 90 26 de 3b 9f 1d 84 bb 91 f0 1e 3b
       0.00030704215 0.0067794994 -0.0040318514 0.0024252275

bn2.weight f4 [32]
000000 0e 7b 81 3f 87 ef 7e 3f 77 a6 82 3f 2c 38 7a 3f
       1.0115678 0.9958424 1.0207051 0.9774196
000010 43 80 7e 3f 9c 06 82 3f 58 7c 6f 3f 99 ce 7b 3f
       0.9941446 1.0158267 0.9354911 0.9836212
000020 99 e3 82 3f 6c ee 84 3f 7b 85 84 3f db 6e 77 3f
       1.0225707 1.038526 1.0353235 0.9665353
000030 3f 85 84 3f c9 c0 76 3f 0c 4a 84 3f b0 1d 80 3f
       1.0353163 0.96387917 1.0335097 1.000906
000040 92 8a 7b 3f 07 ef 7f 3f 21 c3 83 3f 79 b8 76 3f
       0.98258317 0.999741 1.0293924 0.9637523
000050 ba 79 7c 3f ad cf 83 3f 5d 48 89 3f cf f4 75 3f
       0.9862324 1.0297753 1.0725209 0.96076673
000060 71 ef 73 3f 84 f3 7e 3f 0f c4 76 3f 56 69 77 3f
       0.95287234 0.99590325 0.9639291 0.96645105
000070 b5 67 73 3f aa 99 86 3f ec 5e 83 3f 73 ca 79 3f
       0.9508012 1.0515645 1.0263343 0.9757454

bn2.bias f4 [32]
000000 c0 aa ad bc dd 15 7c bc 52 83 41 bd c9 f0 24 bc
       -0.021199584 -0.015386072 -0.047244377 -0.010067173
000010 8d 79 87 bc c2 e5 63 bb a3 00 fd bc 7f 67 1d bd
       -0.016537452 -0.0034774397 -0.030884093 -0.03842878
000020 ee 7c 38 bd 18 98 e2 ba f8 56 f1 bb 4d 3b 4d bd
       -0.045041017 -0.0017287759 -0.007365104 -0.05010538
000030 e6 10 87 bc d3 db b8 bc 5a e3 40 3c 3c 53 e4 3b
       -0.01648755 -0.022565758 0.011772955 0.00696793
000040 33 6b 90 bb 16 b2 3a bd 56 83 03 3d 0a 7f d1 bc
       -0.0044073104 -0.045579992 0.032107674 -0.025573272
000050 d6 5e 7f bc 26 93 a7 bc a1 00 61 3d 2e 03 6a bc
       -0.0155865755 -0.020455908 0.05493224 -0.014282985
000060 cd 4e c1 bc 12 8a 04 3d 36 64 85 bc 28 91 03 bd
       -0.023597145 0.032358237 -0.016283136 -0.032120854
000070 a7 24 89 bb c5 9f 30 ba 95 64 6b bd f8 03 0d bd
       -0.0041852775 -0.00067376747 -0.05746897 -0.034427613

bn2.running_mean f4 [32]
000000 8e 77 3d bf 86 b2 c5 bf 3e 33 6c bf 3a de 5f bf
       -0.7401055 -1.5445106 -0.9226569 -0.87448466
000010 6d 60 91 bf 12 fd 81 bf 78 86 24 3e 9f 63 d3 be
       -1.1357552 -1.0155356 0.16066921 -0.41286942
000020 5c 57 9e bf 2e 43 b2 bf 25 11 38 bf b3 54 3c bf
       -1.237041 -1.3926752 -0.7190116 -0.7356674
000030 7b a3 65 bf c4 a8 05 bf e6 a0 9a bf d8 61 a7 bf
       -0.89702576 -0.5221064 -1.2080352 -1.3076735
000040 37 5b 08 bf eb f4 8a bf 90 48 2f bf 04 04 17 bf
       -0.5326418 -1.0855993 -0.68470097 -0.589905
000050 88 32 66 bf ae 10 36 bf 56 4a 49 bf 62 3e 3f bf
       -0.89920855 -0.711192 -0.7862905 -0.74704564
000060 4c 23 2e bf c3 39 5d bf 32 09 1f bf 8d a4 75 be
       -0.6802261 -0.8641626 -0.62123406 -0.23988552
000070 27 81 18 3f f8 10 2a bf e6 2a 67 bf ac 4a 47 bf
       0.5957207 -0.6643214 -0.9029983 -0.77848315

bn2.running_var f4 [32]
000000 81 2b 87 3f 2d ae 4f 40 9e 3b fe 3f 66 74 91 3f
       1.0560151 3.2450058 1.9861944 1.1363647
000010 66 9a b0 3f fa 22 d4 3f c2 17 51 3f 9b c7 55 3f
       1.3797119 1.6573174 0.81676877 0.835077
000020 f2 a6 1d 40 59 3a 24 40 b8 ef 54 3f e7 4b bf 3f
       2.4633145 2.5660613 0.8317828 1.4945039
000030 ef e3 99 3f aa 9f 45 3f 22 b2 cc 3f 0d 15 09 40
       1.2022685 0.77196753 1.5991862 2.1419098
000040 8e e4 93 3f 5d 45 c7 3f 69 c2 67 3f 14 d8 a8 3f
       1.1554124 1.5568043 0.9053102 1.3190942
000050 65 f3 e2 3f 42 75 6d 3f d6 70 84 3f 68 5a 6b 3f
       1.7730528 0.92757046 1.0346935 0.91934824
000060 ef c6 98 3f d6 b8 77 3f 93 53 b8 3f 2a 4a d7 3f
       1.193571 0.9676641 1.4400505 1.6819508
000070 3c fb 34 3f fa d0 5c 3f ae fc 04 40 a2 66 c6 3f
       0.70695853 0.8625637 2.0779223 1.5500071

conv3.weight f4 [16, 32, 5]
000000 7a 92 ad bd 9a a0 ea bd 64 c0 6d bc c7 95 5b 3d
       -0.08475204 -0.114564136 -0.0145112015 0.053609636
000010 54 69 f2 3b 72 f3 fc 3c 5f 54 db bd c7 ce 43 be
       0.00739781 0.030877803 -0.10709452 -0.19121848
000020 15 eb d3 bd 48 c4 77 bd 28 c3 3c be db 9b 27 be
       -0.10347573 -0.060489923 -0.18433821 -0.16368048
000030 c9 82 da 3d a4 1b 07 3e b2 98 cb 3d 77 e3 29 3d
       0.106694765 0.13194138 0.09941234 0.041476693
000040 a2 60 c0 bc 59 e5 0f be b4 74 92 3d 60 ab c0 3d
       -0.023483578 -0.14052333 0.071511656 0.09407687
000050 0e 60 f1 3d d2 04 43 3b 38 c6 29 bd 0d b7 a3 bd
       0.11785899 0.0029757512 -0.0414488 -0.079938985
000060 d2 bf 85 bd f0 7b 14 3e 7e 84 82 bd a1 d4 1d 3e
       -0.065307274 0.14500403 -0.06372927 0.15413143
000070 52 cb 11 3e c1 78 20 3e 1c 8f 16 be b0 7d b2 3d
       0.14237717 0.15671064 -0.1470303 0.08715379
000080 23 45 9c ba 09 07 9d 3d 30 ca 18 be 30 5f 02 be
       -0.001192246 0.076673575 -0.14920878 -0.12731624
000090 1f 09 bc bd 32 e8 45 be ed d4 4d be 1c 6c 97 bd
       -0.09181427 -0.19326857 -0.20100756 -0.07393667
0000a0 fd 5f bb bd fd ca de bd a3 ee cd 3d 92 a6 b3 3d
       -0.09149168 -0.10878561 0.10055282 0.08772005
0000b0 5b e9 ea 3d 9e 29 cf 3a df 9b 03 3e 7f a4 14 bd
       0.1147029 0.001580525 0.12852429 -0.03628969
0000c0 cb 68 d2 bd fa ef cd 3d 03 d3 99 3c 7d be 09 bc
       -0.10273894 0.100555375 0.018777376 -0.008407232
0000d0 0d 7d db bd da bb 60 bd 14 3d 7e bc c4 be a3 3d
       -0.10717211 -0.05486665 -0.015517492 0.0799537
0000e0 dd e3 02 3e 8b 59 55 bd 55 9e 9b 3d 1b 28 9b bd
       0.12782235 -0.052087348 0.07598559 -0.07576009
0000f0 39 aa 95 bd b9 06 be bd 80 87 ca bd 31 7f 9a bd
       -0.07307858 -0.09278626 -0.09889126 -0.07543791
000100 b1 f9 87 3d db 7f 57 bd 4b 75 6f 3d 9e 1f 1b be
       0.06639422 -0.052612167 0.05846147 -0.1514878
000110 9e 6c 17 3d 21 69 42 bd 14 20 73 bd 5b d9 c3 bc
       0.03696882 -0.04746354 -0.059356764 -0.023907354
000120 cb be 12 be 2e ba 0a bd e8 5c 05 3c 3a 88 9d 3d
       -0.14330594 -0.03386896 0.008139826 0.07691999
000130 0e 26 ab bd 9c c6 5e bd 27 63 fc bd 34 ff fe bd
       -0.08356868 -0.054388627 -0.12323599 -0.1245102
000140 7e 2c 91 3b 91 fd 07 be 4a 8b 1f be 81 17 50 bd
       0.0044303527 -0.13280322 -0.15580478 -0.050803665
000150 fe 99 25 3d 11 ab 19 3d 85 02 f3 3d bb f8 f5 3d
       0.04043006 0.037516657 0.11865715 0.12010332
000160 25 9f ce 3d 49 f3 b5 bd 58 85 0c 3e 9b 6d ea 3d
       0.10088948 -0.088842936 0.13722742 0.11446687
000170 f3 1f 85 3d a0 f2 99 3d d4 b0 42 3e 00 a4 2f bd
       0.065002345 0.0751698 0.19012767 -0.042881012
000180 74 fd a6 3b 83 d8 3c bc 86 6f b2 3c 62 95 d5 3c
       0.005096132 -0.01152623 0.021781694 0.026072208
000190 87 f3 0d 3e 64 69 cb 3d 88 52 05 bd 8f 54 4f 3d
       0.1386243 0.09932211 -0.03254941 0.05061775
0001a0 66 2b 04 3d 0c 39 2d 3d e4 d1 ac bd fa 01 a9 bd
       0.03226795 0.042290732 -0.08438471 -0.0825233
0001b0 cb 0c 12 bc 2b a6 a0 bc f9 cc e6 bd 5e bc b6 bc
       -0.008914183 -0.019610485 -0.11269564 -0.022306617
0001c0 76 71 c3 bd 0e 15 f0 bd 64 e5 bf 3d 90 77 9b 3d
       -0.09543125 -0.11722766 0.09369925 0.07591164
0001d0 db d9 97 bd 3e 18 71 bd 39 50 fc 3c 88 fa 65 38
       -0.074145995 -0.05886101 0.030799972 5.483118e-05
0001e0 43 38 0a be 18 ea 85 bd 19 0d 4f bd 86 c2 ff 3d
       -0.13498025 -0.065387905 -0.0505496 0.12488274
0001f0 16 9f 0e be 44 82 c9 bd 89 99 8a 3d 2c 95 d4 3d
       -0.13927874 -0.09839299 0.06767566 0.10380015
000200 29 bb 64 bd 53 a0 75 3d 94 93 91 bb 27 7c 04 3e
       -0.055842552 0.05996735 -0.0044426415 0.12937985
000210 2e 12 99 bd 71 b4 f0 3d 6e d8 55 bd 14 1e 90 3c
       -0.074741706 0.117531665 -0.052208357 0.017592467
000220 e2 c9 70 3c c0 22 66 3d 52 7e 30 be 62 3e 98 3c
       0.01469657 0.056185484 -0.17235687 0.018584434
000230 cb ad 9d 3d 35 b2 ad 3d 4f 50 95 3b c4 63 f6 3b
       0.07699164 0.08481256 0.0045566927 0.007519217
000240 64 1f d2 bd 3d fa 0c be 45 07 b1 bc a5 2f b4 bd
       -0.102598935 -0.13767333 -0.021609912 -0.0879815
000250 8c e3 c6 3d 4a 7c 21 bd c3 2d f6 bc f4 1d fb bd
       0.0971137 -0.039425172 -0.030051118 -0.122615725
000260 39 01 06 be 91 a4 c7 3d bc d0 29 3e 9d ab e4 3d
       -0.13086404 0.097481854 0.16583532 0.11165545
000270 a2 6b cf bd 5d 11 d5 bc 90 26 03 3d 41 85 f3 3d
       -0.10127951 -0.026009256 0.032019198 0.118906505
000280 40 3f 07 3e df 32 25 3e 59 96 e0 3b 5b 86 1f 3d
       0.13207722 0.16132687 0.0068538603 0.03894649
000290 d7 32 9d bc 31 47 0e 3b 6c d5 31 3d d5 80 8d bd
       -0.019189281 0.0021709914 0.043416426 -0.069093384
0002a0 91 b8 44 3e 83 7e 92 3d af dd 37 3d 73 23 1b 3e
       0.19211031 0.071530364 0.04488915 0.15150242
0002b0 57 52 c8 3d 1f 0a d3 3d 31 a1 7a bd bf be ee 3d
       0.0978133 0.10304665 -0.06118888 0.11657476
0002c0 b4 74 a3 3c 5e 12 a7 bb cc 94 18 be 1a 55 0d 3e
       0.01995311 -0.005098625 -0.14900512 0.13801995
0002d0 25 63 f7 bc 26 ea 08 be e0 32 8a bd 81 6a b6 3d
       -0.030198643 -0.1337057 -0.06747985 0.08907033
0002e0 85 1a 25 bd fe ca a9 bd ae dc 29 bc 59 a7 b6 3d
       -0.040308494 -0.08290671 -0.010367556 0.08918638
0002f0 f6 1e e2 bd fb 8d 49 3d c1 ab e3 3c e7 f4 ae bc
       -0.110410616 0.04920767 0.02779186 -0.021357013
000300 7a 3f f2 3d cd 25 f0 bd 4a 1d 03 be dc 65 89 bd
       0.118285134 -0.1172596 -0.12804142 -0.06708881
000310 6a f5 a9 bd 12 95 88 bd 0e 5d 17 be 70 61 38 be
       -0.08298762 -0.06669058 -0.14781591 -0.1800592
000320 9c 30 34 3e c4 1d fd bd 19 e2 84 3d 1f 4c eb bd
       0.17596668 -0.12359193 0.06488437 -0.11489128
000330 53 92 3a 3c 5a 34 38 3d 41 71 ec 3c e4 eb 43 3e
       0.0113874255 0.0449718 0.028862597 0.19132954
000340 c1 2e f5 3d 1b 4b 0b 3e 40 04 bd bd 85 91 c4 3d
       0.11971808 0.13602869 -0.09229326 0.09598068
000350 51 cc 41 3e 2b 78 01 3d 60 4d e5 3d 8e f3 78 3d
       0.18925597 0.03160874 0.11196399 0.060779147
000360 19 ab 13 bd d5 b1 d3 bd df f1 dc bd 3c e4 d5 bd
       -0.036051843 -0.10336653 -0.10788321 -0.10443923
000370 2b 12 99 bc 9c 87 12 3d fd 16 e4 3d 2f bc 09 bc
       -0.018685421 0.03577386 0.11137197 -0.008406683
000380 19 ad 43 3e 16 4b 00 3d 36 fe 00 bd 6c d5 7e bc
       0.19109 0.031321608 -0.031492434 -0.015553813
000390 92 1c 89 bd 49 f8 2e 3e 87 e9 d3 bd 0c 7b 74 bd
       -0.066949025 0.17086901 -0.10347276 -0.05968766
0003a0 96 12 2f be c1 01 25 3c 8a 9b 60 bd ea bc 1a be
       -0.17096934 0.010071219 -0.054835834 -0.15111127
0003b0 de 0f a2 3c 76 fe b2 bc a7 fd f0 3d af a1 da 3d
       0.019782957 -0.021849852 0.1176713 0.1067537
0003c0 70 fa 97 bc 22 16 14 3e d5 29 91 3d cc 26 61 3d
       -0.018552035 0.14461568 0.07088057 0.05496864
0003d0 89 0e 15 3e e5 0d 22 3e 90 e5 d0 bd ef 0c 81 3d
       0.14556326 0.15825613 -0.102000356 0.06301295
0003e0 46 b7 95 3d ca 44 af bd 79 6b 0f 3d 2d d1 ce bc
       0.07310347 -0.08558042 0.035014603 -0.025246227
0003f0 84 cb 22 3e 20 a9 a5 bd d9 d4 ac 3d bb 33 4b bd
       0.15897948 -0.08088899 0.08439035 -0.04960988

conv3.bias f4 [16]
000000 8d 6d 1f 3c ee 0c dc 3b 6f 78 29 3c d4 ca 12 3c
       0.009730709 0.0067154085 0.010343655 0.008959491
000010 11 9b 3e 3b 44 61 40 bb 95 4f 12 3c 3e 21 ad ba
       0.0029084126 -0.002935485 0.008930107 -0.001320876
000020 31 cc 53 bb 98 7e 45 3c 58 18 fd 3a 54 77 1b 39
       -0.0032317752 0.012054108 0.0019309623 0.00014826405
000030 ed e6 15 3c 4a 80 20 bc b8 b1 31 3c 2f 8c c4 3b
       0.009149295 -0.0097962115 0.010845594 0.0059981565

bn3.weight f4 [16]
000000 10 62 8f 3f 9e 73 87 3f 71 71 82 3f e1 79 8f 3f
       1.1201801 1.0582159 1.019087 1.120907
000010 97 99 8d 3f 87 d9 8f 3f 71 0e 87 3f 2d 70 87 3f
       1.1062497 1.1238259 1.0551282 1.0581108
000020 b5 27 87 3f 55 e5 86 3f 4e 10 93 3f f8 61 8a 3f
       1.0558993 1.0538737 1.1489351 1.0811148
000030 a0 1e 8a 3f 1c a9 93 3f 77 3c 8f 3f 6b 21 89 3f
       1.0790596 1.1535983 1.1190327 1.0713323

bn3.bias f4 [16]
000000 65 d7 83 3d 4e 65 2a 3d 92 1a 2e 3c 7c 54 30 3d
       0.064375676 0.041600518 0.010626452 0.04304932
000010 f0 1f 10 3d c6 fc 07 3d 37 30 06 3d 01 58 0f 3c
       0.035186708 0.033200048 0.032760825 0.008749009
000020 71 c3 cd 3c 63 20 3a 3d 19 f3 8b 3d 74 76 e7 3b
       0.025117608 0.045441043 0.068334766 0.0070636813
000030 4c 40 0d 3c 7e 52 4d 3d 39 e8 5f 3d 36 a2 62 3c
       0.008621287 0.0501275 0.054664824 0.013832619

bn3.running_mean f4 [16]
000000 d3 99 d3 be da 8e fd 3e 88 e3 16 bf dc c5 05 bf
       -0.41328296 0.4952305 -0.58940935 -0.52255034
000010 7e 89 24 bf 6c 6b cf be 8b 5d 46 bf a2 c8 47 be
       -0.64272296 -0.40511644 -0.77486485 -0.19510129
000020 15 bd df be 92 60 3a 3e 8f 58 eb be a5 e8 95 3e
       -0.43698946 0.18200901 -0.45966002 0.29279056
000030 50 8f 58 bf e2 59 f5 be eb e8 29 bf a1 5a 0a bf
       -0.8459368 -0.47920138 -0.6637103 -0.5404454

bn3.running_var f4 [16]
000000 45 58 03 3f e3 c9 16 3f b7 b1 07 3f 30 7e a8 3e
       0.51306564 0.58901805 0.53005546 0.32908773
000010 eb 65 df 3e 09 41 b8 3e 7f da af 3e 29 85 d9 3e
       0.43632445 0.35987118 0.34346387 0.42484406
000020 74 e0 e9 3e 22 bc d0 3e 93 ba b8 3e fc ae ba 3e
       0.45679057 0.40768534 0.36079845 0.36461627
000030 35 b2 bb 3e cb 16 bd 3e 39 60 b5 3e 27 85 d7 3e
       0.366594 0.36931452 0.35424975 0.42093775

output_layer.weight f4 [11, 3008]
000000 13 70 60 bc 8c 3e 80 3c a9 20 9b bc 7d 18 9d bd
       -0.013698596 0.015654825 -0.018936472 -0.076706864
000010 a3 ed b1 bd 8f 3d 8b bd a5 26 29 bd 41 8c 97 bd
       -0.08687904 -0.06798851 -0.04129662 -0.07399798
000020 6e 7d 4b bd e3 6c 21 3d 21 31 e3 bc 9d d3 61 bb
       -0.049680166 0.039410483 -0.027733387 -0.0034458407
000030 9f 52 fa bc 4e 72 1a 3c 38 9d c1 bc e9 15 72 3c
       -0.030556975 0.009426666 -0.023634538 0.014775732
000040 a9 cf 4d bd e6 19 9e bd 10 a3 57 bd ce 28 8d bd
       -0.05024687 -0.077197835 -0.052645743 -0.068925485
000050 96 68 f2 bb 9b bc 7b bd 55 d6 3f bd 84 14 a4 bd
       -0.0073977215 -0.061459165 -0.046835262 -0.080117255
000060 f1 35 74 bd d9 16 28 bd da 34 d1 bd b0 78 97 bd
       -0.059621755 -0.041037414 -0.10215159 -0.07396066
000070 98 55 e6 bd 12 57 22 bd 00 0c 9f bd 37 e2 38 bd
       -0.112467945 -0.039633818 -0.07765961 -0.04513761
000080 bd 02 a6 bd 5e ed 76 bd f4 35 27 bd a8 13 ba bd
       -0.08105991 -0.060284965 -0.040822938 -0.090857804
000090 8d c1 fc bd 87 b4 0a bd ce 10 a9 bd 1e 1a b3 bd
       -0.123416044 -0.03386357 -0.08255158 -0.08745216
0000a0 6c 5d 52 bd 9c 37 b1 bd d8 94 9a bd f7 42 24 bd
       -0.051358625 -0.08653185 -0.07547921 -0.040102925
0000b0 94 bd 83 bc 07 3d a1 bb eb f1 59 bd 9d 3b 86 bd
       -0.016081609 -0.004920605 -0.053209227 -0.06554339
0000c0 31 61 18 bd 77 44 e6 bd 9e 28 2d bd 8b a5 dd bd
       -0.037202064 -0.112435274 -0.042275064 -0.108225904
0000d0 05 41 f3 bc a6 24 5b bd f0 de 68 bd f4 11 20 bc
       -0.02969409 -0.053501748 -0.056853235 -0.009769905
0000e0 17 50 b0 bd b0 85 81 bd 12 6f 3d bd d0 87 31 bd
       -0.08609026 -0.06324327 -0.046248503 -0.04334241
0000f0 79 48 ab 3b aa 84 a0 3c 6e 02 56 bd 3e 69 d3 bd
       0.0052271453 0.01959451 -0.05224841 -0.10322808
000100 fb c4 b1 bd 4f a3 77 bb 7f 65 d3 bc 54 44 15 bd
       -0.08680149 -0.0037786548 -0.025805233 -0.036442116
000110 4f 24 5b bd a9 39 98 bd 0a f5 5c bc 88 43 96 bd
       -0.053501423 -0.07432873 -0.013486156 -0.07337099
000120 37 24 5b bd 35 19 a9 bc 2a 33 84 bd 63 81 81 bd
       -0.053501334 -0.020641902 -0.06455071 -0.06323507
000130 bf f9 37 bd 5b c8 27 bd c6 7a a0 3c ab eb 24 3c
       -0.04491591 -0.04096256 0.019589793 0.010065953
000140 f6 fb cf bc 27 15 20 3b cc 06 b8 bb 60 0b 33 bd
       -0.025388699 0.002442667 -0.0056160446 -0.04371202
000150 b6 da a4 bb 70 f8 d6 bc 7d 7a 99 bd e0 56 ae bc
       -0.005030955 -0.026241511 -0.07494066 -0.02128166
000160 bb 9d 90 bd 76 78 87 bd 16 2a 5f bd bd b4 4c bd
       -0.07061335 -0.06614773 -0.054483496 -0.049977053
000170 71 4d 85 bc ad f6 3a bd 2d 65 99 bd 46 79 b1 bc
       -0.016272279 -0.045645405 -0.07490001 -0.021664273
000180 3a 2e 4a bd 7d 4a d2 bd 87 3f 27 bd 57 a1 70 bd
       -0.04936049 -0.10268114 -0.04083207 -0.058747616
000190 94 c3 7c bd 97 0e f8 bc ca 04 cd bc 88 17 e9 bd
       -0.061709955 -0.030280394 -0.025026698 -0.11381441
0001a0 1e bb 9c bd a2 57 59 bd 6c e4 8d bd 4a 80 29 bd
       -0.07652877 -0.05306209 -0.06928334 -0.04138211
0001b0 c9 8d 3c bd 26 0a 5c bc 59 04 9d 3c 41 1f 56 bb
       -0.046033654 -0.013430154 0.019167112 -0.0032672437
0001c0 6b 57 26 3d dd a6 f5 3c 04 14 12 ba 76 14 41 bb
       0.040610712 0.029986793 -0.00055724406 -0.0029461659
0001d0 8b 69 a5 bd ab d7 1a bd 41 31 c5 bd c0 54 c9 bd
       -0.08076771 -0.037803333 -0.09628535 -0.09830618
0001e0 1f 93 e0 bd 5b 24 b0 bd 43 70 6f bd 74 05 2a bd
       -0.10965561 -0.08600684 -0.05845667 -0.041509107
0001f0 a1 dd 84 bd 83 78 be bd 9e 46 9d bd f1 c4 b8 bd
       -0.06487585 -0.093003295 -0.07679485 -0.090219386
000200 77 0e 99 bd ba d0 76 bd 61 ec 4b bd dd b7 18 bd
       -0.07473462 -0.06025765 -0.049785975 -0.03728472
000210 35 38 3a bd e7 db 6c 3b 3d 2d 25 bd 65 57 8a bd
       -0.04546376 0.0036141814 -0.040326346 -0.067549504
000220 ab fc 2c bd 11 42 73 bd 1a d2 8b 3c 9e fb 71 bd
       -0.04223315 -0.059389178 0.017067958 -0.05907785
000230 45 51 89 bc 5e 6e 3a bc f3 f1 1e bd 45 85 83 3c
       -0.016762385 -0.011378853 -0.03880496 0.016054759
000240 d0 97 6c bd 16 9c 1d bd 4b f3 85 bd 4b cc 31 bd
       -0.057761967 -0.038478933 -0.06540545 -0.04340772
000250 aa 4f ad bb a8 94 2f bd d3 69 81 bd 7e b6 af bd
       -0.0052890377 -0.04286638 -0.063190125 -0.085797295
000260 06 ce 55 bd 7f 27 4f 3b 52 f4 b9 bc fd 63 9c bd
       -0.052198432 0.0031609235 -0.022699509 -0.07636259
000270 f0 8c 37 bc e5 6c 69 3c b5 2f 1d 3c 66 43 a7 bd
       -0.011203036 0.014247154 0.009593894 -0.08167152
000280 e8 05 af bd 36 a3 5c bd 8c 9b a4 bd a6 c3 5a bd
       -0.085460484 -0.053866588 -0.08037481 -0.05340924
000290 b0 ac bb bd 9f bf 83 bd 4b 64 bc bd 9f f2 f6 bd
       -0.09163797 -0.06433033 -0.09198817 -0.12057995
0002a0 2a d4 ca bd bb c4 62 bd 87 46 3e bd e1 f1 a1 bd
       -0.09903748 -0.055363398 -0.04645398 -0.07907463
0002b0 c2 a3 bf bd 41 1d 22 bc 83 65 a5 bd 65 7b 7b bd
       -0.09357406 -0.00989467 -0.080760024 -0.061396975
0002c0 c7 da 64 bc ef 3b 85 bd 44 7d d1 bc 5e de 9e bd
       -0.013968176 -0.06505572 -0.025572427 -0.07757257
0002d0 45 4d 8f bd dc e6 6b bc d8 7b 04 bd 9e 87 7b bd
       -0.0699716 -0.014398303 -0.03234467 -0.06140863
0002e0 c0 f8 a6 bd d0 21 79 bc 9c 76 ab bd bf ac 0f bd
       -0.08152914 -0.015205815 -0.08372232 -0.035076853
0002f0 c0 60 94 3d c6 af ac 3d 1b 62 b3 3d 1c 99 b0 3d
       0.07245016 0.084319636 0.087589465 0.08622953
000300 3e c8 e7 3b 71 e1 7f 3d c8 d7 0f 3c 0b fa 87 3c
       0.0070734313 0.062470857 0.008779474 0.016598722
000310 4a a4 7e 3d 0b 88 a4 3d 7e 61 1e 3d 7c a3 a1 3c
       0.062168397 0.08033761 0.038667195 0.019731276
000320 d3 f7 a9 3d d3 54 36 3d 79 a3 44 3d d0 af f4 3c
       0.08299222 0.04451449 0.048007462 0.02986899
000330 f2 d2 dc 3c 09 c8 fc 3c 3f 24 9d 3d 45 98 28 3d
       0.026956055 0.030857103 0.07672929 0.04116084
000340 92 eb 47 3d 43 97 2b bc b9 0b bf 3c c6 6a 5c 3d
       0.04880864 -0.010473075 0.02332102 0.053812765
000350 a9 fc 98 3c f7 f1 08 3d 78 4f 51 3d 1f 87 1d 3d
       0.018675165 0.03343388 0.051101178 0.03845894
000360 01 a7 3f 3c 68 12 a1 3d a8 18 cc 3c fe 58 f4 3c
       0.011697532 0.07864839 0.0249141 0.029827591
000370 67 78 8d 3c 6e 12 8a 3c 09 6d 43 3d 5b f9 8a 3d
       0.017269326 0.016854491 0.047711406 0.06785842
000380 09 4f 81 3d 20 dc 9f 3d 3d b5 ab 3d c8 2b 93 3d
       0.06313903 0.078056574 0.08384178 0.07186085
000390 4b 33 8d 3d d3 4f aa 3b 31 db 3e 3d 67 8e 8b bc
       0.06894549 0.005197504 0.046595756 -0.017035676
0003a0 36 8e 31 3d 59 6e 8a 3d 32 e7 25 3c 5a 5b 28 3d
       0.043348514 0.067593284 0.010125922 0.041102745
0003b0 be 06 8c 3c c9 96 08 3b 68 14 10 3d 73 b8 ae 3d
       0.017093059 0.0020841828 0.03517571 0.08531275
0003c0 e2 ca 1b 3d 1f 1d 50 3d 1c 1d 7d 3c f0 bb a1 3d
       0.03803528 0.050809022 0.015448835 0.07897174
0003d0 d3 7e 16 3a 06 55 d6 3c cd 2d 17 3d 94 cc 92 3d
       0.0005740944 0.02616359 0.036908913 0.071679264
0003e0 65 87 2b 3c 83 97 35 3d c9 74 24 3d 0c 96 77 3c
       0.010469292 0.044333946 0.040150438 0.015111458
0003f0 f9 ed 94 3d b1 8e 41 3d 2e 06 61 3d 39 6b 94 3d
       0.07271952 0.04725522 0.054937534 0.072470136

output_layer.bias f4 [11]
000000 0e e9 12 3c 37 b4 1d bc d6 6f 1e bb 12 a3 15 bc
       0.008966697 -0.009625486 -0.0024175546 -0.009133117
000010 67 4f aa bc 54 b0 69 3c 3e e3 ad 3c 5a 6b e4 3b
       -0.020789815 0.014263231 0.021226522 0.006970805
000020 4f 0c 38 3b 36 b5 9f bb b7 7b 8b 3c
       0.0028083508 -0.004873897 0.017026765
