libemg_3dc/split_by_samples/checkpoints/subjects=22,num_epochs=20,batch_size=64,Adam(learning_rate=0.001,weight_decay=0),CosineAnnealingLR(T_max=20, eta_min=1e-05).pt (torch, 210893 bytes, 20 tensors)

conv1.weight f4 [64, 10, 5]
00000000: 010b cfbc be3f 663c b34c 9ebc 0573 eb3d
00000010: b9b1 9bbd 3c0c b93d 5fd9 80bd 8b67 61bd
00000020: a03d 35bd 1219 923d 65a0 6fbb 9094 eb3d
00000030: 71b1 b8bd 7201 c7bd 74ba 17bd 9948 b9bd
00000040: 19b8 f0bd fb8a 8c3d 6153 c4bd 57a2 99bb
00000050: 39c9 423c ab67 b9bc 9bcc 3f3d 210a e83d
00000060: f820 86bd 621a 7e3c 95ec 8ebd 3c7e c33d
00000070: 83ab e13d 2bbb cabd 8c6e 1a3e d612 c63d
00000080: 3e4e b13d f676 bb3d de24 173e b0d9 2f3c
00000090: 216d a4bd 84a5 b9bc e0a2 91bd 5376 103c
000000a0: 2b8e e13c 1f14 00bd c15c 083d 0b55 203e
000000b0: d8e6 b8bc 169c 083d 796d 88ba af34 9d3d
000000c0: c2d7 3a3e 79a3 c83d 7464 a6bb 63e9 253d
000000d0: 25ac 953d f964 163d 08a3 8dbd 42c8 77bd
000000e0: 0a22 1fbd 5597 093e 24fd 543c 9698 b0bd
000000f0: 1792 803d 1bd3 243e ef3a cfbd fde2 b0bd
00000100: 1c97 f43c 88fd 833d 3980 d23c 3712 96bd
00000110: a91d 66be f2e2 163e 420f 363e cf9d df3d
00000120: 7c34 1ebe 314f 10be e303 3c3e 7542 4a3d
00000130: 8295 853d 9633 05be bf7e ea3c 36d1 2e3e
00000140: fcf9 0f3e eff3 74bb f0e2 683c baeb 093c
00000150: 6675 27bd dcac 1ebd 8a99 e9bd 58b0 993d
00000160: 66ab a53d 8bd7 e53c a9ba adbd 9640 2f3b
00000170: e37a 463c 6df9 913d 188e c0bc 348e 4dbd
00000180: 0c7a 973d 27ff af3d dfa2 8f3d b03b adbd
00000190: 5d7e 0b3e 4aea 7ebd ec7e a5bc 94bf 1fbe
000001a0: 17c8 8cbd 4e3b bebb 1d07 8bbb c456 4c3d
000001b0: 51b7 3abc 9efe 41bd 45bb d53d 749d a0bd
000001c0: b22d e9bc be3c 9bbd 1c37 7fbc 6883 6a3d
000001d0: 2e41 cbbd abe5 cebc 67f8 863b 1d73 0b3e
000001e0: c548 01bd 7255 113d 4a4f 0a3e c961 593c
000001f0: 14d6 713e 8cc8 85bd b51e 843d 4524 e43d
00000200: e613 003e 5662 263e 96b1 d8bc 7650 a2b9
00000210: 4410 f4ba d9a0 46bd a5fc 493c c85f fdbd
00000220: c9db 203d 57ad 203d c105 6e3d 28e5 2abb
00000230: 5e0c debb 2659 1fbd 65b2 ad3c 43e1 dd3d
00000240: 6ba0 84ba ad5f 35bd bde0 3dbd e1dd e43c
00000250: f928 c8bd 21df d2bd 054c 8f3b 1116 edba
00000260: fa23 0bbd 1894 1d3d 490f 43bc b71b f63d
00000270: 07f2 35bd ee04 54bc 1e88 fcbd 7212 e53d
00000280: 5482 383d fd69 bf3d 10ca 69be abbe b4bc
00000290: 314c 633d d1e5 173e b9cb 2b3d 6c25 d73d
000002a0: abbe b63d 6027 853d 6419 373c 280e b6bd
000002b0: 2cfb c83c 8771 613d 5d8e a8bd f457 f2bd
000002c0: d2d3 12be 4923 02bc 7ca7 e03d 7a57 47bd
000002d0: 8a61 77bd 4387 173d 81ce 263e 2dd8 a1bd
000002e0: 0218 0ebe 0f82 03be 97d2 b6bd 4940 f33d
000002f0: a210 ab3d 15e7 1dbe 0268 87bd 8bd8 6fbd
00000300: 99a2 ec3d 4f09 bd3d 0033 d4bd f9b3 4ebd
00000310: d070 1b3d 5b01 bbbd f5fa ae3d 89f7 68bc
00000320: 1da7 7abd cf30 1c3d 710b ab3d fbcc b3bd
00000330: e377 32be d85b 8d3b 1866 d73c 0154 2c3c
00000340: 910e 64bd 85b7 043d efbe 18bd f2f8 373c
00000350: 3a67 963d 5df8 f5bd b2fa a7bc 84b9 59bc
00000360: 1500 8e3d 8fea bdbd 061e 24bc 5b06 2b3d
00000370: 47af 66bd 7d3b 03bd 9195 343d 882d 99bd
00000380: 31a2 4d3d 9473 c4bd 18c0 6ebc 8de8 c2bd
00000390: 299e 9b3c 3285 4bba 0482 a33a 00a5 8abb
000003a0: f81c b7bd cacf c53c 42b7 bd3c ba42 00be
000003b0: e899 68bb 4743 85bc 9ae2 2ebd 4a49 293e
000003c0: 5114 513d 9c77 6dbc 61d1 8abd f438 213d
000003d0: 5e93 143e 551e d53d b29d 79bd ae1c 2abd
000003e0: 30c3 a53d 6615 a53c 517f 7f3d ad08 8fbd
000003f0: 1695 bf3d 2233 0abe 9447 57bd 653a c23c
-0.025273802 0.014053283 -0.019323682 0.114965476 -0.07602257 0.09035537 -0.0629146 -0.055030387
-0.044248223 0.07133688 -0.0036564108 0.115029454 -0.09018219 -0.097170725 -0.03704305 -0.0904705
-0.11753864 0.06862446 -0.09586216 -0.004688542 0.0118887955 -0.02263244 0.046825986 0.11330057
-0.06549257 0.01550922 -0.06978718 0.09545562 0.110190414 -0.09898981 0.15081233 0.096715614
0.08657502 0.091535494 0.14760157 0.010733053 -0.08028627 -0.022661932 -0.07111144 0.008817273
0.027533611 -0.03126919 0.033291582 0.15657441 -0.022571012 0.03335198 -0.0010408602 0.07676064
0.18246368 0.09796805 -0.005077893 0.040505778 0.073082246 0.03671739 -0.06915861 -0.060493715
-0.03885082 0.13436635 0.012999807 -0.086228535 0.062778644 0.16096155 -0.101186626 -0.086370446
0.02985721 0.064448416 0.025695907 -0.07327693 -0.22472252 0.1473501 0.17779258 0.109187715
-0.15449709 -0.14092709 0.18360858 0.049379785 0.06522657 -0.1300796 0.02862489 0.17071995
0.14060205 -0.003737684 0.014214262 0.008418018 -0.040883444 -0.03873907 -0.114062384 0.07504338
0.08089332 0.02805688 -0.08482868 0.0026741377 0.012114259 0.07127652 -0.023505256 -0.050184444
0.073963255 0.08593588 0.07013487 -0.0845865 0.13622423 -0.062235154 -0.020202123 -0.15600425
-0.068741016 -0.0058054095 -0.0042427913 0.049887434 -0.011396245 -0.047361962 0.104361095 -0.07842532
-0.028464172 -0.07579945 -0.015577104 0.057254225 -0.099245414 -0.025255999 0.0041189673 0.13618131
-0.03156354 0.035481878 0.13506809 0.013267943 0.2361682 -0.06532392 0.064511694 0.1113973
0.1250759 0.1624845 -0.026451867 -0.00030958996 -0.001862057 -0.04849324 0.012328302 -0.123717844
0.039272103 0.03922781 0.058110956 -0.002607653 -0.0067763766 -0.038903378 0.02120323 0.10833981
-0.0010118609 -0.044280697 -0.046356905 0.027937831 -0.0977344 -0.10296465 0.004373076 -0.0018088241
-0.033969857 0.03847131 -0.0119055 0.12017005 -0.04442027 -0.012940628 -0.1233065 0.11185159
0.045046166 0.093463875 -0.22830987 -0.022063574 0.055492584 0.14833762 0.041942332 0.105051845
0.08923086 0.06501651 0.011175487 -0.08889419 0.02453383 0.05503991 -0.08230279 -0.11833182
-0.14338616 -0.007942983 0.10969445 -0.04866741 -0.060395755 0.03699423 0.16289712 -0.079025604
-0.13876346 -0.12842582 -0.089268856 0.11877496 0.08352782 -0.15420182 -0.06611635 -0.05855612
0.115544505 0.09230291 -0.1036129 -0.050464604 0.037949383 -0.09131118 0.0854396 -0.014219173
-0.061194528 0.038132485 0.08351792 -0.08779331 -0.17428546 0.004313927 0.0262938 0.010518075
-0.055677954 0.03240158 -0.037291463 0.011228787 0.07343908 -0.12010262 -0.020505283 -0.013288859
0.069336094 -0.09273254 -0.010016924 0.041754108 -0.0563195 -0.032039154 0.04408795 -0.074793875
0.050203506 -0.09592357 -0.014572166 -0.09517012 0.018996315 -0.0007763683 0.0012474661 -0.0042310953
-0.08941072 0.024146933 0.023158673 -0.12525454 -0.0035492126 -0.016267432 -0.042696573 0.16531864
0.051044766 -0.014493849 -0.06778217 0.039360955 0.14509341 0.10406176 -0.060941406 -0.041531257
0.0809387 0.020151805 0.062377278 -0.06984077 0.09354608 -0.13496068 -0.052558497 0.023709485

conv1.bias f4 [64]
00000000: c3ee dd36 305b 8e37 ec48 bbb7 b2ca 6ab7
00000010: 2a3f dab7 6473 6b37 f0ce 9632 fbe8 8936
00000020: 517b 8438 7632 6538 66ee ffb7 39f6 8c37
00000030: 2b7f c936 b704 7ab8 d90c dc37 b243 fa36
00000040: e626 3037 d430 9f37 6499 b2b7 459a 7937
00000050: 0083 9ab7 39ff 3737 ed39 8cb8 0c42 3238
00000060: 8c98 28b7 e5f9 0038 cd15 5938 431b 88b7
00000070: 3827 99b7 bfcb a2b6 03a0 2f37 f257 8e37
00000080: 0582 d037 f196 06b6 acd0 93b6 c072 91b6
00000090: 220d 72b8 28bd a5b6 3362 d536 5e33 c835
000000a0: d112 fa36 803d e4b6 a2bd 0a37 6fcb e7b7
000000b0: fcb4 01b8 a686 9eb6 1ca2 fab7 0960 a4b4
000000c0: 9930 83b8 0c8c 1738 4d4e d7b6 1bc5 5ab7
000000d0: 74cb 16b7 d878 4bb8 06fb feb7 7043 9ab7
000000e0: 712d 40b7 2975 d5b7 7051 1d38 f7d2 dcb6
000000f0: 30f7 a137 2557 dbb7 3e16 c3b7 3d99 ecb7
6.6141088e-06 1.6970182e-05 -2.2326094e-05 -1.3994681e-05 -2.6017038e-05 1.4033958e-05 1.7556403e-08 4.1100407e-06
6.31722e-05 5.464485e-05 -3.0509382e-05 1.6803957e-05 6.005071e-06 -5.9609036e-05 2.6232026e-05 7.4584614e-06
1.0499474e-05 1.8977014e-05 -2.1290682e-05 1.4877475e-05 -1.8419232e-05 1.0967074e-05 -6.68651e-05 4.2500018e-05
-1.0049098e-05 3.075031e-05 5.1757135e-05 -1.6225158e-05 -1.8257284e-05 -4.8516954e-06 1.04680685e-05 1.6968672e-05
2.4856077e-05 -2.0055415e-06 -4.405234e-06 -4.3346954e-06 -5.7709527e-05 -4.939404e-06 6.3593266e-06 1.4916111e-06
7.452771e-06 -6.802089e-06 8.269593e-06 -2.7632077e-05 -3.092455e-05 -4.724442e-06 -2.987781e-05 -3.0617255e-07
-6.255619e-05 3.6131634e-05 -6.4166147e-06 -1.3039705e-05 -8.988067e-06 -4.8511516e-05 -3.0396051e-05 -1.8389634e-05
-1.1454672e-05 -2.5446136e-05 3.750756e-05 -6.5810705e-06 1.9307801e-05 -2.6147414e-05 -2.3256169e-05 -2.820475e-05

bn1.weight f4 [64]
00000000: 636d 803f 1c30 823f 2c45 7b3f 98cb 883f
00000010: b1c4 773f f860 833f 1e9e 833f ceb7 773f
00000020: fd6e 833f 9f74 7e3f 0b6e 823f c240 833f
00000030: 3872 873f 488f 713f b6b5 783f cd17 793f
00000040: 2cad 6d3f 851d 813f b6b8 813f 7581 7d3f
00000050: 6690 813f 7041 823f 473c 823f 7c65 893f
00000060: 848f 7a3f e91c 803f d632 823f f869 6f3f
00000070: d17f 7b3f 2ebc 7b3f c303 813f 8f38 753f
00000080: bd67 773f 6cd1 7a3f 2374 7e3f 00a8 853f
00000090: 3197 853f e152 833f 4ebb 813f cc53 7d3f
000000a0: f9d7 813f 66b6 753f 57ab 803f 990c 7d3f
000000b0: e385 7d3f 75e0 733f 6fad 803f fbfc 803f
000000c0: 103e 7f3f a6b4 773f 8bd0 703f bcbe 823f
000000d0: 1c60 763f 7ba6 7b3f 51f1 7c3f dbeb 7e3f
000000e0: 37b7 7d3f 9977 7d3f cd6b 863f da5c 823f
000000f0: a375 853f 36da 783f 01f1 6e3f 3762 853f
1.0033382 1.0170932 0.9815242 1.0687132 0.967845 1.0263968 1.0282629 0.9676484
1.0268246 0.993967 1.0189832 1.0254138 1.0581732 0.94359255 0.9715227 0.9730194
0.92842364 1.0087134 1.0134494 0.9902566 1.0122192 1.017622 1.0174645 1.0734096
0.9787524 1.0008823 1.0171764 0.9352107 0.9824191 0.98334014 1.0079273 0.95789427
0.9664267 0.979758 0.9939596 1.0441895 1.0436765 1.0259668 1.0135286 0.9895599
1.0144035 0.9598144 1.0052289 0.9884735 0.9903242 0.9526437 1.0052928 1.0077204
0.99704075 0.9676002 0.9406821 1.0214458 0.962404 0.98300904 0.9880572 0.99578637
0.9910769 0.99010617 1.0501648 1.0184586 1.0426525 0.97207963 0.9333649 1.0420598

bn1.bias f4 [64]
00000000: 715c 65bd b770 a03b 9416 e13b f163 b3bb
00000010: ea1b 813c f6b6 fa3c 0060 fc3c 2d0d 943d
00000020: d006 833c 979b ce3d f6fa bb3c 5bb4 c43c
00000030: 751a 693d b6ae 74bd 27d0 91bc bdab 81bc
00000040: 3ab5 043d 21f6 853c 74f5 723c 87e5 f43c
00000050: ae34 583d 2fac ebbb a74f ab3b 38cf 523a
00000060: ef37 c93d 8c28 d93c cfac 993c ad76 34bc
00000070: 465a 113c 312b ae3d ae94 833d 3e79 a83c
00000080: 74a0 ac3b 0976 413b 7afd a6bb d9f9 e0bc
00000090: 3a21 8d3d 7fb0 bc3c 748d 903d 3992 4cbd
000000a0: b451 1a3c 9ba6 2fbd af45 153d a22f b03b
000000b0: 7b41 b4bb 6086 7dbd 9e08 353d 9e13 d5bb
000000c0: 8972 2c3c cbf8 813c 732a e1bc e5d4 4bbd
000000d0: dd5a e5bb 4af9 21bc 957a f23d 6c63 843d
000000e0: 6567 91bb 3648 a73c f494 38bc e8bf 9d3c
000000f0: f529 113d 4069 753c 5b36 b4bb 92ec 953c
-0.055996362 0.004896249 0.0068691466 -0.0054745604 0.01576038 0.03060482 0.030807495 0.072290756
0.01599446 0.1008827 0.022946816 0.024011781 0.056909997 -0.05973693 -0.01779945 -0.015828962
0.032399394 0.016352715 0.014829028 0.029894603 0.052784614 -0.0071921567 0.005228001 0.0008041742
0.098251216 0.026508592 0.01875916 -0.011014623 0.0088716205 0.08504332 0.06424843 0.020565625
0.005268151 0.0029519817 -0.0050961347 -0.027462887 0.06891103 0.023033379 0.0705823 -0.049944136
0.009418894 -0.042883497 0.03644341 0.005376772 -0.00550097 -0.061895728 0.04419767 -0.0065025827
0.010525354 0.015865704 -0.027486062 -0.04976358 -0.006999357 -0.009886095 0.11839787 0.06464276
-0.0044373744 0.020420175 -0.011265982 0.019256547 0.035440404 0.014978707 -0.0054996437 0.018301282

bn1.running_mean f4 [64]
00000000: c6fc 393e 2dc6 c33d c011 11bb eba6 fe3d
00000010: 7d3f 7ebd 79e1 d63d 5dfa 39bd 9688 9a3e
00000020: 69cc b83d 91b6 35be 2b89 8d3e 8db6 f63e
00000030: 0e85 803d ed02 913d 7ce3 df3e 1af0 d83e
00000040: f0f4 adbb 3e08 a73e 0425 d83d cf22 1e3f
00000050: e220 583e a634 0b3e d6fa 773d 5d40 9cbd
00000060: a459 c33d d03d 7abc 8abc ee3e 4571 1a3e
00000070: 70b9 8d3e 100e d2ba d061 1f3b 250c 753e
00000080: dae5 823e 6e01 7fba e43c 7abe 5041 63bd
00000090: 0dbe a23e 51b3 603e 513f ccbe c8ce 5e3e
000000a0: 30e3 4bbe da26 79be 73f8 0a3e cc76 3b3c
000000b0: 384e b23d 96d5 763f 3aca 3cbe f56b 533e
000000c0: ea51 0fbd 800f 0dbb 53da b33e 8651 37bd
000000d0: 147c a6bc 28f1 95be 3c3a c33e 692b 35bd
000000e0: 8339 96bd 18ab a43d baa6 c43e fa9c ad3d
000000f0: be9b c2bd 2bd4 1a3e 1d33 1dbf 364e 5e3e
0.18162832 0.095592834 -0.0022135824 0.12434181 -0.062072266 0.10492224 -0.04540478 0.30182332
0.09023363 -0.17745425 0.27643713 0.4818615 0.06275378 0.07080636 0.43728244 0.42370683
-0.00530874 0.32623476 0.10553935 0.61771864 0.21106294 0.13594303 0.06054195 -0.07629464
0.09538582 -0.015273526 0.4662822 0.15082271 0.2768054 -0.001602592 0.0024319775 0.23930414
0.25565988 -0.0009727691 -0.2443729 -0.05548221 0.31785622 0.21943404 -0.39892057 0.21758568
-0.19910884 -0.24331227 0.13571338 0.011441898 0.08706325 0.96419656 -0.18436518 0.20646651
-0.03499023 -0.0021524131 0.35127506 -0.04475548 -0.020322837 -0.2928555 0.38130367 -0.044230852
-0.07335188 0.08040446 0.38408452 0.084772065 -0.09502362 0.15119998 -0.6140612 0.21709523

bn1.running_var f4 [64]
00000000: 09fa b446 0312 a946 0e5e f646 eef9 7046
00000010: 4675 5246 f3ec a046 4e87 1a46 6295 5e46
00000020: 7f8a 5a46 28e2 bf46 d464 c646 1ffb a746
00000030: c760 8946 afef 3546 89d3 5246 1bbe 9d46
00000040: 214e 8146 1440 0847 2f7d 0446 731c f646
00000050: e455 a746 37a4 2546 b0c2 6846 42f9 1346
00000060: bdd4 6346 cd73 a346 c9d7 7f46 c244 0a47
00000070: 74cf fd46 0a51 9546 0f9e a346 b7a2 5946
00000080: 7726 0747 490a 0e47 645c 4446 ba6b 3046
00000090: bc0e c446 8f28 ab46 2e0b 8b46 d369 7846
000000a0: c391 bc46 ce35 9b46 88e6 df46 d626 a846
000000b0: 7e2a 9646 690d 3e47 46d4 1747 dd7b a046
000000c0: 063f a146 0d3e 0547 4c81 fa46 eb46 9e46
000000d0: d43c c446 72d4 1b46 7125 d746 ca96 8746
000000e0: ce17 8146 102a c646 be84 ab46 ddd2 d346
000000f0: 6c35 cd46 190d ce46 15cd b546 f46c 7b46
23165.018 21641.006 31535.027 15422.482 13469.318 20598.475 9889.826 14245.346
13986.624 24561.078 25394.414 21501.56 17584.389 11643.921 13492.884 20191.053
16551.064 34880.08 8479.296 31502.225 21418.945 10601.054 14896.672 9470.314
14581.185 20921.9 16373.946 35396.758 32487.727 19112.52 20943.03 13928.679
34598.465 36362.285 12567.098 11290.932 25095.367 21908.28 17797.59 15898.456
24136.88 19866.902 28659.266 21523.418 19221.246 48653.41 38868.273 20541.932
20639.512 34110.05 32064.648 20259.459 25118.414 9973.111 27538.72 17355.395
16523.902 25365.031 21954.371 27113.432 26266.71 26374.549 23270.541 16091.238

conv2.weight f4 [32, 64, 5]
00000000: 45dd 86bd 875f 6b3d 351e b5bd 1147 b43d
00000010: 7525 80bd fae8 c03d f23b fcbd 50ec 25be
00000020: 8838 42bc 9b04 8ebd 775e 7abc ee79 09be
00000030: b8fa 8ebd a8fc 9dba 9654 dabd 6010 27bd
00000040: 2fc6 e43d 44d7 40bc ffcc a9bc c2ba d6bd
00000050: a303 a7bd cf30 9abd 437e 0bbd bb48 823d
00000060: 8c00 c13c 29e3 c8bc 4f9c 473c bcd5 cf3d
00000070: bca8 af3d 01ba f5bd 2b81 82bd 524e 47bd
00000080: 1878 363d e164 643c 097c 09be 0567 873d
00000090: 5b38 40bd 6374 9a3c df7e d73d 95af 27bd
000000a0: b037 453d e1e2 20bd 3c02 29bd 5ec4 c93d
000000b0: f423 97bd 5cdd 8ebd 0c3f ad3d 81c5 4d3d
000000c0: 4558 ff3b 0ea2 c0bd 4ea4 90bd 2e4a 8dbc
000000d0: 7813 a13d 1c70 e2bb 286a e03c 4edb 4a3d
000000e0: d6da 5cbd a2ed a83d 5821 92bd ed15 00be
000000f0: ba09 173d 8e16 12be a4d9 bc3c 8957 ca3c
00000100: 4008 d2bc 7e66 9039 8de9 31bd 5520 f33d
00000110: f389 66bd 27b9 06bd 0d57 71bd 889e f7b8
00000120: a4ff 98bd 269b b53d a20f 753d 0c33 9a3d
00000130: 5882 e6bd 9fdd 8f3c 6433 adbd 167e 623d
00000140: d79a eebd 0179 c4bd 3cd9 4ebd bad8 a23d
00000150: 1a43 833d 5d20 bebd ade6 163d c69c 703d
00000160: 781e 963c 1b68 b2bd c480 d1bb b6f4 883c
00000170: e5a9 a13c c72a cb3d 84cd 7cbc 5666 b23c
00000180: 4bae 01ba 2991 023e bb42 91bd 56ca c33d
00000190: 1436 cdbd 666a c5bc 3bee ae3a 2f80 933d
000001a0: f567 4ebd f676 adbd 4c78 1dbd 26a8 9e3d
000001b0: e69f e7bd 39ba 7ebd f92c c2bd cd58 db3d
000001c0: 73ec 10bc cbfa 943d 8fc3 313d 0745 12bd
000001d0: 46c1 ef3d cd80 86bd a886 fd3c cddd edbb
000001e0: ecc0 4b3d e467 db3c 407d 09bc abd8 8f3c
000001f0: ff56 84bd 61ea 88bd 7e6e aa3d 4483 043d
00000200: db08 f93c 1ab6 b7bd 97d0 28bc 5bbd dcbb
00000210: 6f58 b0bd df5e 1e3c e43b 933c 5448 aebd
00000220: 8dc4 183d b7aa b9bd a8f8 eebd e1dc d2bd
00000230: 8671 00bb 8a6c 8bbd 9038 8ebd 0a4f 243d
00000240: 0bf5 013d bcd9 5dbd 4b6f 05bb 4353 babd
00000250: b5dd 92bd 13b5 fabd ff93 403c aaf1 15be
00000260: 20e2 4aba 5f1e 8ebd aa41 00be d59c 5fbd
00000270: 8370 bc3d 1641 8ebc e5b6 86bd 8227 1cbd
00000280: aab4 773d f0e6 aebd d0d1 43bb 3926 9d3d
00000290: a21d d33b 6537 44bd 63f3 833d 4327 c7bd
000002a0: 2415 7dbd f34b 04bd 80e9 003d 0025 683d
000002b0: 94e3 a53d 3485 46bd 67ac d2bd cafc 4b3d
000002c0: a3cd f0bd 53fc 4cbc a03d 313b 6eef 3dbd
000002d0: 3532 493c bddf 683d a250 3a3d 5d38 27bd
000002e0: e482 7c3c b5eb aa3d f509 3ebd 9610 8a3d
000002f0: ecb6 123e a72b 4fbc 9781 02be 3494 00bd
00000300: 23d4 08be 58a3 b23d 95cb 87bd ee09 923d
00000310: 8c3f 0e3e e91c 4b3c 9232 063e c2ed e23c
00000320: c277 05be c113 0fbe 634f 93bd a9f0 fa3b
00000330: 25bb c6bd 300b 55bc d138 8cbd 0899 5e3d
00000340: 524d fdbd 17b4 b3bd 3254 463c fe7f d5bd
00000350: ff7d 293d 8487 92bc 2b9b 34be 4f49 9bbc
00000360: 483f c73d 50be 02be 2a71 98bd f91e d5bd
00000370: 79ec e63d 6f09 8a3d a5fc e13c c8c5 0c3d
00000380: 9e85 dc3d 60cc 9a3c f3e7 60bd ade3 6ebd
00000390: 59ff 8c3d 491e a3bd 59ee 953d 2094 eb3d
000003a0: df5e 8dbd a52a 2d3d a606 c6bd 6764 103c
000003b0: 65b2 b7bc 84f1 413c a84b 073b c9a9 91bd
000003c0: 81b8 a23d e66c 7bbd 0e6a 2a3c b6f4 4b3d
000003d0: 39f9 2a3d 2b1b 99bc 88c2 b4bd 3b58 0ebe
000003e0: b147 80bc f56f 6ebd 2478 093d 7653 cebd
000003f0: 423c 46bd d17d b13d 1d1d 66bd 4774 c4bd
-0.065851726 0.05746415 -0.08843652 0.08802617 -0.06257144 0.09419437 -0.12316121 -0.16203427
-0.011854298 -0.06934472 -0.015281311 -0.13425419 -0.069814146 -0.0012053447 -0.10660665 -0.0407871
0.11170613 -0.011770073 -0.020727633 -0.1048484 -0.081549905 -0.07528841 -0.03405596 0.063615285
0.023559831 -0.02452238 0.012183263 0.101481885 0.085771054 -0.11998368 -0.06372293 -0.048658676
0.044548124 0.013940067 -0.13426222 0.06611446 -0.046928745 0.018854326 0.105222456 -0.040938932
0.04814881 -0.03927887 -0.041261896 0.09851907 -0.073799044 -0.06975815 0.08459291 0.050237183
0.007792505 -0.094059095 -0.07062589 -0.017247286 0.078650415 -0.006910337 0.02739437 0.04952555
-0.053919636 0.0824845 -0.07135266 -0.12508364 0.03687451 -0.14266416 0.023052998 0.024699943
-0.0256387 0.00027542183 -0.043435622 0.11871401 -0.056283902 -0.03289142 -0.05892091 -0.000118074066
-0.074706346 0.08867483 0.05982936 0.07529268 -0.1125533 0.017561732 -0.084570676 0.055296026
-0.11650627 -0.09593392 -0.05050014 0.079514936 0.06409283 -0.092835166 0.036841083 0.05874326
0.018325076 -0.08711263 -0.006393524 0.01671825 0.019734332 0.099202685 -0.015429858 0.021777313
-0.0004946931 0.12750687 -0.07092806 0.09560077 -0.1002008 -0.024098586 0.0013346145 0.072021835
-0.05039211 -0.084699556 -0.038444802 0.077469155 -0.11309795 -0.062189315 -0.09481234 0.10710297
-0.008845436 0.072743975 0.04339939 -0.03571036 0.11706786 -0.065675355 0.030947998 -0.0072591067
0.04974453 0.026782937 -0.008391678 0.01755937 -0.06461906 -0.06685329 0.08321856 0.032351747
0.03039973 -0.0897028 -0.010303638 -0.00673644 -0.08610617 0.009666174 0.017972894 -0.08509889
0.03729682 -0.090657644 -0.11668521 -0.102960356 -0.0019598915 -0.068078116 -0.06944382 0.04011444
0.03172783 -0.054162726 -0.0020360525 -0.09097912 -0.071711935 -0.122415684 0.011754035 -0.14642969
-0.0007739384 -0.069393866 -0.12525049 -0.054592926 0.092011474 -0.01736502 -0.06577853 -0.038123615
0.06047503 -0.085401416 -0.0029879697 0.07673306 0.0064427415 -0.04790439 0.06442907 -0.097242855
-0.06178774 -0.032298993 0.031472683 0.05667591 0.08100048 -0.048466876 -0.102867894 0.049801625
-0.11757972 -0.012511331 0.0027044788 -0.046370916 0.012280037 0.056854 0.045487054 -0.040825237
0.015412066 0.08345739 -0.046396215 0.06741445 0.14327592 -0.012644685 -0.12744747 -0.031391338
-0.13362174 0.087225616 -0.06630627 0.071308 0.13891429 0.012397029 0.13105229 0.027701262
-0.13033965 -0.1397238 -0.07192876 0.0076580835 -0.09703664 -0.013003156 -0.06846774 0.05434516
-0.12368263 -0.08774584 0.012105035 -0.10424803 0.041379925 -0.017886885 -0.17637317 -0.018955855
0.09728867 -0.12767911 -0.07443459 -0.10406298 0.11275572 0.067400806 0.02758629 0.034368306
0.10767673 0.018896282 -0.054908704 -0.058322597 0.06884641 -0.07964761 0.07320852 0.11502862
-0.06902861 0.042276997 -0.09669237 0.008813 -0.022423932 0.011837367 0.002064446 -0.07112462
0.079453476 -0.06138315 0.010401262 0.04979392 0.041741583 -0.018689713 -0.088261664 -0.13900845
-0.015659185 -0.05821224 0.03356184 -0.10074513 -0.04839731 0.08666576 -0.05618011 -0.09592491

conv2.bias f4 [32]
00000000: 94d9 263c 4c16 dcbb 969a 0cbc 60e4 363a
00000010: e733 573b f4ec 893b 8892 333b 363d 273b
00000020: 72d5 5fbb 937d 213a e9fe 91b9 03a2 f13a
00000030: 2692 ad3b 25c7 133b 626c dfbb d866 d6ba
00000040: 2d3b 64bb 5085 003c 519f fd3a 520e c5ba
00000050: 1113 02ba 7f21 973b 0e1d 663b a7f3 33bc
00000060: 0624 cebb 92c6 b6ba 85c3 7e3a 10b4 c4ba
00000070: 3be3 0a3a 90d7 ab3a e3f7 223a 7b1d 37bb
0.010183711 -0.006716525 -0.008581778 0.00069767796 0.0032837333 0.004209155 0.0027400572 0.0025518662
-0.0034154323 0.00061603746 -0.00027846478 0.0018435124 0.0052969633 0.002254912 -0.00681834 -0.0016357554
-0.003482531 0.007844284 0.0019349848 -0.0015034175 -0.00049619476 0.0046121473 0.0035112533 -0.010983384
-0.0062909154 -0.0013944677 0.0009718466 -0.0015007276 0.0005298142 0.0013110507 0.00062167476 -0.0027941156

bn2.weight f4 [32]
00000000: 65cb 843f ddef 863f 7c48 843f 0df4 623f
00000010: 9a25 763f 6721 853f d1a6 793f 0109 883f
00000020: 825d 863f eea6 803f 4175 673f b5f2 7b3f
00000030: 1f47 873f 1c4b 783f a4b5 8a3f a383 613f
00000040: 954e 7b3f 5872 803f 7424 8b3f 2cba 6e3f
00000050: daed 813f 4fc8 853f 09f4 743f f9bd 873f
00000060: 31bb 733f 8ba6 703f c254 853f 7d12 753f
00000070: e2e0 6c3f 1b0a 6f3f 2d33 883f 4868 853f
1.0374571 1.054195 1.033462 0.8865364 0.96151125 1.0400819 0.97520167 1.0627748
1.0497286 1.0050943 0.9041329 0.98417217 1.056858 0.9698961 1.0836682 0.88091487
0.9816678 1.0034895 1.08705 0.93252826 1.0150712 1.0451754 0.9568487 1.060485
0.95207506 0.94004124 1.0416491 0.95731336 0.92530644 0.93374795 1.0640618 1.0422449

bn2.bias f4 [32]
00000000: c00b 21bd f25f c939 b6d7 1cbd 3ef5 93bc
00000010: e470 22bd ea00 223c 3d28 8abd 1230 3bbc
00000020: 83aa 103d 6ce8 97b8 6f83 8bbd 9517 35bd
00000030: 52c2 e6bc aaee 43bb a06e 503d 03ef 08bc
00000040: fa1b 2c3d ef09 d9bc c341 f93c bccc 82bd
00000050: d362 8dbd 03d9 07bd d4e3 cabc d817 183c
00000060: 686d f1bc a345 bdbd 8982 b93b 7ab9 72bc
00000070: 121b 18bd a72d 5ebc d7e6 c23b b592 abbb
-0.039317846 0.00038409192 -0.038291655 -0.018061277 -0.039658442 0.009887913 -0.06745956 -0.011425035
0.035318863 -7.243533e-05 -0.06812178 -0.044211943 -0.028168831 -0.0029896894 0.05088675 -0.008357766
0.042018868 -0.026493995 0.030426865 -0.06386706 -0.06903615 -0.033165943 -0.02476684 0.009283029
-0.029471114 -0.09241798 0.005661313 -0.014814729 -0.03713519 -0.013560689 0.0059479284 -0.0052359947

bn2.running_mean f4 [32]
00000000: 486d 82bf 44e3 76bf 4bf0 84bf 6ea3 88bf
00000010: cac7 24bf 5991 8fbf abce e0be b810 53bf
00000020: f2eb 2fbf 59a1 abbf fdf4 443f 42ed bbbd
00000030: fd0e 87bf a7ed a2be cd80 5ebf 7e62 933e
00000040: 3062 e63e 0e2d 2abf 52bb 48bf a051 403f
00000050: c9df 22bf a3c0 4dbf 7257 6fbf 12a7 55be
00000060: 5e02 023f 08d7 a7bf 538a a1bf b2e0 80bf
00000070: ca09 843f e138 c63f b207 bdbf 27d5 92bf
-1.01896 -0.9644053 -1.0385832 -1.0674875 -0.64367354 -1.1216232 -0.43907675 -0.82447386
-0.687194 -1.3408614 0.7693632 -0.09176113 -1.0551449 -0.3182194 -0.86915284 0.2878608
0.44996786 -0.66475 -0.7841083 0.7512455 -0.6362272 -0.80372065 -0.93492806 -0.20864514
0.5078486 -1.3112497 -1.2620338 -1.0068572 1.0315487 1.5486108 -1.4767973 -1.1471299

bn2.running_var f4 [32]
00000000: 5c72 d43f 9a38 ec3f 4e61 d53f 719d 0a40
00000010: be62 0b40 ae91 0940 dcd8 8e3f 279f aa3f
00000020: ca7a d13f ddc8 3640 7615 f03f bcaa b93f
00000030: 6817 c23f 4452 9d3f ba3e fd3f eedc ba3f
00000040: b8e1 ca3f 6dee 903f 9589 af3f 8157 b03f
00000050: fb07 9d3f 9be9 a83f 81ea ee3f 8147 863f
00000060: c6e3 733f 5033 3c40 9347 0440 d836 1a40
00000070: 4f8c 0840 c6c6 4f40 02b4 3840 127f 0140
1.65974 1.8454773 1.667032 2.1658595 2.1779017 2.1495166 1.115993 1.332982
1.6365597 2.8560097 1.8756549 1.4505229 1.5163393 1.229073 1.9784768 1.4598672
1.5850134 1.1322762 1.3713862 1.3776704 1.226806 1.3196291 1.8665315 1.0490571
0.9526943 2.9406319 2.0668685 2.4095974 2.1335638 3.2465072 2.8859868 2.0233808

conv3.weight f4 [16, 32, 5]
00000000: 74fd 8fbd bc2a f1bd d8e4 5fbc f8fe 8d3d
00000010: 3c51 903c 3b00 613d 2dca bfbd 99e2 3abe
00000020: 55f4 e2bd bc3d a9bd ea13 f3bd 1e77 0fbe
00000030: ad4a b03d 2111 e23d ddb4 fe3d b18e c23c
00000040: be0e 1ebd 379e 05be a720 943d 3ce5 743d
00000050: 667c b03d f528 63bd 871f c6bd 6132 0cbe
00000060: 4e13 dfbd 936d 003e f84d babd e8d2 fa3d
00000070: 44c7 003e c850 1e3e 5dce fcbd d794 e43d
00000080: 6933 813c 4ddb ab3d b01b 05be aea5 32be
00000090: e6d9 d0bd ed52 48be e0aa 57be 8017 bcbd
000000a0: 48b8 9bbd 8b43 f4bd 3718 c53d 8e9c 953d
000000b0: 7a0e b63d d2c4 70bd 9c40 a43d 88f8 85bd
000000c0: bfff efbd be0e c33d 5895 093d b3d4 a33c
000000d0: 3216 e5bd 5b77 72bd 9536 09bd 5e1d b93d
000000e0: b186 0f3e 8c6d 0cbd 2f4d bc3d d01c 8abd
000000f0: e966 d9bd 4da7 07be 660f 0abe 63c8 a6bd
00000100: 2261 753d 001a a3bd 261a 133d b85f 31be
00000110: d552 223d d0be 4abd 0164 5ebd 999d a5bc
00000120: 631c 18be 90a7 5ebd a41f 91bc 9641 e73d
00000130: 83df 35bd 9f19 aabc bc33 cebd 5b43 ffbd
00000140: ddff 7c3c 5592 0ebe e6be 21be 3e27 44bd
00000150: 28c5 443d 08ca 503d dbc0 e53d 5b9a ce3d
00000160: 6630 9a3d 4458 cfbd 0ac9 ee3d 140a dc3d
00000170: 37a3 8a3d 3b28 a63d 03a4 2c3e 8d6d 82bc
00000180: 5aad 9f3b b1e5 86bc 685e 223d ecb6 753d
00000190: 5a90 c43d 093c 133d 5fb3 96bd 4d3b 973c
000001a0: 674b 6bbb 5108 7e3c 6343 dabd db3e dabd
000001b0: a3e0 47bd 9780 a4bd 541f bdbd 1034 b6bc
000001c0: 4857 dabd 78b7 febd df67 da3d f2a2 473d
000001d0: 3d3e 51bd 6678 d1bc 37e6 163d 2403 30bc
000001e0: db5e 23be 3f73 d2bd 538a c0bd 86cd c33d
000001f0: 773b 27be 7cda f9bd 31f5 233d b36a 463d
00000200: fdc6 fbbd e899 d93c 8cd2 203d 69fc 163e
00000210: 36f7 abbd b259 d53d 28e8 8ebd 71f0 b23b
00000220: af8c a739 b26d 0b3d dc2b 3cbe 7ad6 993c
00000230: 10cb b03d 5e50 bb3d 6419 babb 8310 413c
00000240: 4d76 d8bd 1ab7 f2bd c556 9d3c a068 9ebd
00000250: 09b0 d53d 85ec 16bd 06f7 98bd 65ec 16be
00000260: 0226 18be 8455 7a3d 606a d83d 3480 6c3c
00000270: 2497 30be 1d02 8abd 4192 f43c 1f8d f43d
00000280: d1a8 143e 2b38 2f3e 6501 913c 16c3 373d
00000290: dbc2 1dbc caec 80ba 479e 083d f30a 9fbd
000002a0: 1e33 443e b619 a43d d8da 893d 602c 273e
000002b0: a4c9 cc3d a4ac e13d 0120 34bd 65ad ce3d
000002c0: 0fbb 7f3b dfdc 0bbd bd2e 24be c20a e43d
000002d0: 30b2 d9bc 8197 edbd a8e2 7bbd cda8 b23d
000002e0: 5f1c 27bd 5502 acbd 7cdb bdbc ddab 993d
000002f0: 8053 d2bd 1ba7 5c3d 8a2a c23c 830a 2ebd
00000300: e92e 9b3d 0d70 27be e6c0 23be 4c0a a43c
00000310: 2af5 15bd cdf6 dbbc 6e06 bbbd 32a5 cabd
00000320: e2b9 333e e2fe 11be 3556 4c3d a9d9 f7bd
00000330: b721 40bb 2ef1 ee3a fda5 133b 9da9 1f3e
00000340: 36e5 f53d f9db 193e 6fde 1dbe 2c8d 223d
00000350: 3064 ec3d a679 3cbd 77bc 0f3d 14e3 583c
00000360: 1066 adbd dc86 0bbe 5d52 1abe 6297 01be
00000370: 1b4e 5cbd 900f 433c 79ff aa3d e2ef f7bc
00000380: 8333 3e3e 0193 9ebd 55aa 29be 00c9 1bbe
00000390: 340d 32be 3f8f bc3d 0dc3 d5bd 1ac5 3bbd
000003a0: 9048 16be 3548 0b3d a9b5 0abd 847b 2cbe
000003b0: 2806 de3c 68ac 89bc 1cec ed3d aa3f e93d
000003c0: 45f2 38bd 5897 fd3d f401 863d 43e9 2e3d
000003d0: 0588 133e 3c37 393e 5c90 adbd c91c bb3d
000003e0: 024a cd3d 44ce 6fbd 64e8 5d3d 33f4 01bc
000003f0: cb26 3b3e ce83 b6bd 0ea4 563d a4ee 07be
-0.07030764 -0.11775729 -0.0136654 0.06933397 0.01761686 0.05493186 -0.09364734 -0.18250503
-0.11081759 -0.08263728 -0.11869033 -0.14010283 0.08607993 0.11038423 0.12436841 0.023749681
-0.038588278 -0.13048635 0.072327904 0.059788927 0.08617477 -0.05545898 -0.09673982 -0.13691093
-0.10892354 0.12541799 -0.090969026 0.122472584 0.12576014 0.15460503 -0.12344048 0.111612014
0.015771585 0.08391438 -0.12998843 -0.17446014 -0.10197811 -0.19562884 -0.21061277 -0.0918417
-0.07603508 -0.11926945 0.09623759 0.07305251 0.0888948 -0.058781452 0.08020136 -0.06541544
-0.117187016 0.09524296 0.03358969 0.019998884 -0.11185874 -0.059195857 -0.03349932 0.090388045
0.14016224 -0.03428416 0.09194409 -0.06743777 -0.10615332 -0.13247414 -0.13482437 -0.081436895
0.059907086 -0.079639435 0.03591361 -0.1732167 0.039629776 -0.04949838 -0.05429459 -0.02021675
-0.14854579 -0.05435902 -0.017715283 0.112918064 -0.04440261 -0.02076417 -0.10068461 -0.12464019
0.015441862 -0.13923009 -0.15795478 -0.047888987 0.048039585 0.050973922 0.11218425 0.10088035
0.075287625 -0.10124257 0.11659439 0.1074411 0.06769412 0.08113142 0.1685944 -0.015921379
0.00487296 -0.016466947 0.039640814 0.0599889 0.095978454 0.035945926 -0.07358431 0.018460894
-0.0035903098 0.0155049125 -0.10657384 -0.1065652 -0.048798215 -0.08032339 -0.09234491 -0.022241622
-0.10661179 -0.12437338 0.10664343 0.04873938 -0.051084746 -0.025570106 0.036840644 -0.010742936
-0.15954153 -0.10275888 -0.09401383 0.09560685 -0.16331278 -0.12199876 0.040028755 0.0484416
-0.122938134 0.026562646 0.039263293 0.14744724 -0.08396761 0.10417499 -0.06977874 0.0054607918
0.0003195754 0.03404016 -0.18376106 0.018779028 0.08632481 0.09146188 -0.0056792963 0.011783722
-0.10569439 -0.1185133 0.019206414 -0.077347994 0.10433967 -0.036846656 -0.07468991 -0.14738615
-0.14858249 0.06111671 0.105671644 0.014434863 -0.17245156 -0.06738684 0.029854896 0.11940979
0.14517523 0.1711127 0.01770086 0.044863783 -0.009628977 -0.0009836194 0.03335407 -0.0776576
0.19160125 0.080127165 0.06731194 0.16325521 0.099993974 0.11019257 -0.043975834 0.10091666
0.0039021408 -0.034146186 -0.16033454 0.111348644 -0.026574224 -0.11601163 -0.061495453 0.087236024
-0.04079854 -0.08398882 -0.023175947 0.075034834 -0.102698326 0.0538703 0.023701925 -0.042490494
0.07577307 -0.16351338 -0.15991554 0.020024441 -0.03661076 -0.026851082 -0.09132086 -0.0989479
0.17551377 -0.14257386 0.0498869 -0.12102062 -0.002931697 0.0018229836 0.0022529357 0.15592046
0.12006609 0.15025319 -0.15416883 0.039685413 0.11542547 -0.04601445 0.035091843 0.013237733
-0.084667325 -0.13625664 -0.15070482 -0.12655404 -0.053785425 0.011905566 0.08349509 -0.030265752
0.18574338 -0.077428825 -0.16568883 -0.15213394 -0.17387849 0.092070095 -0.104375936 -0.045842268
-0.14676118 0.03400441 -0.03386465 -0.16843992 0.027102545 -0.016805843 0.116173 0.11389096
-0.04515292 0.12382382 0.06543341 0.042702924 0.14407356 0.18087476 -0.084748 0.0913635
0.100238815 -0.05854632 0.054176703 -0.007931757 0.18276517 -0.089118585 0.05240255 -0.13274628

conv3.bias f4 [16]
00000000: 8975 563b 69df 413a 0397 983b ac2e a23b
00000010: c1d3 26bb 5ea5 2bbc e3c5 29bc 90d3 673b
00000020: e31c 80bc c9fb 3fbb 880b e93b fd9d 10bc
00000030: 14cc 16bc bad4 22bb 3b0e 133b c3f9 72bb
0.0032723865 0.00073956564 0.004656674 0.0049494114 -0.0025455805 -0.010476438 -0.010362121 0.0035373904
-0.015638774 -0.0029294363 0.0071119703 -0.00882673 -0.009203929 -0.0024846033 0.0022438902 -0.003707514

bn3.weight f4 [16]
00000000: 55a3 893f 09de 803f 16ca 853f 5775 873f
00000010: 18b7 7f3f e19a 753f 3c92 813f b881 833f
00000020: c8d1 813f 1cee 873f 89ab 8d3f 749a 853f
00000030: d2e5 8a3f 68fd 7c3f 4b99 7b3f cf97 853f
1.075297 1.006776 1.0452297 1.0582684 0.99888754 0.9593945 1.0122752 1.0273962
1.0142145 1.061954 1.1067973 1.043776 1.0851386 0.9882417 0.9828078 1.0436953

bn3.bias f4 [16]
00000000: 2ea2 b63c 5039 bfb9 0686 ed3b fc96 db3c
00000010: 24f4 37bc a9e4 29bd 0251 d13a 59d5 e33b
00000020: c171 10bd 9d55 bf3c 0133 283d ae12 093c
00000030: d194 c23c 0a6f 92bc 2022 95bc 4870 7b3c
0.02229413 -0.0003647306 0.007248643 0.026805393 -0.011227641 -0.041477833 0.0015969577 0.0069529233
-0.035264734 0.023356253 0.041064266 0.00836627 0.023752602 -0.017875213 -0.018204749 0.015346594

bn3.running_mean f4 [16]
00000000: a719 66bf 0de0 a13d 9e03 08bf c08e f0be
00000010: c7de 66bf 8e04 4cbf f320 73bf b2d6 6bbe
00000020: 778e ba3f 3f65 d7be cc3d 0abf c4e9 bebd
00000030: 645e 47bf 6dbc 2cbf 8848 9d3c 5436 86bf
-0.8988289 0.079040624 -0.5313052 -0.4698391 -0.9018368 -0.7969445 -0.9497215 -0.23031119
1.4574727 -0.42069432 -0.54000545 -0.09321931 -0.77878404 -0.67475015 0.019199625 -1.048533

bn3.running_var f4 [16]
00000000: 0989 1d3f 6a67 0d3f de45 fb3e 87dc 2e3f
00000010: a7a8 673f 94ab 443f c8d4 193f c94e 393f
00000020: 2d79 973f 7ced 0b3f e4d0 093f f102 003f
00000030: d10d d33e 00cb 403f 464b 133f 9677 2f3f
0.61537224 0.5523592 0.49076742 0.6830525 0.9049172 0.7682431 0.60090303 0.7238584
1.1833855 0.5465925 0.53834367 0.5000449 0.4122148 0.75309753 0.57536733 0.6854185

output_layer.weight f4 [11, 3008]
00000000: 498d b8bd adf9 9fbd e040 b7bd 0ecb e7bd
00000010: 0cb2 b2bd 36fe 66bd 23af 28bd 7332 83bd
00000020: 49fd 94bd 22d0 0c3b 1591 8cbd 926b afbc
00000030: 23d3 38bd ed37 a0ba 562f 22bd 43fc fbbb
00000040: e7d6 75bd 0681 52bd a8c0 91bc e995 50bd
00000050: b9ab 16bc 8ce7 a2bd 656e 6abd 8292 adbd
00000060: 96d3 92bd ea43 0abd dd8d efbd acfc b6bd
00000070: b7d3 03be 69fc 4cbd 42df e4bd 17ee 7dbd
00000080: e109 bebd a7e1 9dbd d02e 68bd 3b1c d5bd
00000090: 994a 0bbe c058 29bd 26e2 b4bd 4d2b 99bd
000000a0: c735 00bd 95bc 29bd 9761 3cbd 9f53 43bd
000000b0: 691d 52bd aaee 79bd 2630 f6bd 0563 d3bd
000000c0: 8509 52bd e7aa c5bd d412 3bbd b171 e8bd
000000d0: 5179 0bbd 263a a7bd d8fc c6bd 7c3c 86bc
000000e0: d499 aabd 8bb1 93bd 300d 9fbd 3533 aebd
000000f0: ba5e 12bd 2c33 d8bc 107b 92bd 768d a2bd
00000100: 11f2 91bd e7e9 bfbc 37a6 23bd 4db2 37bd
00000110: 1271 4cbd 38fe 47bd 901b a9bc 73a8 d6bd
00000120: 4b86 dbbd 3995 8cbd ad6a cdbd a868 d4bd
00000130: c39e c6bd 68bf aabd 7125 37bd bae8 66bd
00000140: 9afc bdbd 0d88 57bd 3387 39bd f25c 8dbd
00000150: c0aa 0dbd d932 5bbd c4e7 cabd e2a6 2bbd
00000160: b857 92bd 7836 a4bd dde6 11be 3b9c 2abe
00000170: 97c1 a2bd dd38 a0bd 4e41 f3bd 775a 2abd
00000180: 4493 98bd 87a2 e1bd bb3b 1bbd 5f69 54bd
00000190: b487 96bd 1111 57bd a488 0abd c2cb cfbd
000001a0: 159c 6cbd e349 c3bc 083b 3dbd 8dff 31bd
000001b0: 62c3 a5bd fd3b 7dbd 31c0 81bd fa2d d4bd
000001c0: 2586 8dbd 6f16 83bd 94db acbd 2daa 43bd
000001d0: 6d83 d7bd 2635 45bd 4ea3 b2bd 54fa bdbd
000001e0: 59ff cfbd 022f a7bd 1bbf 5bbd 0865 01bd
000001f0: c612 82bd 1c1b aabd 97fa 8dbd 993e c3bd
00000200: 0a41 dabd 1e23 bbbd 5137 91bd 1678 4bbd
00000210: 1aee ddbd 6989 2ebd 3b3e 63bd 1197 bebd
00000220: e6f6 cebd d6b8 08be f42f 67bd a1f8 e9bd
00000230: e81f 8cbd 0838 aebd 733f f1bd 579a 2abd
00000240: bd1f b7bd 1832 95bd f38e cebd 20f0 9bbd
00000250: fb0c 67bd 34d1 5dbd f908 bbbd eefa dabd
00000260: 94fd 95bd cde4 c4bc 7783 6cbd f5b6 e4bd
00000270: a7c9 aabd 661c a0bd 434c 8abd 10b9 a8bd
00000280: 1aa8 87bd ef49 43bd f3f2 c9bd 9471 73bd
00000290: 2aee e1bd ce17 c7bd d0df e6bd 2d95 e8bd
000002a0: 172c 85bd 73d1 b7bc 3cb7 c1bc 8ff2 a0bd
000002b0: 0477 e3bd 01f2 3dbd 55b8 b3bd 4ac9 a7bd
000002c0: 179e f3bc 918a 7cbd 4de3 61bc 515e a8bd
000002d0: 3219 c7bd f6b1 5bbd f858 8cbd 9942 5cbd
000002e0: f806 90bd 2f11 2cbc b610 95bd 04a3 a2bc
000002f0: 75ec 763d 9594 963d ec17 8d3d 740e 703d
00000300: 796f 4dbc b19d b63c f162 01bd 6669 46bc
00000310: 0948 223d a02c 853d 2fc8 833c f320 e039
00000320: 3373 7d3d 2a44 fc3c 684d 083d f71c c43c
00000330: 6940 0e3c 0007 763c c891 883d b174 c83c
00000340: db56 053d 278f bcbc 13a2 873b 3a89 cb3c
00000350: 0617 08bc d429 0e3c 3e38 c53c 925d 203c
00000360: 9cba 40bc a3c8 733d d5f3 543c 171e bd3c
00000370: 1d26 0f3c 01bd 923c 5ed9 5a3d ff92 923d
00000380: cdee 7c3d 1539 673d 9e57 3e3d 0e58 363d
00000390: a477 483d 513b 95ba 68ac 423d 8b44 62bc
000003a0: 05c2 113d 5c37 773d 0b8a b83b 3e6f 023d
000003b0: 2f39 593b 8dbf 84bc 6921 2e3c 231e 813d
000003c0: ee57 a63c 0384 143d 84de f23b 25c7 953d
000003d0: 91b3 85bb 92e0 a53c 7c2e e43c a20f 5d3d
000003e0: 0dbf 96bc 040c 8d3c 0e99 733c ad5f c8bb
000003f0: 3c42 5e3d b185 0c3d 2237 233d a24b 8b3d
-0.09011323 -0.07811294 -0.08947921 -0.113180265 -0.08725366 -0.05639478 -0.04118265 -0.06406107
-0.07274873 0.0021486362 -0.0686361 -0.021413598 -0.04512323 -0.0012223698 -0.039595924 -0.007689984
-0.0600194 -0.051392578 -0.017792061 -0.050924215 -0.009196215 -0.0795432 -0.057234187 -0.0847521
-0.07169263 -0.033756174 -0.1169698 -0.08934912 -0.12873732 -0.050045405 -0.111753955 -0.06199464
-0.09279228 -0.077090554 -0.05668527 -0.10405775 -0.13602675 -0.041344404 -0.08832197 -0.07478962
-0.031301286 -0.04143961 -0.045991506 -0.04768717 -0.05129758 -0.061018623 -0.12020902 -0.10321621
-0.05127861 -0.09651738 -0.045672253 -0.1134981 -0.034051243 -0.08165388 -0.09716195 -0.016386263
-0.08330122 -0.07211598 -0.07766187 -0.08505861 -0.03573487 -0.026391588 -0.071523786 -0.07937138
-0.07126249 -0.023426963 -0.039953437 -0.044847775 -0.04991252 -0.048826426 -0.020643026 -0.10481348
-0.10718974 -0.068643995 -0.100301124 -0.10371524 -0.0969825 -0.08337289 -0.04471344 -0.05637429
-0.092766955 -0.052619983 -0.04529495 -0.069024935 -0.034586668 -0.05351529 -0.09907487 -0.0419072
-0.07145637 -0.080182016 -0.14248224 -0.1666116 -0.079470806 -0.07823346 -0.1187769 -0.04159018
-0.07449964 -0.11017328 -0.03789876 -0.051858302 -0.07350102 -0.05250651 -0.033821717 -0.101462856
-0.05776604 -0.023838943 -0.046198875 -0.043456603 -0.08093907 -0.061824787 -0.06335486 -0.10360332
-0.06910352 -0.06400763 -0.08440319 -0.047769714 -0.10523114 -0.04814639 -0.08722554 -0.09276262
-0.101561256 -0.08163263 -0.05364905 -0.03159049 -0.06351237 -0.08305952 -0.06932562 -0.09533424
-0.106569365 -0.091375574 -0.07090629 -0.04967507 -0.1083643 -0.042611513 -0.05547927 -0.093061574
-0.10105686 -0.1335176 -0.056442216 -0.11424375 -0.06842023 -0.08506781 -0.1177968 -0.041651096
-0.089416005 -0.07284945 -0.10085859 -0.076141596 -0.056408864 -0.05415459 -0.09132571 -0.10692392
-0.07323757 -0.024034882 -0.057742562 -0.11167709 -0.083392434 -0.078179166 -0.06752827 -0.08238423
-0.0662386 -0.04767793 -0.09860792 -0.05943449 -0.11031754 -0.09721337 -0.112731576 -0.11356578
-0.0650255 -0.02243874 -0.023646943 -0.078587644 -0.11106685 -0.04637337 -0.08775393 -0.0819269
-0.029738469 -0.061655585 -0.013787103 -0.082211144 -0.097216025 -0.053636514 -0.06852907 -0.05377445
-0.07032579 -0.010502144 -0.07278578 -0.019853123 0.060284097 0.073525585 0.06889328 0.058607534
-0.012538784 0.02229199 -0.0315885 -0.01211009 0.03961948 0.06502652 0.016086666 0.00042749158
0.06187744 0.030794222 0.033276945 0.023939593 0.008682349 0.015016317 0.066684306 0.024469705
0.032553535 -0.02301748 0.004139194 0.024845708 -0.00830627 0.008676965 0.02407467 0.009787934
-0.011763241 0.059517514 0.012997587 0.023085637 0.008737114 0.01791239 0.053429954 0.071569435
0.061751176 0.056450922 0.046470277 0.04451757 0.048942223 -0.0011385476 0.0475277 -0.013810287
0.035585422 0.06035553 0.0056316904 0.03184437 0.0033145656 -0.01620462 0.010628083 0.06304576
0.0203056 0.03625871 0.00741178 0.073133744 -0.004080244 0.020248685 0.027854197 0.053969987
-0.018401647 0.017217644 0.014868034 -0.006114921 0.054262385 0.034307186 0.0398475 0.06801535

output_layer.bias f4 [11]
00000000: 4202 5ebc 9ccf b63b 5dc3 1d3b 4c88 78bb
00000010: 25bf f6bc bb2e f43c a3f2 163b 92ce 7ebc
00000020: 3996 db3a d5b9 a33c 26a2 f23c
-0.013550343 0.005578948 0.0024072744 -0.0037923036 -0.030120442 0.02980744 0.0023032806 -0.01555218
0.0016753144 0.019986073 0.029618334
