libemg_3dc/transfer_learning (4 strategies)/checkpoints/finetune_with_fc_reset.pt (torch, 206886 bytes, 20 tensors)

convolutional_layers.0.weight f4 [64, 10, 5]
000000 53 69 ce bd 47 37 47 bd ea d6 c4 3c 58 b1 38 3e
       -0.10078683 -0.0486367 0.02402826 0.18036401
000010 a5 8a 63 bd 1e 37 65 3d 21 3f 90 bd 43 9b 3a bc
       -0.055552144 0.055960767 -0.07043291 -0.011389556
000020 7b df 9f 3c 9f 98 51 3c c6 a8 1b 3e 9c f3 22 3e
       0.019515743 0.012792735 0.152011 0.15913242
000030 fa d9 44 be 52 63 24 be 81 43 1a 3c d9 85 c5 bd
       -0.19223776 -0.16053513 0.009415508 -0.0964467
000040 5d ec 9f bd c3 cf f4 3d e1 b8 44 bd 62 e0 4b bd
       -0.078087546 0.1195369 -0.048027877 -0.049774535
000050 00 24 ac bc 56 f0 fe bc 68 bd c1 3d be ba 3d 3e
       -0.02101326 -0.03112046 0.094599545 0.18528268
000060 b7 db 6e be 40 2b 07 3e 7e 0a 21 bd 3f 4d b3 3c
       -0.23326002 0.13200092 -0.039316647 0.02188742
000070 a3 84 a0 bc 57 e4 12 be 8b c1 16 3b d9 07 66 bc
       -0.019594496 -0.14344917 0.0023003544 -0.014039957
000080 0e 2c ba bd e8 f7 48 bd f3 1a 0e 3e e3 7a 0d 3e
       -0.09090434 -0.049064547 0.13877468 0.13816409
000090 4f c3 28 3d b8 cc 16 bb 40 7c 31 be 2c 01 4d bd
       0.041201886 -0.0023010205 -0.17332554 -0.050049946
0000a0 6d 23 c0 bd dd 7e bf bd 02 d3 df bc 44 0d 0c 3e
       -0.09381757 -0.09350369 -0.027322296 0.13676935
0000b0 ae e1 07 3c 06 d3 1f be 1c 21 46 bd 51 b8 06 3e
       0.008293552 -0.15607843 -0.04837142 0.13156249
0000c0 26 a3 78 3e 6f 26 04 3e 08 fa 00 bd e1 4c 9e ba
       0.24280986 0.12905286 -0.03148845 -0.0012077355
0000d0 c4 1a ee 3d a8 0c 53 3d 3f ed 59 bc cc c3 2c be
       0.11626199 0.05152574 -0.013301193 -0.16871566
0000e0 c7 5a b8 bd ee 4b d0 3d f9 36 0f bd 7d 93 29 bc
       -0.090016894 0.101707324 -0.034964535 -0.010350105
0000f0 fc 40 23 3b b0 21 19 3e a3 66 8d bc e3 bf a4 bd
       0.002491056 0.14954257 -0.017260855 -0.08044412
000100 bd ac 91 3d d7 e6 1b 3d 2c 42 c6 3d 54 36 a5 bd
       0.07113025 0.038061943 0.0968059 -0.08067003
000110 9b 45 53 be 8a 6e 3b 3e 66 81 b8 3d de 95 29 3e
       -0.20632021 0.18303886 0.09009056 0.16561076
000120 45 be 42 be 12 58 19 be 5a 80 6a 3e f5 93 d2 bd
       -0.19017895 -0.14975002 0.22900525 -0.10282127
000130 d5 54 5b 3b 08 6a 25 be f7 7a 8a 3c 3f 83 02 3e
       0.0033467312 -0.16153729 0.016904337 0.12745379
000140 dd a4 a1 3d e3 5d 68 bd e5 6e fb bc fd 75 96 bd
       0.07892773 -0.056730162 -0.030692527 -0.07346723
000150 7f 0f 88 bd ab 44 51 3c 1e a0 b2 bd b1 99 16 3e
       -0.06643581 0.012772719 -0.08721946 0.14707066
000160 50 b5 f2 3d 7c 37 83 bd 4e 5e 0a 3d 5c 91 a4 3b
       0.11850989 -0.06407067 0.033781342 0.005022211
000170 dc ab 80 3d 87 63 b4 3d 75 e4 bc bd 02 26 9a bd
       0.062827796 0.08808046 -0.09223262 -0.07526781
000180 cb ef aa 3d a8 02 42 3e 18 be 18 3e 59 55 ae bd
       0.08346518 0.18946326 0.14916265 -0.085123725
000190 19 45 03 3e e8 50 09 bd bd 81 af 3c 1e 2d 85 bd
       0.12819327 -0.033524424 0.021424169 -0.06502746
0001a0 6d a8 cb 3d 1f 90 ca 3d e9 44 93 3d 84 3d df 3d
       0.09944234 0.0989077 0.07190878 0.10900405
0001b0 86 a5 eb 3b a2 1e 83 bd 15 58 ca 3b 6b 66 cb bd
       0.007191363 -0.06402327 0.006175051 -0.09931644
0001c0 ba 68 1d bc de fb 6b bd 79 c1 d2 bd fd 78 8c 3b
       -0.009607488 -0.057613246 -0.10290808 0.004286884
0001d0 85 eb 94 bd 05 7d 11 3d fc 40 c9 3d 57 78 f2 3d
       -0.07271484 0.03551962 0.09826848 0.11839359
0001e0 84 40 70 bd 92 2c 0c bd 6a fb 30 3d 59 06 fb bc
       -0.058655277 -0.034222193 0.043208517 -0.030642675
0001f0 b6 6c fd 3d 57 43 00 bc c5 05 86 3d a5 b0 69 3d
       0.123742506 -0.007828555 0.06544069 0.057053227
000200 fa cf 9b 3d c1 73 9e 3d 62 26 74 3d e2 3a 4a 3a
       0.07608028 0.07736922 0.059606917 0.00077144627
000210 42 76 8c 39 00 fc bc bd 11 96 ca bb cb c8 bf bd
       0.0002679099 -0.09227753 -0.00618244 -0.0936447
000220 54 ff 0e 3d ab 36 98 3d db 3c c9 3d f5 33 15 3d
       0.03491147 0.07432302 0.098260604 0.036426503
000230 98 3a da 3b 57 99 d3 bd 86 88 94 3d bc e1 29 3e
       0.006659817 -0.10331982 0.07252602 0.16590017
000240 49 a3 d2 3d 3c df cd bc 9e a0 5b bd 2f 5c ef bd
       0.102850504 -0.02513086 -0.053619973 -0.116875045
000250 28 c6 9e be 87 12 91 be 9d 86 cc bc d1 56 f7 bb
       -0.31010556 -0.28334448 -0.024966532 -0.007548191
000260 a2 91 b1 3c 42 7f 12 3e 39 d9 39 bb 9d ae f0 3d
       0.021675888 0.14306358 -0.0028358235 0.11752055
000270 42 b7 c9 bc f7 a6 04 be 7a ed 62 be bb 1b f2 3b
       -0.024623517 -0.12954317 -0.22160903 0.0073885596
000280 ed 02 2b bd e1 e5 f5 3d a9 92 1d be c8 57 d2 3d
       -0.041750837 0.120067365 -0.15387978 0.10270649
000290 8d 8b f0 3d 7e 8e 38 3d 83 00 94 3b d5 1c ea 3d
       0.11745367 0.045057766 0.0045166626 0.114312805
0002a0 f2 58 45 3e 51 91 3e 3d 19 e7 10 3d 12 ab 62 bd
       0.19272211 0.046525303 0.035376642 -0.055338927
0002b0 cd 57 f6 3a bb 62 c9 3d ee bd fa bd f3 ce c7 bd
       0.0018794477 0.098332845 -0.122432575 -0.09756269
0002c0 b8 76 22 be cd e7 85 bd e5 94 0e 3e a8 e0 83 3d
       -0.158656 -0.06538353 0.13923986 0.06439334
0002d0 b6 a1 da 3d ba 18 9a 3c b3 81 56 3d 95 ad 97 bc
       0.10675375 0.018810619 0.052369785 -0.018515388
0002e0 57 e8 29 3c 83 a9 50 bd a7 47 8b bd fb 9b 05 3e
       0.010370336 -0.05094291 -0.06800776 0.13047783
0002f0 bf 6d 60 3d e6 ac 81 be 78 aa cf bd e4 74 1f be
       0.054792162 -0.25327224 -0.10139936 -0.15571934
000300 a0 2f 27 3e 11 0e 87 3e cc 66 bd bd 75 ed 1f 3d
       0.16326761 0.2637792 -0.092481226 0.039044816
000310 5b a1 11 3d 51 1d 52 bd c9 12 bf 3d 3f 29 2b bd
       0.03555427 -0.05129749 0.09329755 -0.041787382
000320 b0 07 19 be 77 c5 3f 3d 7f 26 03 3e 13 10 31 bc
       -0.14944339 0.046819177 0.12807654 -0.010807055
000330 75 56 5e be 2b 21 81 3d 84 9b 83 3c 5a 0e e0 bb
       -0.21712668 0.063051544 0.016065367 -0.0068376483
000340 ec 29 9c 3c 76 5c a0 3c da 1d 39 bd 23 e0 9a 3c
       0.019062959 0.019575339 -0.045194484 0.018905705
000350 27 68 80 3d 94 da ac bd ba 0a 39 3c ea 1a 3e bd
       0.062698655 -0.08440128 0.011294061 -0.046412386
000360 9f d8 dd 3c f7 1d 08 be 85 b2 55 3d 2c 6e a6 3d
       0.027080832 -0.1329268 0.052172203 0.08126482
000370 81 ec c7 bc 27 81 c7 bd 35 d1 3c bd 31 8b ae bd
       -0.024404766 -0.09741431 -0.046097953 -0.085226424
000380 41 97 8b 3d a2 e8 4a be 40 1c 68 be 69 ad 54 be
       0.06815959 -0.19815305 -0.22667027 -0.20769276
000390 23 58 49 3d 4f 3b 88 3b 2d f1 88 3d 9c 77 5a 3d
       0.04915632 0.0041574608 0.06686626 0.053336725
0003a0 f4 55 63 bc 21 d5 b2 3d 8f aa 29 bd 6a ff 82 bd
       -0.013875473 0.08732057 -0.041422423 -0.063963726
0003b0 9b 92 a2 3d d5 12 03 bc 22 ad 0f be 20 ed c2 3d
       0.07938119 -0.008000095 -0.14030889 0.09517884
0003c0 3e f9 c2 3d eb 76 9c bd b4 63 2d be b3 21 88 bd
       0.095201954 -0.07639869 -0.16932565 -0.066470526
0003d0 a1 3d c8 3d b9 c9 94 3d 0b 69 58 be 90 34 29 bd
       0.0977738 0.07265038 -0.2113382 -0.041309893
0003e0 6d f8 42 3e ff 36 49 bc 88 41 a2 3d f1 a3 0f be
       0.1904008 -0.0122811785 0.07922655 -0.14027382
0003f0 90 6a 1e 3d 10 bf e6 bd a7 49 c4 3b 1e c1 99 3d
       0.038675845 -0.11266911 0.0059902254 0.07507537

convolutional_layers.0.bias f4 [64]
000000 2a 6f 91 3d 23 c0 18 bd ed 83 35 3d ad ff 70 bd
       0.07101281 -0.03729261 0.044315267 -0.05883758
000010 52 b2 78 3d 83 4e fa bc 81 d6 63 3b b5 33 74 3c
       0.060716935 -0.030555015 0.0034765305 0.014904906
000020 3c 20 bf bd 83 7f b3 3c 28 98 70 bb 07 f6 b7 bd
       -0.0933232 0.021911388 -0.0036711786 -0.08982473
000030 2d 01 ef 3c 7d a5 3d bd 72 9a 9f bc 36 73 32 bd
       0.029175365 -0.0463004 -0.019482825 -0.043566905
000040 7a be 6d bc ce 4b d2 3c bd ff f7 bb 82 e0 f8 3d
       -0.014510745 0.025670912 -0.007568328 0.121521965
000050 d9 10 a1 bc a9 fb 41 3d 80 98 48 bd 7c 2f b0 bc
       -0.019661354 0.047359142 -0.04897356 -0.021507017
000060 c2 b1 8d bd 30 cb 86 bb 3f ec 07 be e6 7b 44 3d
       -0.0691867 -0.0041135773 -0.13273714 0.04796972
000070 90 1a 1e 3d 59 ff 17 3b 20 3a 1f 3c d4 53 9c 3c
       0.03859955 0.002319297 0.009718448 0.019082941
000080 27 bb 9f 3c cb 95 85 3c c7 41 94 bc f0 ce 11 bd
       0.01949842 0.016306778 -0.018097771 -0.03559774
000090 39 08 35 3d 2a 56 40 3d eb b5 5d 3d ec e4 e1 b9
       0.044197295 0.046957172 0.05412857 -0.00043085904
0000a0 c7 59 b7 3c 9b 5b 81 3c d5 b1 ee bc 58 ad 6b bd
       0.022381676 0.015790751 -0.029137531 -0.05753836
0000b0 da 8b 2a 3b 96 dc 55 3c 44 19 77 3d 27 a3 f4 3a
       0.00260233 0.01305308 0.06032683 0.0018664346
0000c0 8e 3f 1a bd 35 bc f9 3c c8 a8 a0 bc 8f 1a b5 3c
       -0.037658267 0.030485252 -0.019611731 0.02210739
0000d0 9b 68 ea 3c 6b 1a fa bc fe 59 06 3d be 00 e0 ba
       0.028614333 -0.030530175 0.032800667 -0.0017090065
0000e0 c6 0a 8e 3c 98 d4 3d bd 87 cf 35 bd 37 a8 85 3c
       0.017339122 -0.046345323 -0.044387367 0.016315563
0000f0 e5 06 64 3d 34 66 0f bb 55 7a f1 bb 95 8e 07 bd
       0.055670638 -0.0021880986 -0.0073693194 -0.03309496

convolutional_layers.1.weight f4 [64]
000000 be a0 86 3f 26 db 7f 3f 1c 6f 75 3f b7 4b 7d 3f
       1.0517805 0.9994377 0.95872664 0.98943657
000010 ef 01 72 3f 99 8e 6b 3f 79 7f 85 3f 9a e4 85 3f
       0.945342 0.9201446 1.0429527 1.0460389
000020 c6 3d 77 3f 58 23 6c 3f 8f 7c 7b 3f b6 09 75 3f
       0.96578634 0.9224143 0.98236936 0.9571794
000030 53 c1 79 3f 1f 67 84 3f e8 6b 89 3f 0d d7 7f 3f
       0.97560614 1.034397 1.0736055 0.99937516
000040 5f c6 70 3f 43 7a 7c 3f aa 21 7d 3f bc e0 81 3f
       0.9405269 0.98624057 0.9887949 1.0146708
000050 a8 3f 82 3f d6 8e 8e 3f e9 05 77 3f 24 e2 8a 3f
       1.0175676 1.113734 0.96493393 1.0850263
000060 c6 c6 8b 3f 9a db 6c 3f d9 68 93 3f 01 96 6f 3f
       1.0920036 0.92522585 1.1516372 0.9358826
000070 49 12 80 3f 65 e9 75 3f 64 73 7f 3f 50 67 7b 3f
       1.000558 0.96059257 0.9978545 0.9820452
000080 12 44 77 3f 20 75 69 3f ee cf 81 3f 7e b5 84 3f
       0.9658824 0.91194344 1.014158 1.0367887
000090 f2 51 6b 3f a9 f9 81 3f af 20 80 3f 3c 62 74 3f
       0.91921914 1.0154315 1.0009974 0.95462394
0000a0 47 c3 7d 3f ac 2e 81 3f 65 09 86 3f d6 40 73 3f
       0.99126095 1.0092368 1.0471617 0.95020807
0000b0 27 04 81 3f 99 f1 6c 3f 6a eb 72 3f 64 ac 83 3f
       1.0079392 0.9255615 0.94890463 1.0286984
0000c0 41 5d 81 3f 53 53 6e 3f 9b d5 83 3f 53 85 81 3f
       1.0106584 0.9309589 1.0299562 1.0118812
0000d0 be e5 72 3f 47 ec 5c 3f 6f 61 6c 3f c7 95 7c 3f
       0.9488181 0.8629803 0.9233617 0.9866604
0000e0 45 bf 80 3f 59 91 80 3f 84 aa 84 3f dd 73 8e 3f
       1.0058371 1.0044357 1.0364537 1.1129109
0000f0 7f 7e 79 3f 15 5f 86 3f 3f dd 5e 3f 8d 75 84 3f
       0.9745864 1.0497767 0.87056345 1.0348374

convolutional_layers.1.bias f4 [64]
000000 d8 37 88 3b c1 4f a6 3d 0f 45 3b bc 9d bb 9f bc
       0.0041570477 0.081206806 -0.011430039 -0.01949864
000010 0f 17 c3 3c 4e 4b bc 3d a9 2d 5b bc ec 30 9f bd
       0.023814706 0.09194051 -0.013377585 -0.07773003
000020 62 80 f4 3c b6 61 01 bd 5e 79 21 3c da e9 90 3b
       0.029846374 -0.031587325 0.009855596 0.0044224085
000030 5a 0b 61 3d ed 08 3c 3c 28 f8 d6 bc 4b ff 87 3d
       0.054942466 0.011476737 -0.026241377 0.0664049
000040 43 dc 9a 3c 12 61 1d 3c 50 8b d2 3b 5d f5 a2 bd
       0.018903857 0.009605663 0.0064252988 -0.079569556
000050 e3 00 ef 3c 3e b1 23 bb c0 eb 42 3e b5 cb 28 bd
       0.029175228 -0.002497747 0.19035244 -0.041209895
000060 a4 2f fd 39 93 8f 50 bd 35 4a 16 bd 23 50 5b bc
       0.00048291415 -0.050918173 -0.036691863 -0.013385805
000070 47 b2 ec 3c 90 25 19 3d b3 6e 9e 3c af 4b 24 bd
       0.028893603 0.037389338 0.019339895 -0.04011124
000080 a5 33 97 3c 16 b8 37 bd 7d 17 38 3d 4b d8 74 bd
       0.018457243 -0.044853292 0.044944275 -0.059776586
000090 a3 0b 76 bc 13 46 a2 3d c6 63 b8 3d 7c bc 2e bd
       -0.015017423 0.07923522 0.09003405 -0.04266022
0000a0 8f d1 f2 bc 3d f8 14 bd 7a b2 6e bc f2 c6 d6 bc
       -0.029640941 -0.03636955 -0.014568919 -0.026217911
0000b0 4f 31 d1 3c 32 11 ab bc 83 d0 40 bc e7 05 a1 bc
       0.025536207 -0.020882223 -0.011768463 -0.019656135
0000c0 20 86 4b bd 98 0f 3b 3e 10 f3 ad 3c 80 b3 a7 bc
       -0.04968846 0.18267667 0.021234065 -0.020471334
0000d0 44 06 84 bd bb 58 e3 3c 97 eb b7 bc 13 03 a7 bc
       -0.064465076 0.02775227 -0.022451205 -0.020387208
0000e0 60 0b 83 bb 59 95 68 bd 7f ea 4d bd ba 08 6c bd
       -0.0039991587 -0.056783054 -0.05027246 -0.05762551
0000f0 94 22 f9 bc 9f be 12 bc f5 79 e9 3b 7b 10 f6 bb
       -0.030411996 -0.00895658 0.007125134 -0.007509289

convolutional_layers.1.running_mean f4 [64]
000000 04 54 92 3d 20 03 17 bd 65 31 33 3d 5e 1c 80 bd
       0.07144931 -0.036868215 0.04374828 -0.062554106
000010 f9 b4 7a 3d 8e e5 e4 bc fd 4c 89 3b 3e 6d 7d 3c
       0.061207745 -0.027941491 0.004190086 0.01546794
000020 17 25 b7 bd 68 10 f8 3c 7d 8f c9 3a 78 ec ad bd
       -0.08942621 0.03028126 0.0015377846 -0.084923685
000030 ba 6b eb 3c ae a9 3d bd cc 58 a0 bc cd d7 1d bd
       0.028737891 -0.046304397 -0.019573592 -0.03853588
000040 20 6d 53 bc 1d 3e d6 3c 0d ce a3 bb 86 fa f8 3d
       -0.012904435 0.026152665 -0.0049989284 0.121571586
000050 5d 61 a0 bc 9f a2 40 3d 7f ce 47 bd 39 a4 ba bc
       -0.019577676 0.047030088 -0.048780914 -0.022783386
000060 7c 93 8f bd 3d b2 04 bb 0f fe 06 be 32 0b 3e 3d
       -0.07010552 -0.002024784 -0.13182853 0.046397395
000070 48 ba 16 3d fe c9 b2 3b ed ac 5d 3b bd 05 a0 3c
       0.036798745 0.0054562083 0.0033824996 0.019533986
000080 26 f4 94 3c c4 d0 65 3c 13 ab a0 bc 72 cb 1e bd
       0.018182825 0.014026824 -0.019612825 -0.03876824
000090 05 bb 36 3d 2b 79 50 3d 2c f0 5b 3d 80 2b 29 3b
       0.04461195 0.050896805 0.053695843 0.0025813282
0000a0 ae 45 bd 3c b0 4a 83 3c f0 a2 f1 bc bc a8 6c bd
       0.023104515 0.016026825 -0.02949664 -0.057778105
0000b0 d6 3c 0a 3b 8d 0c 69 3c 15 fe 74 3d 6e a5 07 3b
       0.002109339 0.014224184 0.059812624 0.002069797
0000c0 10 d6 0f bd 67 5d 09 3d 3f f4 8f bc f6 3d b4 3c
       -0.035116255 0.03353634 -0.01757252 0.022002202
0000d0 3a 08 ec 3c a0 3a 04 bd cd 63 09 3d 58 84 5b bb
       0.028812516 -0.03228247 0.033542443 -0.003349563
0000e0 3a 94 98 3c c1 72 38 bd 27 27 27 bd 7e 61 8d 3c
       0.018625367 -0.045031313 -0.040808823 0.017258402
0000f0 58 41 68 3d 61 35 b3 bb 28 09 f6 bb 5f e5 06 bd
       0.05670294 -0.0054690097 -0.0075084157 -0.03293359

convolutional_layers.1.running_var f4 [64]
000000 96 f7 85 3f 3e 45 ce 40 f3 fb ff 40 46 bb 27 41
       1.0466182 6.4459524 7.9995055 10.483221
000010 02 97 03 40 ba 65 02 40 a4 5f ef 3f 2f 4d cb 41
       2.0560918 2.037459 1.8701062 25.412687
000020 d4 27 b7 41 8d 06 0e 43 54 e6 e0 40 b7 c4 d0 41
       22.894447 142.02559 7.028116 26.096052
000030 88 4e 20 41 19 f0 4f 41 f2 e3 56 3f 40 50 7f 41
       10.019173 12.996118 0.83941567 15.957092
000040 32 0e 62 40 0d 50 ff 3f b1 0b 8a 41 05 05 65 3f
       3.5321164 1.9946305 17.255709 0.89460784
000050 75 29 99 3f 7a 7a 86 3f e2 83 19 40 30 57 97 3f
       1.1965777 1.0506127 2.3986745 1.1823483
000060 eb 8d 8d 3f 9c 9f 79 3f 46 9c 04 3f 2d ed 59 3f
       1.1058935 0.9750917 0.51800954 0.85127527
000070 20 d8 a7 40 f8 ea 88 41 6b c8 9c 41 c3 3d 59 3f
       5.2451324 17.11473 19.59786 0.84859866
000080 04 6a 91 3f 83 96 c3 40 6c 72 c5 40 46 f6 e5 40
       1.1360478 6.112123 6.1702175 7.1863127
000090 23 81 5d 3f 4f 01 08 41 11 0a c4 40 7e 75 ca 3f
       0.8652517 8.5003195 6.126229 1.5817106
0000a0 36 94 54 3f 2b d5 2c 3f 6c f9 05 3f 11 27 d2 3f
       0.8303865 0.6751277 0.5233371 1.6418172
0000b0 31 33 9b 3f 5a bc 6a 40 70 7d 9f 40 87 ab 9c 40
       1.2124997 3.667746 4.984062 4.8959384
0000c0 da 7f 58 40 6e 2a 04 41 d7 ef 6a 40 6e be bb 3f
       3.3828034 8.260359 3.6708887 1.466749
0000d0 53 1b 2d 40 6d 5d 53 40 3f 5f 77 40 5d 5b a4 3f
       2.7047927 3.3025773 3.8651884 1.2840382
0000e0 b4 61 3e 3f eb 37 44 3f 73 26 16 41 eb 58 f7 3e
       0.74367833 0.76647824 9.384387 0.48310027
0000f0 c1 2a da 3f 50 a6 7d 40 4c ba d3 3e 66 76 ce 3f
       1.7044297 3.963276 0.4135307 1.6129882

convolutional_layers.3.weight f4 [32, 64, 5]
000000 c4 f2 5e be dd 38 c0 bd 7f da 1b be b0 ea 43 bc
       -0.21772295 -0.09385846 -0.15220068 -0.011957809
000010 2d 9c 19 be 59 7d 23 3e 03 ea 05 bd bf 41 b0 bc
       -0.15000983 0.15965785 -0.032693874 -0.021515725
000020 9e a4 0c 3d 63 29 07 bd d0 ba 40 3d 91 9c 8f bd
       0.03433668 -0.032998454 0.04705316 -0.070122845
000030 9f 98 1a bd 91 59 94 ba 11 db a3 bd a9 58 df bc
       -0.037743207 -0.0011318197 -0.08000768 -0.027263956
000040 87 f9 03 3e e9 cf dd 3c 81 40 c6 3b d6 b4 ad 3c
       0.12888156 0.027076678 0.00605017 0.021204393
000050 b5 f8 56 3c 08 1c 2d bd 86 6b 23 3a ac 68 ad 3d
       0.01312082 -0.04226306 0.0006233979 0.0846723
000060 31 ba 80 3c 88 a5 76 bd 6f 99 a7 bd de fc 1d 3d
       0.015713783 -0.060216457 -0.08183562 0.03857123
000070 7b ff 7c 3d f5 89 a9 bd cd 97 30 be 25 87 31 be
       0.061767083 -0.08278266 -0.17245407 -0.1733671
000080 c0 70 f8 3b b4 7e cf bc 9e 70 8a be ec d2 3c 3d
       0.0075818 -0.025328971 -0.27039045 0.04609959
000090 22 b5 c3 bd ae ce 5f bd 40 28 28 3d 86 a2 db bc
       -0.09556033 -0.054640464 0.04105401 -0.026810896
0000a0 08 76 30 3e c9 c8 aa 3c 7f 8c 13 3d 5e df 1a 3e
       0.17232525 0.020847695 0.03602266 0.1512427
0000b0 c0 1b 8e 3d 09 f5 66 bd f6 eb 6a 3d 6e fa cf ba
       0.06938887 -0.056386027 0.057353936 -0.001586748
0000c0 e1 ab af 39 c2 c6 da bb cc 6f 10 be 5f a0 2a bd
       0.0003350666 -0.006676526 -0.14105147 -0.041656848
0000d0 80 4b 9d 3d 6c c5 e2 3b 9d 33 74 3d ce 0d 49 3e
       0.07680416 0.006920507 0.059619535 0.19634172
0000e0 e1 27 58 3d 5b 5b 1e 3e 0f a6 e1 3a 6d 0b 52 bd
       0.052772406 0.15464537 0.0017215627 -0.051280428
0000f0 71 45 9c bc a2 88 55 be ae 43 3a ba e7 3a 99 3b
       -0.019076081 -0.20852903 -0.0007105422 0.004676211
000100 32 d5 7c bd 7f bf e0 bd 02 d6 aa bd e4 cd a0 3c
       -0.061726756 -0.10974025 -0.083416 0.019629426
000110 19 cf 8f be c9 2c 3a be 36 30 17 bd bb 3a 46 bd
       -0.2808769 -0.18181147 -0.036911212 -0.048395853
000120 55 cb 34 bd 5d 4b dd 3d 83 34 a1 bc ea d1 c1 3d
       -0.044139225 0.1080539 -0.01967836 0.09463866
000130 0d 5d b7 bd 60 0a 50 bc 57 eb ec bd 92 68 a4 3d
       -0.08953295 -0.012697786 -0.11568325 0.08027758
000140 c0 24 75 bb 34 a4 3e bc 51 3a 32 bd a0 0b 3f 3d
       -0.0037405938 -0.011635829 -0.043512646 0.046641946
000150 d3 7e af 3d 9a 93 89 bd 2f 94 51 3d 33 9f fa 3c
       0.08569112 -0.06717606 0.05116671 0.03059349
000160 40 36 8d bb 44 b6 a4 bd a9 41 14 3d 00 1b dc bc
       -0.0043094456 -0.08042577 0.03619543 -0.026868343
000170 17 37 b3 bd c6 0c 57 3d 15 06 60 bc d6 3c c5 3c
       -0.08750742 0.052502416 -0.013673325 0.02407686
000180 b7 73 12 3d 64 f9 36 3e 8c 0e 03 be 2b 44 e4 3d
       0.035754886 0.17868572 -0.12798518 0.111458145
000190 18 f7 7c bd 67 53 ce 3b 00 d4 9b 3c 91 cb e8 3d
       -0.061759084 0.0062965634 0.019021988 0.11366952
0001a0 6e e7 2b 3d e9 11 cf bb 7b 2f 2f 3c 59 cd f6 3d
       0.041968755 -0.0063192737 0.010692473 0.12050886
0001b0 2d a0 d5 ba ca e2 2e 3d 7b 04 38 be 05 82 2c 3c
       -0.0016298346 0.04269675 -0.17970459 0.010529046
0001c0 a2 c8 f9 bd 65 d6 02 bd cd fe 84 bc d5 1a 63 3d
       -0.12196471 -0.031942744 -0.01623478 0.05544551
0001d0 aa e4 66 3e 21 70 fb 3d 39 44 a5 3e 76 09 94 3e
       0.22548166 0.12277246 0.32278612 0.28913468
0001e0 8c 1b 0f 3e 5c e5 9d 3d 4a 68 6b 3d 62 f5 87 3d
       0.13975352 0.077097625 0.057472505 0.066386
0001f0 82 07 8a bd 05 23 1e be 2c 28 2c 3d 65 c9 a5 bc
       -0.06739713 -0.15443046 0.0420305 -0.020237634
000200 51 3a d4 bc 2a bc 92 bd 40 cb 97 bd 6a 73 93 bd
       -0.025906714 -0.07164796 -0.07411814 -0.07199748
000210 ed 21 54 be 63 67 3b bd 03 f9 1b bd 76 03 f8 bd
       -0.20716067 -0.045752894 -0.038079273 -0.12110035
000220 20 29 65 3c 7d c3 cc bd 26 db 9b bd 0b 81 7e bd
       0.013986856 -0.09998224 -0.076101586 -0.062134784
000230 df af 20 3e 4e 4b 19 bc 5e a9 88 bc 7b 77 b5 3d
       0.1569209 -0.009356333 -0.016682323 0.0886068
000240 2a 4a ad 3d 6e 37 a6 bd a4 64 84 3c f7 6d 7e bd
       0.08461411 -0.08116041 0.01616127 -0.06211659
000250 8e 60 9d bd cd 3e 83 bd 5a 2d ed bd 0f 7e 38 be
       -0.07684432 -0.06408463 -0.11580916 -0.18016838
000260 0f bd fc ba a1 12 ed bd 14 bd 27 be 36 99 64 bd
       -0.0019282418 -0.11575819 -0.16380721 -0.055810176
000270 e5 a0 d9 3d 78 6e 35 3d 3f c6 0e 3b 7f 2e 48 3c
       0.10626391 0.044294804 0.0021785644 0.012218117
000280 14 9f 22 3d fe cf 7a bd 55 9e 23 3a b7 c5 09 3d
       0.03970249 -0.061233513 0.000624155 0.03363582
000290 8a 03 44 bd 70 28 b2 bd a5 a6 65 3d 0b 72 d7 bc
       -0.047854938 -0.08699119 0.056067128 -0.026299497
0002a0 a7 6b 37 3c a7 02 2e 3d 0f f8 56 3c 93 32 57 3d
       0.0111951 0.042483 0.013120665 0.052538466
0002b0 b5 24 ab 3d 4a b5 67 bd eb cd 5d bd a0 a9 f6 bb
       0.08356611 -0.056569375 -0.054151457 -0.007527545
0002c0 5a b7 20 be a4 6b 6c bd 2d 17 51 3c 9d d4 f3 bc
       -0.15694943 -0.05771984 0.012761873 -0.029764468
0002d0 45 85 2d bc 7b 31 53 3d 6a 2b 16 3d ac 02 53 3c
       -0.010590856 0.05156086 0.036662497 0.012879055
0002e0 38 8b af 3d 2e a7 12 3d 06 91 51 bd 3b d1 79 3d
       0.08571476 0.035803966 -0.051163696 0.060990553
0002f0 09 4a f7 3d 5b bb bd bc 7f 17 90 bd c8 c6 95 3c
       0.12074668 -0.023160627 -0.070357315 0.018283263
000300 3b 10 bb bd 5c dc 0b 3e b7 f1 f1 bc 18 84 cb 3d
       -0.09133955 0.13658279 -0.029534204 0.09937304
000310 55 a7 1a 3e 1d e5 30 bc 67 53 ab 3d 3a fd 3a 3c
       0.15102895 -0.010796812 0.08365517 0.011412913
000320 0f dd bc bd 94 40 b8 bd 12 c2 0e bd d9 eb 21 bb
       -0.09221851 -0.08996692 -0.03485305 -0.0024707227
000330 3a b4 90 bd cf dc 1f bd 54 39 3c be 8e 90 03 be
       -0.070656255 -0.03902894 -0.18381244 -0.12848112
000340 83 f1 9e be f8 86 73 be cc 7e 69 3d 41 f0 8e 3c
       -0.31043634 -0.23781955 0.05700569 0.017448546
000350 1d c3 1c 3e b9 29 a7 3d aa c9 92 bc 6c d7 8c bc
       0.15308805 0.08162255 -0.017918427 -0.017192565
000360 d5 f0 db 3d d0 28 02 be 8c dd b6 bd f4 ab 79 bd
       0.107392944 -0.12710881 -0.089289755 -0.060955003
000370 ff e8 81 3d 11 10 97 3d 45 37 28 3d 14 84 20 3d
       0.063432686 0.07376111 0.041068334 0.03918846
000380 00 cc 0c 3e 06 5c 98 bd 87 d1 1a be 50 58 e2 bd
       0.13749695 -0.07439427 -0.15118991 -0.110520005
000390 17 0e 36 3d b8 7e e5 bd 7f 7f c9 3d bc 5e a1 3d
       0.04444703 -0.1120581 0.09838771 0.07879397
0003a0 df b9 32 be f7 7b 72 3d 6c d9 74 bd c3 87 b6 3c
       -0.17453717 0.059200253 -0.059777662 0.022281533
0003b0 e0 e4 af 3b fe 59 7f 3d df 21 5b 3d 74 e8 9a bd
       0.00536786 0.062341683 0.0534991 -0.07563868
0003c0 64 a3 67 3d c5 74 cc bd 5c b4 3d 3d 3a da bb 3d
       0.056552306 -0.099832095 0.046314582 0.09172483
0003d0 21 65 57 3d c8 d8 a3 38 1c dd a8 bc 0f 7a a1 bd
       0.05258668 7.812824e-05 -0.020613246 -0.07884609
0003e0 12 72 46 3c 8a 7b 83 3c 65 9b 32 3d fa 60 bc bc
       0.012112157 0.016050119 0.043605227 -0.02299546
0003f0 d4 89 05 bb 1b a1 cc 3d bb 8b 0a 3c be 26 39 be
       -0.0020376341 0.09991666 0.008456166 -0.18081185

convolutional_layers.3.bias f4 [32]
000000 61 73 03 3e 21 e8 21 3b e0 99 56 3d 75 21 0c ba
       0.12836982 0.002470501 0.05239284 -0.00053455617
000010 31 59 30 3d 1e fe f8 bb 5f 81 b6 3b 54 8c b3 3b
       0.04305381 -0.0075986525 0.0055696215 0.005479375
000020 ab f4 2e 3d 3b 8c cc 3c 96 9a 0a 3d c5 97 2c bc
       0.042713802 0.02496921 0.03383883 -0.010534232
000030 29 5c 3f bd ed d1 aa bd c2 68 5f 3d da e7 9f 3c
       -0.04671875 -0.083408214 0.054543264 0.019519735
000040 00 3f 24 3d 9d e5 20 bc 0c 02 06 bc 5f 49 c0 bc
       0.040099144 -0.009820369 -0.008179199 -0.023472486
000050 20 bd de 3b 7c 75 b3 3c 08 19 87 bb d0 d4 f2 bc
       0.006797448 0.021906607 -0.004122857 -0.029642493
000060 83 9a 53 3b 16 07 0c bd aa c0 00 3d 26 6b ff bb
       0.003228814 -0.034186445 0.03143374 -0.0077947555
000070 fe e7 2f bb 8c 22 b6 bc 60 dd f6 3b 68 a8 dd bc
       -0.002684116 -0.02223327 0.007533714 -0.027057841

convolutional_layers.4.weight f4 [32]
000000 96 4b 89 3f f1 ce 8e 3f 11 ac 85 3f 9c 5a 86 3f
       1.0726192 1.1156904 1.0443135 1.0496402
000010 ad 4f 89 3f 29 2b 8d 3f d3 95 6a 3f 1b 1f 6d 3f
       1.072744 1.1028796 0.91634864 0.9262559
000020 27 b8 81 3f 0a 0f 6f 3f a0 c5 81 3f 50 4b 84 3f
       1.0134324 0.9338232 1.0138435 1.0335484
000030 e3 82 8d 3f 66 00 84 3f ab c3 87 3f 3a cf 69 3f
       1.1055568 1.0312622 1.0606588 0.9133183
000040 bf 6d 69 3f 89 09 74 3f 98 05 90 3f 19 95 66 3f
       0.91183084 0.9532705 1.1251707 0.90071255
000050 6d 01 6f 3f b6 f4 86 3f 2f 16 83 3f 5d 37 89 3f
       0.9336155 1.054343 1.0241145 1.072002
000060 65 59 5f 3f 09 79 83 3f 37 e3 75 3f e2 0b 8c 3f
       0.8724578 1.0271312 0.9604983 1.0941126
000070 f7 66 64 3f 1e 81 83 3f 36 96 81 3f 82 96 84 3f
       0.8921961 1.0273778 1.0123966 1.0358431

convolutional_layers.4.bias f4 [32]
000000 14 ef 13 be 69 d7 41 bd 7a c0 18 be 2d 3b 01 be
       -0.1444667 -0.04732457 -0.14917174 -0.1262023
000010 1e f8 c5 bd 31 96 b8 bd a3 14 c7 bd 89 1c 9b 3d
       -0.09666465 -0.09013022 -0.09720733 0.07573802
000020 07 82 06 be f1 8e 0b be a6 13 34 be 74 33 e5 bd
       -0.13135539 -0.13628747 -0.1758562 -0.111914545
000030 94 46 15 bd 41 34 2b bd 75 22 8c bd f8 cd d3 bd
       -0.03644426 -0.04179788 -0.0684251 -0.1034202
000040 92 58 f2 bd 3c 4e 28 bd 1e 70 e3 bc 65 e9 38 be
       -0.118333 -0.041090235 -0.027763423 -0.18057783
000050 99 b1 16 be d5 5c 34 be 74 6a 82 bd 4e 51 73 bd
       -0.14716186 -0.17613538 -0.063679606 -0.05940371
000060 51 12 f6 bd 9b 05 e9 bd a8 8e 26 be f6 9d bf 3d
       -0.12015212 -0.11378022 -0.16265357 0.093563005
000070 8f b7 2c be 60 e2 6f bd 2f 58 e1 bd 59 6c 0f be
       -0.16866897 -0.058565497 -0.11003148 -0.14006175

convolutional_layers.4.running_mean f4 [32]
000000 37 88 75 bf 29 25 8d bf 93 e1 90 bf 2e b6 a3 bf
       -0.9591097 -1.1026965 -1.131884 -1.2789972
000010 87 67 a5 bf a7 98 df bf 39 44 93 3f fe 61 87 3f
       -1.2922219 -1.7468461 1.1505195 1.057678
000020 96 dd 98 bf 35 e7 9e 3f 88 83 5f bf 25 fe c2 bf
       -1.1942623 1.2414309 -0.87310076 -1.5233809
000030 a8 7a d5 bf 9a 8b 0f c0 27 d3 ab bf 72 db 17 bf
       -1.6678057 -2.2428956 -1.3423814 -0.5931922
000040 e6 11 18 bf 8a 5c 75 3c 9a ef 93 bf fe 1d 04 be
       -0.5940231 0.014975676 -1.1557496 -0.12902066
000050 c9 32 3b bf 0c 50 ca bf ab 2b ac be 62 56 90 bf
       -0.73124367 -1.5805678 -0.33627066 -1.1276362
000060 0d 99 09 be dd 98 2c bf 4a 3c 01 3f 43 10 92 bf
       -0.1343729 -0.6742075 0.5048262 -1.1411213
000070 bc d0 aa bd 3a 1f e2 bf 10 db c5 bf fd 99 0c c0
       -0.08340594 -1.766578 -1.5457478 -2.1968987

convolutional_layers.4.running_var f4 [32]
000000 e8 43 a2 3f 5d fa 91 3f bc ce bb 3f 2f fa 6d 3f
       1.2676973 1.140453 1.4672465 0.92959875
000010 d7 cc 99 3f c9 d0 17 40 5e 1c d8 3f 92 32 3c 40
       1.2015637 2.3721182 1.6883657 2.9405866
000020 ce 2a 0c 40 65 4c 4c 40 95 aa fb 3f f5 94 a5 40
       2.1901126 3.1921628 1.9661433 5.174433
000030 06 9a f5 3f af 97 6f 40 34 b0 d7 3f 10 51 c9 3f
       1.9187629 3.743633 1.6850648 1.5727863
000040 d6 28 0c 40 9b df 79 3f 48 c8 93 3f 9a 3a 0b 40
       2.1899924 0.9760682 1.1545496 2.1754518
000050 39 77 ff 3f e9 d3 a1 3f 31 a1 b5 3f f4 b5 c9 3f
       1.9958259 1.2642795 1.4189817 1.5758653
000060 81 58 d7 40 3f 08 40 3f 8f 1f ae 3f 10 91 cd 3f
       6.7295537 0.7501258 1.3603381 1.6059895
000070 4f a9 0f 40 1c 22 d2 3f 74 de 06 40 10 ce 00 41
       2.2447088 1.6416659 2.1073275 8.050308

convolutional_layers.6.weight f4 [16, 32, 5]
000000 99 8a d9 bd 3c 80 1d be 06 24 f6 bc b3 98 8d 3d
       -0.106221385 -0.15380949 -0.030046474 0.06913891
000010 0d a9 ba bd 9f 56 a1 bd 72 a7 ea bd 4b 98 56 be
       -0.09114275 -0.0787785 -0.11457719 -0.20956533
000020 d3 63 4d be 0b 66 20 be 1b 37 76 be f1 79 81 be
       -0.20057611 -0.15663926 -0.24044459 -0.25288346
000030 3c ab a2 3d d4 63 0f 3d af 50 0b bd 3e 14 8e 3b
       0.079428166 0.035007313 -0.034012493 0.004335909
000040 c4 63 11 3d f5 b2 ee bd 4e 81 0e 3e 31 78 06 3e
       0.035495535 -0.11655227 0.13916513 0.13131787
000050 76 8c 63 3e 2d c7 e7 3d f4 92 40 3d fd 0e 76 3d
       0.2222155 0.11317287 0.047015145 0.060072888
000060 7b 8a 0f 3e 1f de c2 3d ae 19 eb bd c6 01 3c 3d
       0.1401767 0.095150225 -0.114795074 0.04590013
000070 b0 94 21 3d e9 7f 4e 3e ce 67 38 be 27 b8 98 3d
       0.03944844 0.20165981 -0.18008348 0.07456999
000080 62 e2 b1 38 92 9f a5 3d 52 44 23 be 03 e5 ac bd
       8.482185e-05 0.08087076 -0.15944031 -0.08442118
000090 4b 68 04 bd ec 06 11 be ec 94 0a be 03 c2 37 bd
       -0.032326024 -0.14162797 -0.13533372 -0.04486276
0000a0 71 47 99 bd 30 8b ca bd b3 a0 ed 3d fa dc 19 3d
       -0.074843295 -0.09889829 0.116029166 0.037564255
0000b0 3a 72 64 3d 93 81 48 bd f0 4b 8b 3d 87 e0 ac bd
       0.055772997 -0.048951697 0.06801593 -0.08441263
0000c0 a3 36 04 be 5f 11 b4 3d 03 c4 72 3d 51 d1 80 3d
       -0.12911467 0.08792376 0.059268963 0.06289924
0000d0 38 70 d9 bd 8d be c0 bd 72 21 98 bd 5c 6d 4b 3d
       -0.10617107 -0.09411345 -0.07428254 0.04966484
0000e0 b3 ac fc 3d 11 ff 4f bd f6 58 a3 3d a2 35 58 bd
       0.12337627 -0.05078036 0.07975952 -0.052785523
0000f0 38 4f 58 bd 2e 8d d5 bd 8e 2f 12 be e9 b9 d5 bd
       -0.052809924 -0.104273185 -0.14275953 -0.1043585
000100 5e cf 18 bc 85 3f 32 bd 01 dc cd 3c 9d f3 7a be
       -0.009326784 -0.04351761 0.02512932 -0.24506994
000110 cb e5 07 3c 89 e3 fd bd cf 6d 2a be fa 94 ef bd
       0.008294533 -0.123969145 -0.16643451 -0.11698337
000120 a9 23 7e be 4f 80 27 be 23 72 00 be f8 a2 74 3d
       -0.24818291 -0.1635754 -0.1254354 0.05972573
000130 4c 61 8b bd e8 5c fc bc 6d 6f 17 be 81 b1 2c be
       -0.06805667 -0.03080602 -0.147886 -0.16864587
000140 3d b1 4d 3d 5f 91 d9 bd 7a 7e f7 bd 3c 0f f0 bb
       0.050217856 -0.106234305 -0.1208467 -0.007326035
000150 65 e9 89 3d 0d 1b ba 3d 41 e7 37 3e 63 8b 47 3e
       0.067339696 0.09087191 0.1795931 0.19486766
000160 a8 0f 2e 3e 86 fd 14 bd 87 e7 8c 3e 11 52 4f 3e
       0.1699816 -0.03637459 0.2752039 0.2024615
000170 1d a4 08 3e a1 03 0a 3e 20 c2 81 3e 52 ee 99 bd
       0.13343854 0.13477947 0.25343418 -0.07516159
000180 b4 5e 1c 3d 3c 72 cd 3b 86 05 14 3d f4 e6 15 3d
       0.038176253 0.0062697213 0.03613808 0.036597207
000190 df a6 11 3e 4f b2 bf 3d 2e 58 5b bd b9 8d 99 3c
       0.14223813 0.093601815 -0.05355089 0.018744336
0001a0 56 c1 89 bb d6 23 86 bd b1 5f e2 bd 4a 75 01 be
       -0.0042039556 -0.06549804 -0.11053408 -0.12642398
0001b0 cd 7f c2 bc 47 64 3f bd 85 53 31 be 91 25 87 bd
       -0.02374258 -0.04672649 -0.17317016 -0.06598962
0001c0 60 d5 e5 bd 62 9d 1c be 84 91 11 3d 65 8c a4 3c
       -0.11222339 -0.15294412 0.035539165 0.020086477
0001d0 52 44 49 bd c9 78 a3 bd 6a 38 c3 bd d3 ae 37 be
       -0.04913742 -0.07982022 -0.095322445 -0.17937784
0001e0 1c f9 02 be a4 a9 7b bd ef 1f 67 bd 40 98 06 3e
       -0.1279034 -0.06144108 -0.05642694 0.13144016
0001f0 10 7b 0e be 4a 7b af bd 09 dd 92 3d 12 08 a5 3d
       -0.13914132 -0.085684374 0.07171065 0.0805818
000200 94 81 0e be 21 c5 5a 3c d5 49 c1 3d bc 81 2f 3e
       -0.13916618 0.013352663 0.094379105 0.17139333
000210 d3 86 9a bd 17 b4 16 3e d5 65 cc bc 31 b0 e3 bd
       -0.07545247 0.14717136 -0.024950901 -0.1111759
000220 ef 77 bc bd 8b dd 39 bd 42 0b a5 be 00 9c 90 bd
       -0.09202563 -0.045377295 -0.32235152 -0.07061005
000230 a4 4e a2 3d 4e 5a bb 3d ea bf 31 bd 60 38 f4 bc
       0.07925156 0.091480836 -0.043395914 -0.029812038
000240 75 36 16 be ac 54 88 bd 2b d0 88 3d a2 bb 1f bd
       -0.14669211 -0.06656775 0.0668033 -0.0389973
000250 f9 46 81 3d d3 1d 8d bd 4d cd d9 bd ab f4 e8 bd
       0.06312365 -0.06890454 -0.10634861 -0.11374792
000260 24 6e 1b be 82 19 14 3d 80 ed 78 3d d1 31 c2 bc
       -0.15178734 0.03615714 0.060773373 -0.023705395
000270 a2 a4 52 be 54 e8 97 bd a4 b3 28 bc b7 2d 6e bd
       -0.20570615 -0.0741736 -0.010296736 -0.058149066
000280 c4 01 79 3e c6 1a 5f 3e c4 e3 3b 3d aa 38 23 3e
       0.2431708 0.21787557 0.04587151 0.15939584
000290 f7 7f 96 3d 0a db 40 3d 84 a5 be 3d df 8f cf bc
       0.07348626 0.047083892 0.09308913 -0.025337158
0002a0 ab 5d 37 3e a8 b5 c6 3d b2 36 c2 3d 4b 33 63 3e
       0.17906825 0.09702617 0.094830886 0.22187535
0002b0 a0 22 1d 3e 6d 0a 16 3e 33 d9 a9 3c 2f 09 f2 3d
       0.1534524 0.14652415 0.020733451 0.11818158
0002c0 be 84 21 3c 22 74 61 bd f3 9b 0b be b2 53 66 3e
       0.009858308 -0.055042394 -0.13633709 0.22492865
0002d0 21 71 e3 bb 90 24 c5 bd fc 7a 98 bc 7c a5 30 3e
       -0.0069409763 -0.09626114 -0.018613331 0.17250627
0002e0 78 6b 5c 3d 0f a1 37 be ff 26 d4 bd 2a 0e aa bb
       0.053813428 -0.17932533 -0.103590004 -0.005189677
0002f0 ea cd 5a be cd da 07 bd f2 80 91 bd 85 ef b3 bd
       -0.21367612 -0.03316765 -0.071046725 -0.08785919
000300 5e ea 98 3d e0 9a 42 be 0d 41 4c be 8e cd be bd
       0.07466577 -0.19004393 -0.1994669 -0.0931655
000310 50 46 28 be 56 38 19 be 47 b1 70 be 70 0b 81 be
       -0.16433072 -0.14962897 -0.23505126 -0.2520404
000320 4a 5b 3e 3e 68 8b 13 be 66 be 46 3d d2 38 3d be
       0.18589512 -0.14408648 0.04852142 -0.18478706
000330 5e 13 14 be af 31 f1 3c 70 09 18 bc 93 8e b5 3d
       -0.14460513 0.029442636 -0.009279594 0.088650845
000340 19 81 19 3c 3a da 4a 3d a9 a2 f9 bd 50 4a a9 3d
       0.009369158 0.049524523 -0.12189228 0.08266127
000350 66 e2 21 3e 8a 84 7c bd 85 be 89 bc 04 24 c1 3b
       0.1580902 -0.061649837 -0.01681448 0.005894186
000360 5a 76 c0 bd 27 d7 1b be 21 52 2d be c6 1f 24 be
       -0.09397574 -0.15218793 -0.16925861 -0.16027746
000370 5b 5e d7 bb e9 e2 59 3d a9 51 06 3e ca 03 9e bc
       -0.0065725273 0.053194914 0.13117088 -0.019288916
000380 c9 59 3f 3e 98 23 3c 3d 87 6e 04 bd e8 40 8d bd
       0.18686594 0.045932382 -0.03233197 -0.068971455
000390 2b bc 5d bd 83 03 5e 3e 6d 32 8b bd c5 32 96 bc
       -0.05413453 0.21681027 -0.06796727 -0.018334756
0003a0 38 e0 17 be ba 41 4f 3d d9 d4 06 bc a8 31 23 be
       -0.14831626 0.05059979 -0.008229458 -0.15936911
0003b0 ce 9f f7 3c 5b 8a 80 bd d1 4b 2f 3d 41 d9 ae 3d
       0.030227568 -0.06276389 0.042796914 0.08537532
0003c0 b1 eb 6e 3c 54 d0 e2 3d b7 2d 7c 3d c8 e1 95 3c
       0.01458256 0.11074892 0.061567035 0.018296137
0003d0 79 d0 e5 3d 6d 24 00 3e 26 57 e1 bd 89 c0 91 3d
       0.11221404 0.12513895 -0.1100295 0.07116801
0003e0 8f c9 d0 3d dc b9 aa bd 0d 76 75 3c 5a c0 56 bd
       0.10194694 -0.08336231 0.014981759 -0.052429534
0003f0 90 cd 20 3e c2 03 b8 bd 3d e4 3d 3d 27 24 23 be
       0.15703416 -0.08985092 0.046360243 -0.1593176

convolutional_layers.6.bias f4 [16]
000000 fb 9c 60 bd 10 a0 c4 bc 19 22 ef bc f2 ea ce bb
       -0.05483721 -0.024002105 -0.029191064 -0.0063146288
000010 e5 90 82 bd df af 1d bd 08 88 a9 bd 4a 35 d8 bd
       -0.06375293 -0.038497802 -0.08277899 -0.10557039
000020 26 e2 ae 3b 1c 35 55 bd 76 d3 d3 bd cc 31 93 bc
       0.0053370176 -0.052052602 -0.10343067 -0.017968081
000030 3f d3 0c bd ad 57 81 3b ac 32 35 bc 0b f7 c0 bd
       -0.034381147 0.0039472193 -0.011059444 -0.0942212

convolutional_layers.7.weight f4 [16]
000000 0a c5 72 3f 7e 59 52 3f e1 c3 59 3f 3a 88 6d 3f
       0.9483191 0.82167804 0.8506451 0.9278599
000010 61 56 69 3f da fa 69 3f f1 6b 61 3f d2 48 70 3f
       0.9114743 0.91398394 0.8805533 0.93861115
000020 df 7d 7c 3f 75 66 61 3f ad 21 81 3f e0 aa 4a 3f
       0.98629564 0.8804696 1.0088402 0.79166985
000030 0f 7c 72 3f 8c 87 67 3f b6 3d 6f 3f 2b 5f 80 3f
       0.9472055 0.90441203 0.9345354 1.0029043

convolutional_layers.7.bias f4 [16]
000000 96 e7 d1 bd 52 00 03 be ac f3 2d be 3b 15 17 be
       -0.1024925 -0.12793091 -0.16987485 -0.14754193
000010 8c 2b e0 bd 3b 33 10 be 5a 2d e7 bd 51 5a 06 bd
       -0.10945806 -0.14082043 -0.11287947 -0.032800976
000020 79 85 d5 bd 98 8a ea bd 6b 79 a6 bd 10 08 7b be
       -0.104258485 -0.11452216 -0.081286274 -0.24514794
000030 c9 53 f7 bd b4 d3 04 be 42 7f fb bd b8 31 16 be
       -0.120765276 -0.12971383 -0.12280132 -0.14667404

convolutional_layers.7.running_mean f4 [16]
000000 36 98 af bf 88 47 48 3e c9 57 63 bf 83 73 5d bf
       -1.3718326 0.19558537 -0.88805825 -0.8650438
000010 2c 75 76 bf 7c 51 4c bf 81 8d 3e bf 10 5b 36 bf
       -0.9627254 -0.79811835 -0.7443467 -0.712327
000020 a2 10 fe be 05 85 0e bf 0a 20 40 bf 03 8b 6e 3f
       -0.49622065 -0.5567172 -0.7504889 0.93180865
000030 69 c4 1e bf 7b a7 ff be 5c c0 f8 be b9 db 86 bf
       -0.6201845 -0.49932465 -0.4858426 -1.0535804

convolutional_layers.7.running_var f4 [16]
000000 67 db 4a 3f 64 13 89 3f 17 eb ed 3e f9 80 34 3f
       0.7924103 1.0709043 0.46468422 0.70509297
000010 63 07 28 3f a1 fb 1e 3f e0 30 5e 3f f6 a3 09 3f
       0.6563627 0.62102705 0.8679333 0.5376581
000020 82 cd 09 3f 50 03 05 3f e6 62 28 3f 4f 6a 15 3f
       0.53829205 0.5195818 0.6577591 0.5836534
000030 5d eb 19 3f 2b 01 04 3f 92 0e 00 3f 23 7a e5 3e
       0.6012476 0.5156428 0.5002223 0.44819745

output_layer.weight f4 [11, 3008]
000000 ad 42 1d bd 9c 60 3e bd c4 17 22 bd b3 d4 c2 3c
       -0.038393665 -0.046478853 -0.039573446 0.023783064
000010 90 4a 02 bc 3e 58 ea bc d5 72 50 bd e2 91 f9 bc
       -0.007952347 -0.02860653 -0.050890762 -0.03046507
000020 ac d1 9a bc 1a ee 00 bd 42 bf 84 bc c5 d0 62 3c
       -0.018898807 -0.03147707 -0.01620448 0.01384372
000030 1c bc 21 bd 9a de a6 3b 27 38 49 3c 66 7a 33 bc
       -0.039486036 0.005092454 0.012281454 -0.010954475
000040 6b 14 f9 bc f2 b0 e9 bc 0e 03 df bc 74 3c f3 bc
       -0.030405244 -0.028526757 -0.027223136 -0.029691912
000050 66 62 02 bd e9 95 6d 39 94 82 fe 3b 39 bc 23 3c
       -0.03183212 0.00022657927 0.007767031 0.009993606
000060 2e 75 cb bc fb 6f 6f bd 1e 06 21 bd 13 0b 63 bd
       -0.024836149 -0.058456402 -0.039312474 -0.055430483
000070 15 ca 69 bd cb f9 d9 3c 74 e3 32 bd f2 37 c9 bb
       -0.057077486 0.026608368 -0.043673947 -0.0061407024
000080 26 2c 92 bc 13 fe 69 bd c6 f4 f8 bc 4b 59 a3 bc
       -0.017843317 -0.05712707 -0.030390155 -0.01994004
000090 47 8f ab 3c c4 2c a4 3c 61 8f 88 bc 75 e1 70 bc
       0.020942343 0.020040877 -0.01666993 -0.014702191
0000a0 41 36 80 bc a3 f7 b4 3b 71 7d 5f bd 4b ad 5a bd
       -0.01565087 0.0055226847 -0.05456299 -0.05338792
0000b0 fc 55 cd bc ff 9e 74 bd fb 7e 4c 3c 40 0f 7a bd
       -0.025065415 -0.059721943 0.012481446 -0.0610497
0000c0 f8 1f d7 3c 39 0f 3f bc 3c 8a 1b bd 19 50 fc bc
       0.026260361 -0.011661344 -0.037973627 -0.030799912
0000d0 af 75 31 bb 77 b7 e0 3c 05 84 9a 38 38 45 c4 bb
       -0.0027078202 0.027431233 7.367883e-05 -0.005989697
0000e0 2d 62 52 bd f0 39 85 3c d7 04 0b bd b7 e5 18 bc
       -0.05136316 0.016262978 -0.033940163 -0.009332112
0000f0 3b de 13 bd b8 34 ac bb 75 13 cc 38 8f f5 45 bd
       -0.036100607 -0.005255308 9.731102e-05 -0.048329886
000100 90 22 53 bc c4 98 96 3c 52 fe 35 3c 56 94 cc bc
       -0.012886658 0.018383391 0.011107998 -0.024973076
000110 ac 17 e9 bc 81 b5 23 bc 12 65 db bc b0 87 f6 bc
       -0.02845367 -0.009992004 -0.026781593 -0.030093998
000120 42 a7 37 bd d5 8f d9 bc 04 e5 3f bd 09 82 30 bc
       -0.044837244 -0.026557842 -0.046849266 -0.01077319
000130 46 96 e7 bb 82 f0 7c bd c0 1f 68 bd b8 a0 8f bd
       -0.0070674745 -0.061752804 -0.056670904 -0.070130765
000140 63 06 e3 3b 9e 20 0b bd 0b 2d 7c bc 95 4c 03 bd
       0.0069282516 -0.033966653 -0.015391598 -0.032055456
000150 1b 83 b5 bc 54 79 1f 3c 16 90 d1 bc bc 4b 6a bd
       -0.022157243 0.009733517 -0.0255814 -0.057201132
000160 58 c8 19 bd fd 70 0f 3c 3b 6c bb 3b f5 a8 4e bb
       -0.03754458 0.008754966 0.005719689 -0.0031533812
000170 7f 08 03 3b 52 aa ec bc 1f ab 2b bd 72 26 47 bd
       0.0019994078 -0.028889809 -0.04191124 -0.04862065
000180 98 7d c4 bb d1 2e e8 bc 30 b1 fb 3b 23 e2 4c bd
       -0.0059964173 -0.028342636 0.0076810345 -0.05002035
000190 82 fc 66 bd e9 75 1a bc 41 47 8a bc 28 6a 2d bd
       -0.056393154 -0.009427526 -0.01687968 -0.042337567
0001a0 77 fb 80 3c b9 2a 18 bd a8 fc e7 bc 3c c1 1f bd
       0.015744908 -0.03715012 -0.028318718 -0.039002642
0001b0 82 ce 08 3c 56 a0 68 bd 0d 59 9a bc 8d 1b 7c bb
       0.008350017 -0.056793533 -0.01884129 -0.003846857
0001c0 33 97 92 bd 4b 43 0a bd 0c 94 f4 bc 45 a8 eb bc
       -0.07157745 -0.03375558 -0.02985575 -0.02876676
0001d0 a1 20 32 bc 08 d3 37 bd 10 cc c2 bb a9 fb 9a bc
       -0.010872037 -0.04487899 -0.0059447363 -0.018918829
0001e0 1d ba 7b bd 9b 99 74 bc 0e 2c 8c bb d0 5d d4 39
       -0.06145679 -0.0149292005 -0.0042777127 0.00040505687
0001f0 82 97 65 3b 0f cf 22 bd a1 4e 89 ba 4f 23 ba bc
       0.0035032933 -0.039748248 -0.0010475704 -0.022721915
000200 47 3b aa bc 13 b2 ce bb ef 4c 1f 3c e0 8c 7c bd
       -0.020780219 -0.006307849 0.009722932 -0.061657786
000210 d9 a6 97 bc 5e 71 29 bd d9 60 55 bd 99 20 3a 3c
       -0.018512176 -0.04136788 -0.052094314 0.011360311
000220 4c 88 c9 3c 4c 5b 6f bd 52 2f 17 bd 19 6b 2e 3c
       0.024601124 -0.058436677 -0.036910363 0.010645651
000230 89 9d d4 ba 3e 65 da ba 1a a8 9f bb f3 a5 cf bc
       -0.0016221266 -0.0016662253 -0.004872334 -0.025347685
000240 c9 de 24 bd c6 d1 d9 bc 7e e0 9d 3c 83 cb 13 bb
       -0.040251527 -0.026589286 0.019272085 -0.0022551722
000250 2f 10 82 bd a0 74 55 3c ca a2 eb bc af cf b6 bc
       -0.06350743 0.013028294 -0.028764147 -0.022315828
000260 24 c4 4f bd 5f b2 1e bd 7a 65 2d bd be 0d 39 bd
       -0.050724164 -0.038744327 -0.042333104 -0.04517912
000270 f1 05 b1 bc 48 49 b3 3c 46 02 03 bd 4d 25 3f bd
       -0.021609278 0.02188553 -0.03198459 -0.046666432
000280 cc cd 01 3c 55 6c 36 bb da 03 85 bc 84 de 9e bc
       0.007922601 -0.0027835567 -0.016237188 -0.019393213
000290 a3 46 72 bd b9 a1 98 bd ff a3 86 bd 1d 88 da bc
       -0.059149396 -0.07452721 -0.065742485 -0.026676232
0002a0 7e 69 2d bd fe cd 04 bd 08 79 07 3b 31 76 e4 3a
       -0.042336933 -0.032423012 0.0020671505 0.0017430243
0002b0 0e 3c 55 bd 8e 40 5c bd d0 4a 98 3b 18 97 90 3c
       -0.052059226 -0.0537725 0.00464759 0.017650172
0002c0 57 c0 74 bd b2 de 72 3c c7 98 42 bd 95 68 b8 bc
       -0.059753742 0.0148236025 -0.04750898 -0.022510806
0002d0 01 1e e4 bc 2f 46 94 3a c8 4a d4 bc 9e 57 20 bd
       -0.027846338 0.001131242 -0.025914565 -0.03914606
0002e0 4b 32 35 bc c6 aa 74 bd 03 21 61 3c c5 cf c4 3b
       -0.011059354 -0.059733175 0.013740781 0.0060062134
0002f0 c2 91 02 3d 7b a9 83 3d 42 bc 2d 3d 62 87 ad bc
       0.031877287 0.0642881 0.042415865 -0.02118272
000300 6b a9 b0 bc 68 0f 6f 3b c2 a8 6d bc 38 1e 05 bc
       -0.02156516 0.0036477689 -0.014505567 -0.0081248805
000310 3a f2 2f 3d 8b 67 90 bc 18 d5 af bc 5a b3 16 3d
       0.042955615 -0.017627498 -0.021463916 0.036792137
000320 6b 84 b4 3c 5b 3b 30 3d 97 6a 66 3d 2f 52 fd 3c
       0.022035798 0.043025356 0.056253996 0.030922977
000330 3f 0d 48 3d 01 26 f9 3c b6 5d 10 bb d3 09 4f 3d
       0.048840757 0.03041363 -0.0022028512 0.05054648
000340 f1 e1 6e 3b 92 6b a2 3c ad 55 d5 3c 14 27 3c 3b
       0.003645059 0.019826684 0.02604183 0.0028709816
000350 e1 a2 de 3c c0 f7 52 3d 59 d8 47 3c ec 19 29 3d
       0.027177276 0.051505804 0.012197577 0.041284487
000360 46 55 78 3c b8 8b 2b bb 21 32 2d bc 7b cb 74 3d
       0.0151570495 -0.0026175808 -0.010571034 0.059764367
000370 7e f7 b3 3c 75 18 3b bc 28 3e 54 3d 0d c1 00 3d
       0.0219686 -0.011419405 0.05181709 0.031434108
000380 a2 30 53 ba 17 a1 47 3d 3a 06 5c 3d 4e 4a 91 bc
       -0.0008056258 0.04873761 0.053716876 -0.017735627
000390 d5 37 b5 3b 15 e6 a3 3b 8f 1c d0 3c f1 36 77 3d
       0.0055303373 0.005001793 0.025404243 0.06035513
0003a0 2a 41 c8 3c b9 5c 75 bc f7 a5 1f 3d 08 65 3c 3d
       0.024445135 -0.01497572 0.038976636 0.04599479
0003b0 1c 53 ac 39 da 28 77 3d 1e c8 8a 3d 39 d4 3e 3d
       0.00032868318 0.060341693 0.067764506 0.04658911
0003c0 78 e2 1a 3c c6 47 83 3b a6 7b 2a bc 58 a5 fe 3c
       0.009453408 0.004006359 -0.010405457 0.031084701
0003d0 b8 fb d3 bc 08 74 07 3d 09 9f bd bc 66 18 b8 ba
       -0.025876865 0.03306964 -0.023147123 -0.0014045357
0003e0 09 07 81 3d 81 e4 c4 3a 9e 01 21 bc 0b fe 11 3d
       0.0630017 0.0015021713 -0.009827046 0.035642665
0003f0 98 d3 b9 bb bc d2 e2 3c 88 c2 1b 3d f8 b2 41 3d
       -0.005670976 0.027688377 0.038027316 0.04728982

output_layer.bias f4 [11]
000000 21 89 51 3b de d7 46 bb e5 2b cb bb 2c 6c 2e ba
       0.0031972604 -0.003034107 -0.006200301 -0.0006653692
000010 a3 98 c2 bb b2 ff 09 3c 90 b2 d3 bb 85 f3 ac bb
       -0.005938606 0.008422779 -0.0064604953 -0.005278053
000020 7d 9a cf ba 32 7e 75 3b ea b7 37 3c
       -0.0015838888 0.0037459251 0.011213282
