libemg_3dc/transfer_learning/checkpoints/feature_extractor_with_fc_reset.pt (torch, 207257 bytes, 20 tensors)

convolutional_layers.0.weight f4 [64, 10, 5]
00000000: ebfb 05be c4d3 bcbd 394b 303c 37a7 373e
00000010: 5492 92bd f315 543d 0a61 99bd a3ab 1ebc
00000020: efb4 e23c 0eb9 c13c 5ffa 063e 320e 0a3e
00000030: be22 69be d90c 4bbe d461 12bd 569e d8bd
00000040: cca6 85bd 7b23 103e 77b3 12bc 983f 5cbc
00000050: fc60 52bd 1a91 1cbd e343 0c3e 07d8 6c3e
00000060: a5fd 4dbe 32c9 d73d 1fdb 4abd 89ad 413d
00000070: 2724 5d3c 977f 00be ffe9 b0bc 17c4 61bd
00000080: 287a 02be 192c 94bd 6c73 073e bdb5 123e
00000090: fdc2 223d 633d 2abd 8e45 4abe 3d7f 41bd
000000a0: 0cb7 7ebd edcb 68bd 92ae e1bc f1d3 fc3d
000000b0: c8ec a8bb acd4 f9bd acb3 1cbd 2ee6 af3d
000000c0: 188d 3e3e a34a a93d c13d b0bc 4d91 36bc
000000d0: dbfe d03d a71f 3e3d faee 81bc 5d78 1bbe
000000e0: d8a0 bcbd ae71 bd3d f0a0 4bbd d14a e7bc
000000f0: 2157 1dbd c51a e83d c790 60bd 7fe5 d8bd
00000100: 89c4 7a3d 0be5 8b3b 8e74 913d 2b00 c6bd
00000110: d1fb 67be dbb0 403e ed6c 7f3d e733 133e
00000120: 26e2 5bbe 6741 34be 0293 723e 356f 81bd
00000130: 822e 963c c58f 2dbe 5dc0 01bc 01d5 e83d
00000140: 029b eb3d f44c 80bd 7973 78bd aa18 f7bd
00000150: 4e99 fbbd 94e6 81ba 5f9b e7bd da87 e73d
00000160: f4dc 893d 58c8 c5bd 504a 313d 4800 b03c
00000170: a96f 9f3d 807d a63d 3a10 e5bd 2356 96bd
00000180: df24 b93d 460c 423e 6eee 163e 5d8f ebbd
00000190: 7b5e e33d 9f7b 73bd c6a0 9ab8 980a b3bd
000001a0: 06d3 8e3d fc5e cb3d 72b7 863d ee45 d03d
000001b0: 122c 813b 01fd 84bd 7d5d ed3c 9241 99bd
000001c0: cd1b 853c efb2 01bd 800b c1bd d144 aa3a
000001d0: 0ddc 95bd 28af 123d aca1 c23d 19bf e93d
000001e0: e389 82bd cee6 b3bc c77d 7c3d bb90 6abc
000001f0: dde8 fc3d 5b95 05bd 2099 5d3d ac04 773d
00000200: 0628 b23d 2d3a a33d 9994 6c3c 1dbc 00bd
00000210: dcad f0bc 1e79 e6bd 1fa1 bcbc 43ce afbd
00000220: d6b5 1b3d 556e 9a3d a81f ca3d 57e3 503d
00000230: 73e3 9f3b c0c7 e4bd c1c9 593d a112 173e
00000240: f145 c53d e813 5bba fe6f 2fbd 5914 03be
00000250: ef82 a9be c600 9abe 711a 6dbd d98c 51bd
00000260: 736c 313b 256a 163e 28fd 2a3b de5e cd3d
00000270: ea3c 3dbd ab61 15be 2045 57be 4d47 103d
00000280: 3e7e 96bd 6fbe 9a3d 622d 3fbe f825 b03d
00000290: 5b7a f23d 3f3b 2f3d f900 2bbc d89f a93d
000002a0: 1166 2d3e 94b4 4d3d d72e 863d a6c8 bbbc
000002b0: 2314 1b3d c758 ee3d 4652 f1bd 87b3 55bd
000002c0: e76d f9bd b2a7 25bd 35a1 193e 9745 9b3d
000002d0: fe61 023e fa71 1d3d 162f 873d 4545 19bd
000002e0: 0294 5ebc 1729 ebbc 935a 86bd 2142 063e
000002f0: 028f 303d bb17 93be ea5a 02be a81a 3bbe
00000300: 5d53 1e3e 9aea 823e 40cc f1bd 1e46 a13c
00000310: d225 8f3c cfc7 7bbd 1461 b03d 71e6 56bd
00000320: 14e1 f1bd 2d47 5d3d 2fce f93d dc41 d3bb
00000330: cbac 52be f1ba a23d 5c5b 4b3d dcfb c73c
00000340: 54a1 303d b0fe 0e3d bf3c c3bc ee45 623d
00000350: 8902 d63d cce8 93bd 18f2 eebc 5ebf 8cbd
00000360: 1f19 2a3d bc58 fcbd 896e 893d bdd9 9e3d
00000370: 18de b5bc 7e9a 8dbd b24e 6fbc 5c7d 8abd
00000380: 8e24 aa3d de74 30be 1895 34be 5461 24be
00000390: 97ec 843d e357 cb3a 4640 4c3d 61c9 103d
000003a0: a615 febb 4adc 833d 4c75 8ebd c7ee 7bbd
000003b0: cc9d d13d 5be0 963a 42fe 02be 0332 b83d
000003c0: 7898 913d 7ce0 c3bd f862 31be ae5d 73bd
000003d0: 511f cb3d ed32 953d bce2 70be 3978 64bd
000003e0: 1343 4b3e 3ed8 f9ba 6725 363d 8c04 36be
000003f0: 4f7a 333c 38f4 d9bd 2cef bf3c d9b4 9e3d
-0.1308438 -0.092200786 0.010760122 0.17934881 -0.07156816 0.051778745 -0.07489212 -0.009684476
0.027674166 0.023647811 0.13181446 0.13481978 -0.2276716 -0.1982912 -0.035737827 -0.10577075
-0.065259546 0.14076035 -0.008953921 -0.013442896 -0.051362023 -0.038224317 0.13697772 0.23129283
-0.20116289 0.10536422 -0.049525376 0.047284637 0.013497389 -0.12548672 -0.021595953 -0.055118646
-0.12741911 -0.072349735 0.13227624 0.1432714 0.039736737 -0.04156245 -0.19753096 -0.047240485
-0.062186286 -0.056835104 -0.027549062 0.12345112 -0.0051551796 -0.12198767 -0.038257286 0.08588825
0.1860851 0.08266189 -0.021513822 -0.011143041 0.1020486 0.046416905 -0.015861023 -0.15182634
-0.09210366 0.09250198 -0.04971403 -0.028233917 -0.03841317 0.11333231 -0.05482557 -0.10590648
0.061222587 0.0042692474 0.07102309 -0.09668001 -0.22654654 0.18817465 0.06235974 0.14375268
-0.21472988 -0.17603074 0.23688892 -0.06320039 0.018332724 -0.16949375 -0.007919398 0.11368752
0.11504175 -0.06264678 -0.060657 -0.12065251 -0.122851 -0.0009910637 -0.113089316 0.113052085
0.067315966 -0.09657353 0.04328376 0.02148451 0.07784969 0.08129406 -0.111847356 -0.07340648
0.09040236 0.18949994 0.14739391 -0.11501954 0.11102005 -0.059444066 -7.3732386e-05 -0.08742255
0.06973843 0.09930226 0.06577958 0.10169588 0.003942021 -0.06493569 0.028975243 -0.0748321
0.016248608 -0.031664785 -0.094260216 0.001299048 -0.07317362 0.035811573 0.09503493 0.11413402
-0.06373956 -0.021960642 0.061643388 -0.014316733 0.12349103 -0.03261314 0.05410111 0.06030719
0.0869904 0.079700805 0.014439725 -0.0314294 -0.029379778 -0.1125357 -0.023026047 -0.08584263
0.03801521 0.075405754 0.09869319 0.05099806 0.004879409 -0.11170912 0.053170923 0.147532
0.09632481 -0.0008357153 -0.042831413 -0.12800731 -0.33107707 -0.30078715 -0.057886545 -0.051159713
0.0027072697 0.14688928 0.0026090834 0.1002786 -0.04620067 -0.14588039 -0.21022463 0.035224248
-0.073482975 0.075558536 -0.18669656 0.08600992 0.11839744 0.04278111 -0.010437244 0.08282441
0.16933466 0.05022104 0.06551903 -0.022922825 0.037861 0.11638027 -0.117832705 -0.052173164
-0.12179165 -0.04044313 0.15002902 0.075816326 0.12732694 0.038438775 0.06600778 -0.037419576
-0.0135850925 -0.028706117 -0.065602444 0.13111164 0.043105133 -0.28729042 -0.12729993 -0.18271887
0.15461488 0.25569612 -0.11806536 0.019686755 0.017474089 -0.06146985 0.08612266 -0.05246586
-0.11810508 0.054022957 0.121975295 -0.00644706 -0.20573728 0.079458125 0.049647674 0.024412088
0.043122604 0.034910858 -0.023832677 0.05524247 0.10449702 -0.07222137 -0.029168174 -0.06872438
0.041527864 -0.12321612 0.06710536 0.07756374 -0.02220063 -0.06914233 -0.014606165 -0.06762192
0.083077535 -0.17232081 -0.17635 -0.16052753 0.064904384 0.0015513863 0.049865983 0.0353483
-0.0077540455 0.06438501 -0.06955966 -0.061507013 0.102351755 0.0011510955 -0.12792304 0.08993914
0.07109159 -0.09564301 -0.1732291 -0.05941551 0.099180825 0.07285104 -0.23523992 -0.055778716
0.19849806 -0.0019061638 0.044469263 -0.17775172 0.010954454 -0.10642284 0.023429476 0.07749338

convolutional_layers.0.bias f4 [64]
00000000: d883 743d 3d38 30bd 6c11 473d 0695 76bd
00000010: 5a9a 7c3d 1406 ffbc 71c4 8b3b 9a68 8f3c
00000020: 7423 bfbd 2d84 a33c adc9 abba d1a7 bbbd
00000030: 8ac6 b03c bdce 21bd bab0 85bc 986c 49bd
00000040: b3fd b1bb ee69 e53c 4b8e efbb 9b75 f23d
00000050: 39b9 e7bc 12a3 763d dcfc 22bd 89c2 57bc
00000060: 22af 8dbd f9f2 a7ba 032e 0abe 4947 2b3d
00000070: 6670 253d 1c74 4abb 6349 a83b ac24 e83c
00000080: d746 db3c e0a7 613c 4f05 9cbc 79b5 00bd
00000090: b877 573d 2d41 3d3d 678c 6d3d 4914 58bb
000000a0: d773 ed3c 89ee 9a3c acb3 0dbd d1a5 61bd
000000b0: 8e2f 113b 1c3a 503c 2582 823d 9589 853b
000000c0: 4f37 22bd 0070 e23c b396 40bc 5f5e b53c
000000d0: 9cd5 eb3c dd12 d3bc ce37 173d 7ee4 183b
000000e0: e7a2 f83c b989 21bd 9389 33bd 6900 063d
000000f0: 17db 783d d9f2 03bc 548d cfbb dfbc 14bd
0.05969605 -0.043022383 0.0486006 -0.060200714 0.06167064 -0.031130828 0.004265361 0.017505933
-0.09332934 0.019960487 -0.0013106369 -0.09162868 0.021579046 -0.0395038 -0.016319621 -0.04917583
-0.0054318546 0.028004613 -0.007310664 0.11838838 -0.028286563 0.06021411 -0.039791927 -0.013168939
-0.069181696 -0.00128135 -0.13494115 0.04181603 0.040390395 -0.003089196 0.0051357015 0.028337799
0.026767178 0.013772935 -0.0190455 -0.031423066 0.052604407 0.046204735 0.057995226 -0.0032971075
0.0289859 0.01891257 -0.034595177 -0.055089775 0.002215359 0.012709167 0.06372479 0.004075239
-0.039603528 0.027641296 -0.0117546795 0.022139726 0.02878838 -0.02576583 0.036918454 0.0023329551
0.030351115 -0.039437983 -0.043832373 0.032715235 0.060755815 -0.008053505 -0.0063339863 -0.036312934

convolutional_layers.1.weight f4 [64]
00000000: 3516 853f 942e 803f 8bb7 763f d5ff 7b3f
00000010: 7092 713f 6e4b 6c3f d79e 863f 950c 863f
00000020: 4d15 763f df42 6c3f f4ab 7b3f 2350 783f
00000030: 9c78 793f a8a1 843f b0af 843f 193f 803f
00000040: 4904 743f defc 813f 8402 803f 031e 843f
00000050: 27ea 833f ab96 883f 1ee9 763f 3a50 8d3f
00000060: 479f 8d3f 2148 713f ddde 943f 9930 713f
00000070: d6ac 813f 0bd5 773f 04b7 7c3f ed83 7b3f
00000080: 114c 773f c4ea 6e3f a3ed 813f 812a 863f
00000090: 4d63 713f fed8 833f cd46 823f 3411 773f
000000a0: 85b2 783f eb41 7f3f 2468 7f3f 6126 733f
000000b0: e6e1 833f ce76 6c3f 5c36 703f 9c80 843f
000000c0: 351e 813f ddbf 6d3f 39bf 833f 7246 7e3f
000000d0: ba8c 723f 8df4 5f3f e7af 733f 5d6e 7e3f
000000e0: 381d 7f3f 0fd1 7f3f f2b5 833f ca77 8d3f
000000f0: 1de2 7a3f 72ef 833f 3ad3 5a3f adff 823f
1.0397402 1.0014215 0.96373814 0.98437244 0.9436407 0.92302597 1.0517224 1.047259
0.9612625 0.9228954 0.98309255 0.9699728 0.9744966 1.0361834 1.0366116 1.0019256
0.9531904 1.0155294 1.0000768 1.0321659 1.0305833 1.067098 0.9644946 1.1040108
1.1064233 0.94250685 1.1630512 0.9421478 1.013087 0.9680945 0.9871676 0.9824818
0.96600443 0.93326974 1.0150646 1.0481721 0.94292146 1.0300596 1.0177857 0.96510625
0.971474 0.9970996 0.9976828 0.94980437 1.0303314 0.9236878 0.93832946 1.0351748
1.0087343 0.92870885 1.0292732 0.9932624 0.9474598 0.8748253 0.9519028 0.9938715
0.9965396 0.99928373 1.02899 1.1052182 0.9800127 1.0307448 0.85478556 1.0234276

convolutional_layers.1.bias f4 [64]
00000000: f69b a2bb d9c6 9d3d 50e4 a1bc 5738 d3bc
00000010: 491d 033d a6bd b43d d5bb 533b 08a0 89bd
00000020: ee0d 343d 8878 bbbc a6be 37bc 6c48 9f3b
00000030: 397a bc3d 38e9 843c 22da e8bc d2ad a13d
00000040: 594c a33c df07 a53b 4b92 103d b8fe b9bd
00000050: 6beb 2a3d 218a 5dbb 8f40 3a3e 2aa8 10bd
00000060: c82d 083d 311e d3bc b4d3 c2bc 4d69 9abc
00000070: d37a 453d 2e6a 243d 16d0 323b 1952 08bd
00000080: 509e b83c 9420 33bd 9885 313d 02a0 52bd
00000090: 5594 423c aa84 ac3d 401c b93d f2bd 09bd
000000a0: e67e b9bc 0370 6dbd e836 35bb 9f00 0ebd
000000b0: 30ba 933c c1aa b4bc 2ab1 87bb e03d 833b
000000c0: ff48 3ebd b299 2f3e ad4e 3a3c c98f febc
000000d0: 4427 78bd 4422 553d fcd4 a4bb 9f19 2fbc
000000e0: 709d 283d eb61 2bbd 40ec 2bbd 88a3 223c
000000f0: 8294 c2bb da7b cb3b b6af b1ba 2699 10bc
-0.0049624396 0.07703943 -0.019762188 -0.0257837 0.03201035 0.08825235 0.0032308002 -0.06719977
0.043958597 -0.022884622 -0.011214888 0.0048609283 0.092029996 0.016224489 -0.028424326 0.07894482
0.019933866 0.0050363387 0.035295766 -0.09081787 0.04172842 -0.0033804255 0.1818869 -0.035316624
0.033246785 -0.025771232 -0.023782589 -0.01884904 0.048212837 0.040140323 0.0027284673 -0.03328142
0.022536427 -0.04373224 0.043340296 -0.051422127 0.011876185 0.08423741 0.090385914 -0.03362841
-0.022643518 -0.05796815 -0.0027651135 -0.03466856 0.018033117 -0.022054078 -0.0041409926 0.004005179
-0.046456333 0.17148474 0.011371297 -0.031074421 -0.06058432 0.05203463 -0.0050302725 -0.010687261
0.04116577 -0.04184143 -0.041973352 0.009926684 -0.0059381137 0.0062098326 -0.0013556394 -0.008825576

convolutional_layers.1.running_mean f4 [64]
00000000: 9f4b 753d 512e 25bd 8eba 3b3d 2181 71bd
00000010: bcfc 6d3d 196b fabc 01fe 1f3b 28ea 493c
00000020: f020 c6bd 76c0 0f3c faca 043b d8d1 c3bd
00000030: becc 7c3c e0a9 33bd 83c0 9abc be1e 4ebd
00000040: f8b5 ccbb 92e2 dc3c dc1e f3ba 3914 ed3d
00000050: c947 debc 4e5b 743d cc73 2ebd bb36 4dbc
00000060: 3ebe 8fbd 7101 03bb ef1a 0abe 2c4f 2d3d
00000070: f587 2e3d 5508 b4bb b526 b03b 6217 ea3c
00000080: 0755 d93c 6e8b 733c 6f2b 88bc fb7c 00bd
00000090: 23c3 563d 5a8f 343d ffa8 623d f0fd 55bb
000000a0: 0e22 f23c 8b2f 9d3c a87b 06bd f1af 6bbd
000000b0: 2cdd be3a 5f6f 343c 4c26 773d 6c93 623a
000000c0: 37d2 24bd c04b cd3c c0dc 56bc 0961 ab3c
000000d0: 7572 d93c 73b6 c9bc b020 143d 828e e73a
000000e0: b2f0 f83c 5dac 1dbd 8834 38bd 41b8 053d
000000f0: 76a3 7c3d 4eb4 2abc cb3d b0bb 3a92 14bd
0.05988657 -0.040327374 0.04583221 -0.058961038 0.058102354 -0.030568646 0.0024412873 0.012323894
-0.09674251 0.008773914 0.0020262585 -0.09561509 0.015429674 -0.043863177 -0.018890625 -0.050322287
-0.0062472783 0.026963506 -0.0018548626 0.11576123 -0.02713384 0.059657387 -0.0425909 -0.012525256
-0.07018708 -0.0019989873 -0.13486837 0.042311832 0.042610127 -0.0054941573 0.005375708 0.028575603
0.026529802 0.014864786 -0.016622273 -0.03136919 0.05243219 0.044082023 0.05533695 -0.003265258
0.029557254 0.01918771 -0.03283277 -0.057540838 0.0014561764 0.011012881 0.060339257 0.00086431834
-0.04023954 0.025060534 -0.013114154 0.020920293 0.026543835 -0.024623131 0.036163986 0.0017666372
0.03038821 -0.038494457 -0.044971973 0.03264642 0.061679326 -0.010418965 -0.00537846 -0.036272265

convolutional_layers.1.running_var f4 [64]
00000000: 1167 443f 0ceb f840 8007 fb40 dbcf 3641
00000010: bccd e340 11c9 1640 0265 4d40 4a57 8f41
00000020: 3010 f741 8312 0843 79d7 da40 91a1 0442
00000030: fa49 1e41 14f2 3f41 490e 863f 4fc3 4141
00000040: 7ff8 893f db03 0c40 fd0c 6a41 6ace b63e
00000050: 1397 dd3f e0dd 473f e759 2b40 c441 703f
00000060: 4a01 583f f135 423f 6bd6 013f e873 303f
00000070: 6e12 ec40 4643 ae41 9094 5e41 1b16 953f
00000080: 4845 b53f b0cf 2741 8840 0841 aef3 d240
00000090: cabb 2040 d856 2841 370d f140 6d34 e43f
000000a0: ae2e 283f 929b 9b3f fbc6 1c3f 52ac 1a40
000000b0: 4658 b53f 0ab9 8940 9d50 e040 98c7 a340
000000c0: 455d 9c40 c3b4 5e41 5a66 2640 7065 fe3f
000000d0: 8420 aa40 59f3 2040 5248 ff3f 587d a240
000000e0: d116 073f da83 593f 9bdb 6d41 67a6 dd3e
000000f0: d229 d73f f22b 8440 c4b3 123f 71c8 0440
0.76719767 7.7786922 7.8446655 11.425746 7.118864 2.3560221 3.20929 17.917622
30.882904 136.07231 6.838803 33.15778 9.893061 11.996601 1.047311 12.110183
1.077896 2.1877353 14.628171 0.35704356 1.7311729 0.7807293 2.6773622 0.9385035
0.84376967 0.7586356 0.507178 0.6892686 7.3772497 21.782848 13.91127 1.1647371
1.4161768 10.488205 8.515755 6.592246 2.5114617 10.521202 7.532863 1.7828499
0.6569623 1.2156851 0.6124112 2.4167676 1.4167564 4.303838 7.0098405 5.1181145
4.8863854 13.919131 2.599997 1.9874706 5.316469 2.5148528 1.9943945 5.0778008
0.5276919 0.84966815 14.866115 0.43291017 1.6809638 4.1303644 0.5730555 2.074734

convolutional_layers.3.weight f4 [32, 64, 5]
00000000: f91d 2fbe 0349 3bbd 8365 eebd 7b41 733c
00000010: c1be 08be 2074 273e b3cd d8bc 37d1 82bc
00000020: 6af9 343d 1234 cebc aa8a 143d c95f 8abd
00000030: df24 96bc 8909 893c 6f1b 8cbd a4c0 b4bc
00000040: 00af 093e 1887 e33c 28ed 57ba 8d02 313c
00000050: e83e 823c 11ad 2ebd 63ae b2bb 3b93 a93d
00000060: 60dc 703b 3816 53bd 9661 acbd 2824 193d
00000070: b3cc 693d bd48 c8bd c430 3dbe 21d2 2cbe
00000080: f0a0 183c dfcf f0bc 1210 96be a6da 843c
00000090: 809b d4bd 6f58 45bd 5355 463d 8576 dcbc
000000a0: 1c4d 2d3e 361a c13c 56fa 003d e501 0f3e
000000b0: 66e5 5b3d d4c4 3ebd 1198 8e3d a2ce 9d3b
000000c0: 2516 14bb 810c 97bc 4b74 28be f7cb 85bd
000000d0: 30b9 763d b8fc 3fb9 3c74 433d 34c8 543e
000000e0: ad04 813d 2715 213e 3ff5 65bb ab4b 84bd
000000f0: 0d07 35bd 401c 6abe 85ef ba3b 0821 ba3c
00000100: 7cf8 38bd e349 ffbd c99a b5bd 201c c03c
00000110: 1b66 8cbe 0668 37be 622d 3bbd a60a 43bd
00000120: 767a 03bd 43f7 c83d 060c d0bc f8c8 da3d
00000130: 040a b4bd d47f cabc 6056 06be 7346 833d
00000140: 4da6 073b fa03 24bc 24ca 17bd 767c 5b3d
00000150: 1f21 a53d b415 7cbc 9881 d73d 2af3 943d
00000160: 2b25 2c3d 0b3b 44bd 96d8 af3c cb8f 16bd
00000170: 1e32 b6bd 7eee 603d 7d1c 83bc 6247 35bb
00000180: ce98 633d e625 4b3e 1194 f1bd a07b dd3d
00000190: 3cc7 27bd 0a5a a13c 097b 283d 6240 113e
000001a0: 505c 713d 16b6 e1bc 1f48 15bc 4158 cc3d
000001b0: ef2c febc 620c 6d3c 8d6e 2abe c74f 193d
000001c0: 0d8d afbd 7e8a c73b 5fc7 653b ad13 253d
000001d0: 66a8 5f3e 4e8e c83d efa0 a13e 3f2c 943e
000001e0: 8f5d 073e ee57 be3d afbc b03d 0ee7 d23d
000001f0: 7daa f1bc a1e7 0cbe 30cf 243d de70 f3bc
00000200: 4a92 34bd 4da1 e7bd 7e18 8bbd 1c4f 73bd
00000210: 9ec2 4cbe 114f acbc b2fe debc 51a2 debd
00000220: 1128 f63c d678 b2bd e141 8dbd b75c 7abd
00000230: 91a1 2d3e b88a f13a 3239 03bc f7db be3d
00000240: 1108 a53d 5fe1 8bbd cee9 d93c 9fff 70bd
00000250: 3417 a2bd d955 95bd 3418 ebbd 5364 3fbe
00000260: 2b69 27bc 0b53 00be 5664 30be f697 7cbd
00000270: b5ad d53d f781 0c3d f45f f6bb 5b53 f93b
00000280: fde8 4f3d c93a 34bd 8d11 053d ae69 953d
00000290: 38f0 adbc b5ce a1bd b035 7d3d 0a8e f1bc
000002a0: 3d1e 363b d810 123d f929 973c 9eb6 793d
000002b0: be79 bf3d aa83 46bd 66c7 5bbd 1162 093b
000002c0: 8768 1abe 3714 84bd f68a 42bb bf13 34bd
000002d0: 36f2 e23c 9999 ba3d 0a5e 943d 3eda a63c
000002e0: 75f2 983d 3e20 f43c 1af6 65bd 49db 503d
000002f0: 0b2a db3d ca6d 2cbd aff9 b7bd abde b73b
00000300: 1b6d b8bd 3f15 173e 7ca9 acbc d869 953d
00000310: a014 023e 9ee1 f9bc 20ae 853d 8004 05bc
00000320: e0e6 35bd 39ac 01bd 1035 a83a 37c4 cb3c
00000330: 287a 0dbd 3516 b1bc cd71 21be 9d8e dcbd
00000340: c7c0 8dbe 5e8f 56be 2a76 8c3d 4ec5 d73c
00000350: ea3e 1b3e 0421 9e3d 2bce ffbc f961 b9bc
00000360: 7ae7 f43d 7a4a e3bd 84a0 89bd fc84 7bbd
00000370: b869 c63d f58c e43d edc3 7d3d 2659 593d
00000380: 5fa7 103e 981d a3bd d40d 20be a32d f2bd
00000390: 4717 1c3d cda6 f8bd 536c 933d 7a9a 753d
000003a0: c838 34be 2d60 833d 4592 6fbd d2e9 563c
000003b0: 4680 1d3c 8eed 803d bc15 663d e75a 97bd
000003c0: e938 3c3d 90bf f9bd 0342 1c3c 29de 583d
000003d0: 2b8f 963c bee8 093d 5fd9 4c3c d51a 68bd
000003e0: 223a e73c ccc9 dd3c 033f 803d 6e23 5bba
000003f0: d383 923c ff18 ec3d 8fe0 333c 7917 16be
-0.17101277 -0.045723926 -0.116404556 0.014847155 -0.13354017 0.16352892 -0.026465273 -0.015968902
0.044183172 -0.025171313 0.036265053 -0.06756551 -0.018328128 0.01672818 -0.0684117 -0.022064514
0.13445663 0.027774379 -0.0008236938 0.010803831 0.015899137 -0.042645518 -0.0054529174 0.08280035
0.0036752447 -0.05153486 -0.084170505 0.037387997 0.057079982 -0.09779499 -0.18475634 -0.16877033
0.009315714 -0.029395996 -0.29309136 0.016217541 -0.10381222 -0.04818004 0.048421215 -0.026911983
0.16923946 0.023572069 0.03148874 0.13965566 0.05368557 -0.04657443 0.06962598 0.0048158923
-0.0022596207 -0.01843858 -0.16450612 -0.06533044 0.060235202 -0.00018309325 0.04771827 0.20779496
0.0629972 0.15730725 -0.0035088805 -0.06459745 -0.044196177 -0.22862339 0.0057048225 0.022720829
-0.04515885 -0.12465265 -0.088674136 0.023450911 -0.2742165 -0.17910776 -0.045697577 -0.047617577
-0.03209921 0.098127864 -0.025396358 0.10682863 -0.08790973 -0.024719156 -0.13118887 0.064099215
0.0020698488 -0.010010714 -0.03705801 0.053585492 0.08062958 -0.015386034 0.10522765 0.07272942
0.042027634 -0.04790787 0.02146558 -0.036758225 -0.08896278 0.054914944 -0.016004795 -0.0027660956
0.055565648 0.19838676 -0.117958196 0.10814595 -0.04096149 0.019696254 0.04113296 0.14184716
0.058925927 -0.027552646 -0.009111433 0.099777706 -0.031027285 0.014468284 -0.16643734 0.037429597
-0.08571825 0.0060895076 0.0035061461 0.040301967 0.21841583 0.097927675 0.31568095 0.28940007
0.13219284 0.09294115 0.086297385 0.102979764 -0.02950024 -0.13760234 0.040236652 -0.029716905
-0.044084825 -0.113100626 -0.06791781 -0.059401616 -0.19996116 -0.021033796 -0.027221058 -0.10870803
0.030048402 -0.08714454 -0.06897331 -0.061123576 0.16956164 0.0018428182 -0.008009242 0.09319299
0.08058179 -0.068300955 0.026600745 -0.05883753 -0.07914582 -0.07291765 -0.11479226 -0.18690614
-0.010217945 -0.12531678 -0.17225775 -0.06166836 0.104335226 0.03430363 -0.0075187627 0.0076088137
0.050759304 -0.044001374 0.03248744 0.072955474 -0.02123271 -0.07900754 0.06181878 -0.029486675
0.002778902 0.035660595 0.018452631 0.060965173 0.09349392 -0.04846541 -0.053656958 0.0020962993
-0.15078937 -0.06449168 -0.0029684878 -0.043964144 0.027703386 0.09111328 0.07244499 0.020367738
0.0746812 0.02980053 -0.056142904 0.050990377 0.107013784 -0.04209689 -0.0898317 0.005611261
-0.09005185 0.14754198 -0.02107691 0.07295579 0.1270318 -0.03050309 0.06527352 -0.008118749
-0.044409633 -0.031658385 0.0012833197 0.024873836 -0.034540325 -0.021617034 -0.15766068 -0.10769389
-0.2768614 -0.20953128 0.068584755 0.0263392 0.15160719 0.07721141 -0.031226238 -0.022629725
0.11958213 -0.1109819 -0.06720069 -0.06140612 0.09688133 0.11159698 0.061954428 0.053063534
0.14126347 -0.07964629 -0.15630275 -0.11825111 0.038108137 -0.1214119 0.071983956 0.059961773
-0.17599785 0.064148284 -0.058489103 0.013117271 0.009613102 0.0629531 0.05617307 -0.07390385
0.04595271 -0.12194741 0.009537223 0.052946243 0.018378815 0.033669226 0.012502997 -0.056666214
0.028225962 0.027073763 0.062620185 -0.00083594664 0.017885124 0.11528205 0.010978832 -0.14657392

convolutional_layers.3.bias f4 [32]
00000000: 7a12 093e 3436 403c f729 463d 64ec dd3b
00000010: 2c06 7c3d f055 04bc 4944 17ba 7a35 023b
00000020: 25dd 2c3d 1202 b33c 0d0a 013d 5b93 83bc
00000030: 1eed 31bd 302a 91bd cb00 4f3d a744 b03c
00000040: 866e 1f3d fa25 bebc a11c fcbb 3027 9abc
00000050: 1e82 023c 24bc f33b 40bf 9f3a 8295 02bd
00000060: 456d 713c a49e 00bd b5e2 d23c 7a5f c1bb
00000070: f91d 5e3b 9124 a9bc f816 723c 70c7 8cbc
0.13385954 0.011731673 0.048379865 0.0067725647 0.061529323 -0.00807713 -0.0005770368 0.00198683
0.042203087 0.021851573 0.031503726 -0.016061476 -0.043439023 -0.07088125 0.050537866 0.021517111
0.038923763 -0.023211468 -0.0076938425 -0.018817514 0.007965593 0.0074381996 0.0012187734 -0.031880863
0.014735525 -0.03140129 0.025742868 -0.0059012743 0.0033892377 -0.020647319 0.014775984 -0.017184943

convolutional_layers.4.weight f4 [32]
00000000: 8c46 883f dc75 8b3f db6e 873f 04c7 853f
00000010: 9a6f 873f b1e9 8e3f 12fb 6d3f ceba 713f
00000020: c24a 833f 3bb5 723f ec8c 813f f5f1 873f
00000030: 37f8 883f 0604 853f 8aca 873f 6fd7 6b3f
00000040: e549 6b3f 54cc 783f f1d9 8b3f 05ae 693f
00000050: d67b 753f b1db 853f 8d5a 833f 6be4 853f
00000060: 0ed8 633f 058e 823f 910f 773f b50f 8a3f
00000070: 0924 6e3f e2f2 823f 3915 843f 6ee8 863f
1.0646529 1.0895343 1.0580705 1.045136 1.0580933 1.1165067 0.9296123 0.94425666
1.0257189 0.94807786 1.0121131 1.0620714 1.0700749 1.0391853 1.0608685 0.921256
0.9190963 0.9718678 1.0925885 0.9128116 0.95892084 1.045767 1.0262009 1.0460333
0.8900155 1.0199591 0.9650813 1.0786043 0.93023735 1.0230372 1.0318977 1.0539682

convolutional_layers.4.bias f4 [32]
00000000: 8e63 20be 109d 91bd 940c 01be e3a0 f7bd
00000010: 7cb9 08be b837 cfbd 5913 cfbd b9c3 833d
00000020: 5394 f5bd 7ec0 e5bd 9a07 47be 11fa b5bd
00000030: 13a1 e7bc 21fc 4bbd e409 49bd 954a c1bd
00000040: 648d 00be 13df 15bd 7827 7dbd 7eeb 2fbe
00000050: ef4f 00be a0a2 28be d4c7 5fbd 25a7 c1bd
00000060: 1b81 d5bd 5c1b 12be f9e3 33be d6fd 9b3d
00000070: 5f7c 22be 9998 a7bd 2da1 c8bd 05e2 10be
-0.15662977 -0.071100354 -0.12602454 -0.120912336 -0.13352007 -0.101180494 -0.10111112 0.064338155
-0.11991181 -0.112183556 -0.19436494 -0.08885587 -0.028275048 -0.049800996 -0.049081698 -0.094380535
-0.12553936 -0.036589693 -0.06180522 -0.17179677 -0.12530492 -0.16468287 -0.05463393 -0.094557084
-0.104250155 -0.1426825 -0.17567433 0.07616775 -0.15867756 -0.081834026 -0.09796367 -0.1414872

convolutional_layers.4.running_mean f4 [32]
00000000: 9e62 16bf 91b2 95bf 539b 8ebf d8d2 a8bf
00000010: eba2 7dbf 50fb adbf b7d1 9b3f ce7a 5e3f
00000020: a02a 7dbf dcff d63f 58d3 7fbf 6601 91bf
00000030: 619b 04c0 35df 90bf c71f 72bf 0f6f 30bf
00000040: 3c82 a23a 2260 4c3d 4274 d6bf 1334 753f
00000050: 9d4e f4be 935f cdbf 954b 5fbd 8639 afbf
00000060: eae1 513f b36b 00bf e5a4 973e b2a0 c4bf
00000070: 8c36 653f b432 92bf a0bb aabf cb48 9bbf
-0.5874423 -1.1695119 -1.1141151 -1.3189344 -0.9907672 -1.359232 1.2173375 0.86906135
-0.98893166 1.6796832 -0.9993186 -1.1328552 -2.0719836 -1.1318117 -0.9457974 -0.6891946
0.0012398432 0.049896367 -1.6754229 0.95782584 -0.47716227 -1.6044792 -0.05451544 -1.368943
0.8198534 -0.50164336 0.29617992 -1.536154 0.89536357 -1.1421723 -1.3338509 -1.213159

convolutional_layers.4.running_var f4 [32]
00000000: d302 7b3f a9ba ed3f 2cd3 a43f d0cf 863f
00000010: f8bf 923f 02fb dc3f 7f9e d33f 2f33 ca3f
00000020: cb84 2040 a084 8340 f92b e63f 4cfc 2540
00000030: 1cfc fc3f eb38 b53f 9e00 5d3f 8d20 2540
00000040: b269 6d3f a3cf 7d3f f4cf 1740 d2e1 ac3f
00000050: b449 b83f f6d5 0540 fbe9 9a3f 6b71 9d3f
00000060: 3216 f540 bd9b 023f 9ac7 d23f d414 4840
00000070: 7acc 7940 0c13 a63f 631f c23f d345 9440
0.98051184 1.8572589 1.2876945 1.0532169 1.1464834 1.7264102 1.6532744 1.579687
2.508105 4.1099396 1.7982169 2.593524 1.9764438 1.4157995 0.86329067 2.5801117
0.92739403 0.99144953 2.3720675 1.3506415 1.4397492 2.0911841 1.2102655 1.2300237
7.6589594 0.5101889 1.6467164 3.1262712 3.9031053 1.2974563 1.5165828 4.6335235

convolutional_layers.6.weight f4 [16, 32, 5]
00000000: d65f c7bd da4e 1dbe 9cc5 04bd a5fe 973d
00000010: a0b3 60bd 317b ccbc 9a26 8cbd 48ab 3bbe
00000020: 8a25 3cbe 9e3c 03be 3f4a 89be bdd7 8ebe
00000030: 50eb 5d3d 3eee b23c 9c64 26bd 6138 37bb
00000040: 8390 833b c190 1ebe 2ed8 f43d 080f 023e
00000050: 6ac0 423e 1c6a 9c3d 3198 a63c 4537 4e3d
00000060: d593 fd3d 4229 db3d 8a6e c7bd 4265 5f3d
00000070: 6858 643d 714f 523e 738f 15be 5599 dc3d
00000080: 7ac4 c93c 7962 c13d a395 0fbe 68a9 eabd
00000090: 74c0 74bd af31 20be e99d 14be ff6b 5fbd
000000a0: d84b 81bd 540e d9bd 1e88 e73d cdc7 5e3d
000000b0: 509e bc3d 3c77 3fbd 3591 ab3d 8b74 8cbd
000000c0: cf24 02be 90e2 aa3d 07e3 203d 5780 083d
000000d0: 3960 0abe f80f f9bd 0ac7 e1bd 09d1 833d
000000e0: 23be 083e cce1 3ebd 4ec9 993d 5707 62bd
000000f0: ceeb 9cbc a0c6 8dbd 35c3 ddbd ee9e 9ebd
00000100: 5912 ce3c 4706 5fbd 17c0 883c 9ba5 83be
00000110: 1e53 05bc a890 01be 6255 43be 6105 04be
00000120: 7efa 79be 2237 14be b3b2 cbbd add9 9c3d
00000130: 97b9 5bbd dd29 61bc 7669 04be 8209 29be
00000140: 726c 543d ec94 e1bd cdd7 0dbe e111 afbc
00000150: bfd5 443d fe45 013e 4fb8 5c3e c332 503e
00000160: c54e 283e c4b7 2fbd fc6c 653e 2ad1 2b3e
00000170: dfa3 db3d 25c2 e23d 7801 653e 3b1a 72bd
00000180: 7e08 2d3d 9164 163c dcd2 1a3d a3b2 0f3d
00000190: a869 ec3d cba4 883d f4b9 93bd 97f1 333b
000001a0: 4ef8 ffbc 79d5 9fbd 14c3 11be 1b25 0abe
000001b0: 97db c7bc 12b7 43bd eb06 1dbe 4890 91bd
000001c0: ad41 06be 8a2c 2ebe 4e17 153d 2c72 163d
000001d0: 8961 36bd 4274 88bd f245 adbd fc9c 27be
000001e0: 61e9 09be 6778 9abd c33e 89bd f189 f53d
000001f0: c831 20be af01 02be 8c94 5f3d a7c3 743d
00000200: f545 30be 83e7 bebc 9d39 e93d dc9d 323e
00000210: aad8 8abd 21e8 273e c72a 123a 6884 f7bd
00000220: 3580 93bd 54f7 fdbc 6bfa a7be 1972 a6bd
00000230: db61 a83d 6c39 ca3d 2cea 18bd 7c84 0ebd
00000240: 4cd8 19be 138b babd 57d9 513d 8973 84bd
00000250: b24d 1a3d b258 bbbd 28da 7fbd 17eb 7dbd
00000260: 9106 ccbd cc9c a73d bd71 c73d 675e 10bd
00000270: 738f 62be b232 aebd fba1 92bc 8172 72bd
00000280: 0856 7a3e b42a 633e 80e3 5d3d 9626 273e
00000290: 5b0e a03d 26e0 a33d cd4e 013e f78b ab3b
000002a0: 2250 573e b969 0d3e da1e c63d 4228 5e3e
000002b0: 8763 0f3e 1fd6 123e 2998 383c 4439 da3d
000002c0: 74eb 363c 5240 66bd e28a 17be 6fa5 663e
000002d0: a6c2 74bd 0468 0ebe d19e 90bd d787 f63d
000002e0: cd2f 943c 7b03 55be 48b0 cabd 131a fc3b
000002f0: e7f3 48be 92a6 5dbc 44b8 5ebd 78f0 afbd
00000300: 1d71 b63d 9c22 3dbe 6c94 4bbe 3655 ccbd
00000310: a162 30be 616d 23be 20c0 73be bc9f 7dbe
00000320: 5918 303e 0cca 28be b7f8 153d 6355 38be
00000330: 2ba2 0cbe dc97 993c e456 3dbc 278c d43d
00000340: b6c5 bb3c 5df7 653d 6055 d4bd 9bcd b03d
00000350: 10dd 1b3e a867 abbd e426 37bd 22cb f2bc
00000360: fdce edbd 2502 30be 6ba5 4abe f50f 40be
00000370: d6d5 eabc d4f6 ed3c 850b e33d 938a 12bd
00000380: 475b 313e 6413 863c 4f30 56bd e56a 97bd
00000390: 7af0 5abd 28a8 643e d2c0 9cbd f79c 11bd
000003a0: e831 2dbe 9aac be3c 1a47 09bd 95b7 28be
000003b0: dbc7 df3c df06 56bd 486c 6e3d 546f bd3d
000003c0: c842 853c 3fa4 ef3d 97f1 5b3d b530 8c3c
000003d0: bc7a d03d a909 063e d114 f0bd 4264 673d
000003e0: b603 9c3d 3b1f dabd 60b7 d3bb 3fd4 afbd
000003f0: 2cdc ef3d 93ff 05be d013 a33c eba8 25be
-0.09735076 -0.1536211 -0.032415017 0.074216165 -0.054858804 -0.024961086 -0.068433 -0.18327057
-0.18373695 -0.12816092 -0.26814458 -0.2789897 0.05417949 0.021842118 -0.040623292 -0.0027957188
0.00401503 -0.15484907 0.119552955 0.12701046 0.19018713 0.07637426 0.020336242 0.050345678
0.12381712 0.10701229 -0.097378805 0.054539926 0.055748373 0.20538117 -0.14605503 0.10771433
0.02462982 0.0944261 -0.14021926 -0.11458093 -0.05975385 -0.15643953 -0.14513363 -0.054546352
-0.06313294 -0.10598436 0.11305259 0.054389764 0.09209883 -0.04674457 0.083773054 -0.06858166
-0.12709354 0.083439946 0.03927901 0.03332552 -0.13513269 -0.12161249 -0.11024292 0.06436355
0.13353781 -0.046602055 0.07509099 -0.05518278 -0.01915541 -0.0692265 -0.108282484 -0.07745157
0.025155233 -0.054449346 0.016693158 -0.25712284 -0.008137492 -0.12652838 -0.1907554 -0.12892677
-0.24411961 -0.14474156 -0.099461935 0.07658706 -0.05364379 -0.013742891 -0.12930855 -0.16507533
0.051861234 -0.11014733 -0.13851853 -0.02137083 0.048055407 0.12624356 0.21554683 0.20331864
0.16436298 -0.042899862 0.22404855 0.16779009 0.10724615 0.110721864 0.22363842 -0.059107047
0.042244427 0.00917925 0.037798747 0.03508247 0.1154359 0.06672057 -0.07213202 0.0027457231
-0.03124633 -0.078043886 -0.14234573 -0.13490717 -0.0243967 -0.04778201 -0.1533467 -0.071075976
-0.13110991 -0.17009178 0.03639918 0.036729977 -0.04452661 -0.066627994 -0.08460607 -0.16368479
-0.13467933 -0.07542496 -0.06701424 0.11989201 -0.1564399 -0.12695955 0.054585025 0.0597569
-0.17214186 -0.023303753 0.11387942 0.17443031 -0.06779607 0.16397144 0.00055758323 -0.12085801
-0.07202188 -0.031001724 -0.3280824 -0.08127231 0.082217894 0.098742336 -0.0373327 -0.034794316
-0.15023917 -0.091085576 0.051232662 -0.06467349 0.037671752 -0.09147777 -0.06246391 -0.061991777
-0.0996219 0.081842035 0.09738491 -0.03524628 -0.22125034 -0.08505763 -0.017899504 -0.05919123
0.24446881 0.22184259 0.05417204 0.16323313 0.07815238 0.08001737 0.12627716 0.005235191
0.21026662 0.13809861 0.09673853 0.21695045 0.1400281 0.14339493 0.011266747 0.10655454
0.011164535 -0.056213684 -0.14799073 0.22524045 -0.059755944 -0.13906866 -0.07061542 0.12037628
0.0180892 -0.20802109 -0.09896904 0.007693538 -0.19624291 -0.013528483 -0.05437495 -0.08590788
0.089082934 -0.18470234 -0.19880837 -0.0997719 -0.17225124 -0.15959693 -0.23803759 -0.24767965
0.17196788 -0.16483325 0.036614146 -0.18001322 -0.13733737 0.01874917 -0.011556361 0.103782944
0.022921424 0.056144107 -0.103678465 0.08632966 0.15221047 -0.0836938 -0.044714823 -0.029637877
-0.116117455 -0.17188318 -0.19789664 -0.18756087 -0.028666418 0.02904836 0.110861816 -0.035776686
0.17319976 0.016366668 -0.052292164 -0.073934354 -0.053451993 0.22329772 -0.07653965 -0.035550084
-0.16913569 0.023275662 -0.033515073 -0.16476281 0.027316978 -0.052252647 0.058208734 0.0924975
0.016267195 0.11701249 0.053697195 0.01711307 0.1017966 0.13089623 -0.117227204 0.056492098
0.07617895 -0.10650488 -0.006461069 -0.085854046 0.11711916 -0.13085775 0.019906908 -0.16177718

convolutional_layers.6.bias f4 [16]
00000000: 9cff 64bd 6597 bfbc 6d8c 48bd 3d5f 88bb
00000010: 2aee 86bd 71f1 78bd b9a5 adbd dbdd efbd
00000020: 8387 b7bc 4007 3ebd 0dbc debd a1b7 bebc
00000030: 0cf3 2dbd 1432 e53b 27b6 ccbb afbf debd
-0.05590783 -0.02338762 -0.048962045 -0.004161744 -0.06588395 -0.06077713 -0.08478875 -0.117122374
-0.022403484 -0.046393633 -0.108757116 -0.02328092 -0.042468116 0.006994495 -0.0062473 -0.108764045

convolutional_layers.7.weight f4 [16]
00000000: 2d78 643f 56a4 4f3f db88 513f f081 5d3f
00000010: c066 5b3f a21d 5a3f b0d9 5e3f 3322 633f
00000020: ac7b 713f 70ef 5a3f 9c0b 773f c5b5 3a3f
00000030: 204a 683f 623b 593f 750e 5f3f 9035 6e3f
0.89245874 0.8111013 0.8184945 0.86526394 0.8570366 0.85201466 0.87050915 0.8872406
0.94329333 0.855216 0.9650209 0.7293361 0.90738106 0.84856236 0.87131435 0.9305048

convolutional_layers.7.bias f4 [16]
00000000: c2ef 10be 769c 11be 8405 46be baff 4bbe
00000010: 3e16 19be 767f 3fbe 8315 f7bd d383 7bbd
00000020: 39c3 00be 37fb 09be 4094 d0bd e69f 8fbe
00000030: 635e 09be 9c3e 2bbe 84a4 2ebe a69a 48be
-0.1415396 -0.14219841 -0.19338042 -0.1992177 -0.14949891 -0.18700966 -0.1206465 -0.061405014
-0.12574472 -0.13474737 -0.101845264 -0.2805168 -0.13414912 -0.16723102 -0.17054945 -0.19590244

convolutional_layers.7.running_mean f4 [16]
00000000: 33c1 b7bf 880d 0bbd 25d5 a9bf c350 3dbf
00000010: 6b65 7fbf 86e5 86bf bb12 2dbf 54f9 37bf
00000020: 6000 43bf fa4e 44bf 376f 25bf 746f 2a3f
00000030: 6a3e 4cbf dedf b4be c89d 31bf 685f 44bf
-1.4355835 -0.03394845 -1.3268172 -0.7395136 -0.99764127 -1.0538795 -0.67606705 -0.7186482
-0.7617245 -0.7668301 -0.64622825 0.66576314 -0.79782736 -0.35327047 -0.6938138 -0.7670808

convolutional_layers.7.running_var f4 [16]
00000000: b25b 323f df2e 633f 5beb 713f f2fb 533f
00000010: f822 4e3f 4407 403f 792c 393f 9e3b 343f
00000020: c8de 723f 130e f53e 797c 393f 7018 c23f
00000030: 17a2 133f 6301 253f 7685 273f ee99 1d3f
0.69671166 0.88743395 0.9449975 0.82806313 0.8052211 0.75011086 0.72333485 0.7040347
0.9487119 0.478623 0.72455555 1.5163708 0.57669204 0.6445524 0.6543802 0.61563003

output_layer.weight f4 [11, 3008]
00000000: 7a47 c0bd 77f9 0fbc 5388 af3c 5627 a23c
00000010: 252f 293d 2b6b a63d bb29 743c cd5b b2bd
00000020: bc90 fbbd c753 023d 2f69 2abd 8e39 dcbd
00000030: aebc b2bd 5a87 6abd 2b42 87bd 3b18 1e3c
00000040: e1b4 99bd feee 17bd d8ff 93bc 47b4 bf3c
00000050: 6624 d33c 3130 90bd 9183 4dbd 8aa2 3b3b
00000060: 8a6e 7f3c bbfc 993d 451d f23b 9ff2 6f3a
00000070: 7ac6 6bbd cdeb 24bc a980 86bc f807 403d
00000080: 7a41 893b 7206 163d ea6a 413d d88a 203d
00000090: 2504 b8bc 7526 5a3d 0f23 dabb 71a1 66bd
000000a0: 091b 36bd dc02 91bd 0a6d 24bd c145 1d3d
000000b0: 0b8c 953d 0432 a13d 0d0c e13b 298b 25bb
000000c0: 0df0 993b cad2 28bc 944f 943c da8f f2bd
000000d0: a2c5 22bc d504 44bd c49b 6abb a128 9c3d
000000e0: e75f e639 2fa2 49bd 3171 bdbc cb56 8cbd
000000f0: 872b 593c 58df a4bc d339 b4bd 5d85 00be
00000100: d15f 0ebe 450a 45bd f1d5 0cbe 9050 19be
00000110: f499 a9bd 6ae1 14bd 19b2 06bd e4ea 01be
00000120: 9264 40be 21a0 ecbd e51b d7bd 4eda 1bbe
00000130: a41f 34bd 364a 88bd ece5 4abd 905e 083d
00000140: 80f4 18bd 9fc7 6abc 3fa7 05bd b64a b9bc
00000150: 8774 563c fdf4 e73b b3e3 a3bc 5cd4 903d
00000160: a5b2 b4bc 018b 4cbd 4dcf 83bd 1f4a 48bd
00000170: 0f25 883a 9f76 233d 0a1d 23bc cb04 83bb
00000180: 446a 1bbd d9ae a2bd 0358 6dbb b8cb 39bd
00000190: 0715 b3bd 8436 da3c 2d1c 873d 3cf7 38bc
000001a0: a248 cd3b 6497 a83d 7882 40bd 94d4 10bb
000001b0: b7df 72bd 43b2 143d 54ba 123d 7e59 97bd
000001c0: 7139 91bd c070 c9bd 61df 02be 47d9 5dbd
000001d0: 5959 c0bd 4da2 103b d15c 083b 9361 453d
000001e0: d428 5bbc b965 d6bd d899 07be 8780 953c
000001f0: 371d 053d 43d7 8d3a 31ac 783a 7ee3 30bd
00000200: f0cd 09bd 7050 44bd 1534 923c 746d 1e3d
00000210: bd23 ccbc bc78 8a3d d3eb 263c cfe3 1abd
00000220: 8b9e 4abd c81c 29bd 74dd 1d3d a494 c5bc
00000230: a954 513c 8082 38bd f298 89bd 01bf b73d
00000240: 9a18 853d 6664 bd3d c4cc c53c 8edc a038
00000250: ab45 573d b84c 353d 0f2b 97bd c6f0 39be
00000260: fe96 a9bc 56b9 5dbb 2750 63bc 22e8 b2bd
00000270: f0f8 903b 83b5 38bd db4e 01bd a250 18be
00000280: 172d 95bd f40b 7fbd c7e7 e2bd 66cc 8fbd
00000290: e5b6 1bbe 344c b9bd df65 3bbe e237 32be
000002a0: 8db2 19be 2d6e 9bbd e4c6 88bd cb37 21be
000002b0: d60b 3bbe 8fc7 96bd d3f2 0bbe 4c46 0abe
000002c0: 9d77 a7bd a738 38be 5866 fabd 44cd 00be
000002d0: 0761 75bd 0d0c 6cbd dbeb 06be ea82 e1bd
000002e0: d8d4 efbd 5924 15bd e9f7 d9bd 5f81 d2bb
000002f0: 153a b33d 2c31 903d 7ed6 7d3d bc25 6e3d
00000300: 976b a9bc a5d2 133d 9f81 83bc 9db8 633b
00000310: d715 5e3d 5fb0 913d 04f1 233c 1bb6 a33c
00000320: 22b3 5f3d 4d7d df3c 4c6e 483d 37bf d03c
00000330: 37cb ad3c 9192 083d c5d9 c13d 93dd 543d
00000340: d53d 0c3d 8ec8 e1bc 15cf 92bc 0ddf 763c
00000350: f034 35bb ceff bd3c bc61 1a3d 72f5 4d3d
00000360: 9ddc d43c e6cb 9e3d 012a a83c 0e36 193d
00000370: 5231 5f3c 5daa 9b3c 44b2 e33c a516 0f3d
00000380: 36a0 1a3d c197 483d 86f5 543d c75e 173d
00000390: 9d5b dc3c ca26 953b 7e38 763d c9e9 bbbc
000003a0: c27e bb3c 9505 443d 1b28 cc3b f273 0d3d
000003b0: bcd4 c13c 4832 123c 0276 683d 1c6b b43d
000003c0: 7be1 1d3d d489 483d 5742 a33c 9656 b33d
000003d0: ff88 8b3c 47b4 413d 5363 603d e4b9 ab3d
000003e0: d72e e23b d51d 203d 4064 923c 87cc 9ebc
000003f0: 27e1 803d 9c86 653d 3b38 703d acbd bf3d
-0.09388633 -0.008787504 0.02142731 0.019794147 0.041304726 0.081259094 0.014902527 -0.08708916
-0.12283465 0.031818178 -0.041604217 -0.10753165 -0.08727394 -0.057257988 -0.066044174 0.009649332
-0.07505203 -0.037093155 -0.018066332 0.023401393 0.025774192 -0.07040442 -0.0501743 0.0028630816
0.015590319 0.07518908 0.007388743 0.000915328 -0.05756233 -0.010065985 -0.016418772 0.0468826
0.0041887136 0.03662724 0.0472211 0.03919491 -0.022462914 0.05325933 -0.0066570113 -0.056306306
-0.044459376 -0.070806235 -0.04014305 0.0383966 0.07302102 0.07870868 0.0068678916 -0.0025259948
0.0046978057 -0.010304162 0.018104352 -0.11843844 -0.009934815 -0.04785617 -0.003579841 0.07624937
0.0004394047 -0.049226936 -0.023125263 -0.06852492 0.013255007 -0.02012603 -0.088000916 -0.12550874
-0.13903739 -0.048105497 -0.13753487 -0.14972138 -0.08281317 -0.036347784 -0.03288469 -0.1268726
-0.18788365 -0.1155398 -0.10503367 -0.15219995 -0.043975487 -0.066547796 -0.049535677 0.033293307
-0.03734255 -0.01432982 -0.0326302 -0.022618633 0.013089306 0.0070787654 -0.020006036 0.07071754
-0.02205784 -0.049937252 -0.06436024 -0.048898812 0.0010387021 0.039908048 -0.009955654 -0.003998374
-0.03794314 -0.07943506 -0.003621579 -0.045360297 -0.08744245 0.026637323 0.06597171 -0.011289414
0.006264762 0.082320005 -0.046999425 -0.0022099363 -0.059295382 0.036302816 0.035822228 -0.07390116
-0.07091034 -0.098359585 -0.12780525 -0.05416229 -0.09392042 0.0022069395 0.0020807276 0.048188757
-0.013376433 -0.10468621 -0.1324228 0.018249763 0.032498565 0.0010821599 0.0009486108 -0.043185703
-0.033643663 -0.047928274 0.0178471 0.0386786 -0.024919385 0.067613095 0.010188061 -0.03781491
-0.049467605 -0.041287214 0.038541272 -0.024118729 0.012776532 -0.04504633 -0.06718625 0.08971978
0.06498833 0.09247665 0.024145491 7.670476e-05 0.052556675 0.044262618 -0.0738126 -0.18158254
-0.020701881 -0.0033832393 -0.01387409 -0.08735682 0.004424207 -0.045094978 -0.031569343 -0.14874509
-0.07283991 -0.06226726 -0.11079364 -0.07021408 -0.15206487 -0.09047738 -0.1830058 -0.1740413
-0.15009518 -0.07589374 -0.066785604 -0.1574394 -0.18266234 -0.073622815 -0.13666849 -0.13503379
-0.08177111 -0.17990361 -0.12226552 -0.12578303 -0.059906986 -0.05762868 -0.13175909 -0.11011298
-0.117105186 -0.036411617 -0.10642988 -0.0064241136 0.08751313 0.07040629 0.061972134 0.058141455
-0.020681186 0.03608956 -0.01605302 0.003474749 0.054220047 0.07113718 0.010006193 0.019984296
0.054614194 0.027281428 0.048933312 0.025481803 0.021215064 0.0333429 0.09465364 0.051969122
0.034238655 -0.027561452 -0.01792101 0.015067828 -0.0027649961 0.023193266 0.037690863 0.050282903
0.025984103 0.07753734 0.020527842 0.037405066 0.013622599 0.019002134 0.027794965 0.034933705
0.037750445 0.04897285 0.051991962 0.03695562 0.026899153 0.004551743 0.06011247 -0.022938626
0.022887591 0.047856886 0.006230367 0.034534402 0.02366101 0.008923121 0.056753166 0.08809492
0.038545113 0.04895957 0.019929094 0.08756749 0.017033098 0.047291066 0.054782223 0.08385065
0.0069025564 0.03909095 0.017870069 -0.019384636 0.062929444 0.056036577 0.058647376 0.09362349

output_layer.bias f4 [11]
00000000: 9383 bf3d 2429 28bd 969f 27bd 531f ddb9
00000010: ee85 3bbd 521b aabc ec28 a93c 4c77 7abd
00000020: fba2 0dbd 7c70 113d 8a0f bb3d
0.09351268 -0.04105486 -0.040923677 -0.00042175743 -0.045782022 -0.02076498 0.020649396 -0.061148927
-0.03457926 0.035507664 0.09133823
