libemg_3dc/transfer_learning/checkpoints/feature_extractor_without_fc_reset.pt (torch, 207338 bytes, 20 tensors)

convolutional_layers.0.weight f4 [64, 10, 5]
00000000: 39d5 abbd bf06 7dbd f67f 04bc a8bb 173e
00000010: 1689 bebd 428a 863d 2bb9 78bd 53f0 9b3a
00000020: 0c89 1f3d ca04 123d 8b74 173e 3cc2 1d3e
00000030: e93a 65be 34e1 4bbe 1626 91bc c9fd e8bd
00000040: 8779 9cbd 911c 0c3e 1b81 c9bb 8a91 19bc
00000050: 04a5 43bd 08aa 1dbd caac 0c3e c73f 783e
00000060: 8bd7 3bbe 7e5c c73d 3548 7cbd 52ba 593d
00000070: d2db 003d f51e ecbd 83d5 90bc 8d79 e1bc
00000080: 4211 b8bd b893 02bd 934b 2e3e f698 e33d
00000090: 58d7 fe3c e578 c83b 5de6 1abe 1d93 29bd
000000a0: e5dd b9bd 5c6e a4bd c830 b0bc 0f40 013e
000000b0: 15e2 90bc 719e d1bd 8b9e 53bc 3aa3 c63d
000000c0: aa2d 353e bb5a 7a3d e219 ffbc c342 cabc
000000d0: 8044 c23d ae36 103d b351 ffbc 79c5 31be
000000e0: aba6 e3bd e4d7 a13d fa69 6abd 1279 05bd
000000f0: 6437 c0bc 45eb f43d 9440 3cbd 119d c8bd
00000100: 5ff8 933d 7262 e03c 2f8d b63d 36a1 babd
00000110: 8ad9 56be 7e68 483e 7cc9 9b3d 1d3a 173e
00000120: 3ff9 51be 7296 1dbe dce4 7d3e 23ee 86bd
00000130: 84f3 fc3c 728a 15be d0e5 a53c 5e61 053e
00000140: 99bd d33d bc05 bbbc 5da8 24bc 9d86 8bbd
00000150: 7a11 90bd 4908 6fbc db8c ecbd d31a f73d
00000160: 6d33 c93d 94b1 63bd 7c34 cf3c 6529 12bc
00000170: edec 253d 8cb6 933d 27ee a4bd 6998 92bd
00000180: eff4 7e3d 8d23 223e 5860 033e f37e bebd
00000190: 0424 f23d b1ac 65bd 9287 a9ba 620e b5bd
000001a0: 6762 a13d da92 cc3d b367 873d e50c ce3d
000001b0: 8353 82ba 6969 92bd 5e35 af3a 3513 cabd
000001c0: 5c09 9f3a b554 0dbd 464d a6bd 8e07 663c
000001d0: be7f 8abd 6eaa 2f3d 9a98 d13d a13b f63d
000001e0: 8a40 65bd 2f39 b6bc 216e 843d 4f96 51bc
000001f0: 612e 033e d2b5 eebc faad 4e3d 9341 503d
00000200: d408 943d bd6e 8b3d c2c9 923c ec1e d3bc
00000210: bece d2bc ddfb edbd e46e d5bc cffa 97bd
00000220: 26a1 2a3d 8594 a13d 6425 d13d b1f8 603d
00000230: f4fd 853c 991f d6bd 5b2f 7b3d f626 203e
00000240: 5ed3 dc3d bae2 e0bb dedc 3fbd 3f5e f2bd
00000250: 00e0 9fbe 0374 8fbe 40a3 80bd ba1e 51bd
00000260: 9ff4 10bb b284 103e e825 3d3c 4fda da3d
00000270: a8b6 1dbd d367 0ebe 832e 61be 4865 763c
00000280: 7697 8abd 3690 a43d e915 3abe 6520 c23d
00000290: 23e4 083e c165 6c3d 8c03 b1bb c532 b63d
000002a0: d28b 2b3e 0da5 233d a434 823d 2ed5 19bd
000002b0: fe2b 6d3c d4e3 c53d 899f 04be 8a51 28bd
000002c0: 970b f5bd 8e72 4abd 8c02 013e bc58 2b3d
000002d0: 4c21 e43d 61eb c23c 0d40 3d3d b68d 52bd
000002e0: edca debc 3d3f 05bd 0cc3 8dbd 7f06 073e
000002f0: 7af9 193d 28e9 93be 3b73 e6bd a1d0 25be
00000300: 67f6 293e c55d 853e 569f dcbd fffe 1b3d
00000310: cd57 2c3d 51df 29bd 6077 be3d fb65 53bd
00000320: 5e22 12be 046e ad3c 700e b63d e154 fbbc
00000330: 861d 4ebe 4f42 a43d 5de1 543d 3dc3 e03c
00000340: b7f8 173d 9716 d73c 4a35 12bd bc7a 283d
00000350: 17f7 b93d a5b2 9dbd fc00 d7bc fa8b 3bbd
00000360: 48dd 503d e243 fdbd 6a60 203d efbf 303d
00000370: 8d6d bbbb fb82 72bd cea1 16bc c9ad 91bd
00000380: 06da 8e3d 3f05 3ebe 15ae 46be 68e9 38be
00000390: bd4c 343d a1d2 9ebc f1c7 203d e4b7 993c
000003a0: dfeb 07bd 6b72 5a3d 803e b4bd 0800 69bd
000003b0: 9436 ca3d 30a0 17bc 45bf 13be 9ab6 c23d
000003c0: 574c b33d ed04 afbd fc3f 35be 5bc4 96bd
000003d0: b880 b93d 0f15 a33d c000 5dbe 1f82 31bd
000003e0: 76d7 453e 005e f1bb 9d3a 973d 57ee 19be
000003f0: da06 043d 8f12 dfbd 37e9 4e3b d08d 9a3d
-0.08390278 -0.06177401 -0.008087149 0.14817679 -0.09303491 0.06569339 -0.060723465 0.0011897184
0.038949057 0.0356491 0.14790551 0.15406126 -0.22385754 -0.19910127 -0.017718356 -0.11376531
-0.07640367 0.13682772 -0.006149424 -0.009373078 -0.047764793 -0.038492233 0.13737789 0.24243079
-0.18343942 0.09734438 -0.0615923 0.053156205 0.031459637 -0.11529342 -0.017679935 -0.02752378
-0.08987667 -0.031879157 0.17021017 0.11113159 0.031108543 0.0061179274 -0.15126939 -0.041400064
-0.09075526 -0.08028862 -0.021507636 0.12622093 -0.01768593 -0.102352984 -0.012916218 0.09699102
0.176932 0.061121684 -0.031140272 -0.024690038 0.094857216 0.035208397 -0.031166887 -0.17360486
-0.11115774 0.07902506 -0.057229973 -0.032586165 -0.023463912 0.119589366 -0.045960024 -0.09795583
0.072251074 0.027390692 0.089136474 -0.0911278 -0.20981422 0.1957111 0.076067895 0.14768262
-0.20505236 -0.15389422 0.24794334 -0.0658839 0.030877836 -0.14603594 0.020251185 0.13025424
0.10338897 -0.022829883 -0.010049907 -0.06812785 -0.070345834 -0.014589378 -0.115503035 0.12065663
0.09824262 -0.055589274 0.025293581 -0.008921002 0.040509153 0.072125524 -0.080532365 -0.07157976
0.062245306 0.15833874 0.12829721 -0.093015574 0.11823276 -0.056072894 -0.001293408 -0.08840634
0.07880097 0.09988947 0.06611576 0.10061053 -0.0009943101 -0.07149012 0.0013367345 -0.09866945
0.0012133527 -0.03450461 -0.081202075 0.014039887 -0.06762646 0.042887144 0.102341846 0.12023092
-0.055969752 -0.022244064 0.06466318 -0.012792184 0.12810661 -0.029139433 0.050458886 0.050843786
0.07228246 0.06808231 0.017918471 -0.02577158 -0.025733348 -0.11620305 -0.026053853 -0.07420885
0.04165759 0.07889656 0.1021221 0.05492467 0.016356446 -0.104552455 0.06132446 0.15639862
0.107825026 -0.0068629654 -0.046841495 -0.11834382 -0.31225586 -0.28018197 -0.062811375 -0.051054694
-0.0022118462 0.14113119 0.011544682 0.1068617 -0.038504273 -0.13906793 -0.21990399 0.015038796
-0.0676717 0.080353186 -0.1817242 0.09478835 0.13368277 0.057714228 -0.005402034 0.08896402
0.16752556 0.039952327 0.06357697 -0.03755682 0.014475821 0.096625954 -0.12951483 -0.041093387
-0.11965101 -0.049425654 0.12598628 0.04183267 0.111391634 0.023793878 0.04620366 -0.051404677
-0.027196372 -0.03253101 -0.06921968 0.13186072 0.037591435 -0.28888822 -0.11252447 -0.16192867
0.16597901 0.26048103 -0.107725784 0.03808498 0.04207592 -0.041472737 0.09300113 -0.051610928
-0.14270923 0.021170624 0.088894725 -0.030680122 -0.2012845 0.0802046 0.051972736 0.027436847
0.037102427 0.026255889 -0.03569535 0.041132674 0.09080332 -0.07700089 -0.026245587 -0.04578779
0.05099228 -0.12366463 0.039154448 0.043151792 -0.0057198466 -0.059206944 -0.009193851 -0.07113225
0.069751784 -0.18556689 -0.19402345 -0.18057787 0.044018496 -0.019387545 0.03925318 0.018764444
-0.03318393 0.053331774 -0.088009834 -0.056884795 0.09873691 -0.0092545 -0.14428432 0.09507485
0.08754795 -0.085458614 -0.1770019 -0.073616706 0.09057754 0.07963001 -0.21582317 -0.043336984
0.19320473 -0.007365942 0.073842265 -0.15032326 0.032233097 -0.10892212 0.0031572112 0.0754658

convolutional_layers.0.bias f4 [64]
00000000: 3a3c 8f3d 3df5 1abd 2a1b 483d 37fb 76bd
00000010: 60d8 6a3d cbcf f7bc 8a17 de3b 3f22 7d3c
00000020: e33f c1bd 12ad b23c 7448 6abb c0d8 b7bd
00000030: 76d5 c53c f486 31bd 3998 9cbc ad93 2fbd
00000040: 56b0 31bc a3d5 ef3c d5b6 28bc 6723 f03d
00000050: c59b aabc 258e 533d d365 3bbd e676 84bc
00000060: b91c 99bd d8a4 2dbb f263 08be fd11 3b3d
00000070: c689 223d 6dbb 283b 9a86 313c 1b6e ab3c
00000080: 7afd bd3c 7e38 603c f0e1 94bc 025f f3bc
00000090: 69d7 433d dce3 293d c8f1 563d 2041 2f3b
000000a0: c475 c03c c35a 803c eb76 10bd 9607 6cbd
000000b0: badc a93b feec 6b3c 3e4b 693d 0c18 283b
000000c0: b330 1abd 00e0 013d f15d 72bc 93d4 e73c
000000d0: a3f3 083d 3b2b f1bc 0943 163d 4987 0c3b
000000e0: f9dc c33c 85ec 37bd 7a2d 35bd 8247 a93c
000000f0: 9f61 723d 7e2d 91bb 4f0b 04bc 1419 f9bc
0.06993909 -0.037831534 0.04885403 -0.06029817 0.057335258 -0.03025045 0.0067777084 0.015450059
-0.094360135 0.021811042 -0.0035748752 -0.08976889 0.024149638 -0.043341592 -0.019115554 -0.042865444
-0.010845264 0.029276675 -0.010297497 0.117255025 -0.02082623 0.05164923 -0.045751404 -0.016169976
-0.074761815 -0.002649596 -0.13319376 0.04567145 0.039682172 0.002574648 0.010835314 0.020926526
0.023192156 0.013685344 -0.018174142 -0.02970839 0.047812853 0.04147707 0.052476674 0.0026741698
0.023493655 0.015668279 -0.03526966 -0.057624422 0.0051837834 0.014399765 0.056956522 0.0025649099
-0.0376441 0.031707764 -0.014792905 0.028299605 0.033435475 -0.02943956 0.036685023 0.002144294
0.023909079 -0.044903297 -0.044232823 0.02066398 0.05917513 -0.004430472 -0.008059337 -0.030407466

convolutional_layers.1.weight f4 [64]
00000000: 1822 843f ba13 813f 9dda 753f f1be 7f3f
00000010: e90a 703f 8fd1 6f3f 1535 883f 50e4 853f
00000020: f35a 783f 36c2 6d3f f751 803f cc19 783f
00000030: 7637 7c3f b782 853f 06a5 863f e713 803f
00000040: 3114 743f aec6 803f 87f4 7f3f 81fa 833f
00000050: ebc2 823f e847 853f 6c3e 773f ebe3 8c3f
00000060: 5a60 8b3f cf67 703f 8e77 933f 5ea3 6e3f
00000070: 9488 823f 4f74 763f 41c6 803f 25a7 7f3f
00000080: dd44 773f 71dd 6d3f fdae 823f eb05 873f
00000090: 9adf 6f3f 4657 843f 4969 823f 1398 773f
000000a0: b454 793f a87d 813f 12a8 7e3f a1a4 723f
000000b0: d379 823f 8e0b 713f aca6 733f ec19 843f
000000c0: bfb1 803f 7e32 6e3f bb20 833f d469 7b3f
000000d0: 449b 743f 3a9e 5e3f 693e 713f 7d52 7c3f
000000e0: a66e 773f b5a6 803f 2427 853f 06f6 883f
000000f0: fd61 7b3f 836c 853f b030 5a3f 7e7c 843f
1.0322905 1.0084145 0.960367 0.9990073 0.9376665 0.93679136 1.0641199 1.04603
0.9701378 0.9287447 1.0025014 0.9691436 0.98522127 1.0430516 1.0519111 1.0006074
0.9534331 1.0060632 0.99982494 1.0310823 1.0215734 1.0412569 0.96579623 1.1007055
1.0888779 0.939084 1.152086 0.9321803 1.019793 0.9627122 1.0060502 0.9986442
0.9658945 0.9291602 1.0209652 1.0548681 0.93700564 1.0339134 1.018838 0.9671642
0.9739487 1.0116472 0.99475205 0.94782454 1.0193428 0.94158256 0.95176196 1.0320411
1.0054244 0.93045795 1.0244364 0.98208356 0.95549417 0.86960185 0.94235855 0.9856337
0.9665321 1.0050875 1.040257 1.070008 0.98196393 1.042374 0.8523054 1.0350492

convolutional_layers.1.bias f4 [64]
00000000: 1697 9bbb fcb8 a83d 2611 9dbc bb08 81bc
00000010: 89ba 843c 66ea a93d 0c4e 183c 179f 7dbd
00000020: 780b 033d 53aa b0bc b931 ee3b 05fa 80bb
00000030: be84 983d 7254 d63c 28e1 c3bb 54e7 953d
00000040: 5b7b b03c 3ad2 e7bb fc38 c93c 8f46 a6bd
00000050: 70b6 d13c bed8 cbbc ba72 463e a567 f8bc
00000060: 0a95 903c 2b34 10bd 7a98 713b 6ef6 a9bc
00000070: d156 1a3d 5a2b 273d 5c87 313c 9d53 e0bc
00000080: a5c1 903c 3564 1dbd 66f7 463d 3763 3bbd
00000090: 676e 333c 718f aa3d 9c68 a43d 35fe d1bc
000000a0: a458 04bd ba8d 3dbd 19cb f13b 04e5 fcbc
000000b0: 408e 623c 2730 bbbb 6bf7 e1ba 8168 2a3b
000000c0: 4199 3fbd 10bb 2e3e 957e 223c df84 e4bc
000000d0: aebc 6dbd 2efe 303d 721d aabb 92f0 84bc
000000e0: 1284 343d 0f80 b7bc d90e 37bd 3738 1dbc
000000f0: 81af 9e3b 4504 773c f3ab 213b 4463 1bbc
-0.0047482355 0.08238408 -0.019173216 -0.015751233 0.016202228 0.08296661 0.009295952 -0.061919298
0.03199336 -0.021565592 0.007269111 -0.0039360547 0.074471936 0.026163314 -0.0059777685 0.07319513
0.021543195 -0.0070746215 0.024563305 -0.08118927 0.025599688 -0.024883624 0.19379702 -0.030322859
0.017649192 -0.035206 0.0036864565 -0.02074739 0.03768045 0.040812828 0.010835495 -0.02738362
0.017670462 -0.038425643 0.04857578 -0.045748916 0.010951615 0.083281405 0.08027765 -0.02563391
-0.032311097 -0.04627774 0.0073789475 -0.030870922 0.01382786 -0.0057125273 -0.0017239874 0.002600223
-0.046777014 0.17063546 0.009917875 -0.02789539 -0.058041267 0.043211155 -0.0051914984 -0.016227994
0.044071265 -0.02239993 -0.044691894 -0.009595922 0.004842699 0.0150767015 0.002466914 -0.009484116

convolutional_layers.1.running_mean f4 [64]
00000000: 14ab 7d3d 4ef6 d9bb 0628 e53c b1dd 0bbd
00000010: 8ac4 0a3d 745c 12bd 427b a3bb 57f8 e0bc
00000020: c743 11be eb20 adbd 278d fcba 91b3 0ebe
00000030: 7e93 abbb ecca 90bd 266c c9bc d455 9abd
00000040: d42a c1bc 2cc7 9b3c eb2a 9b3c f773 ca3d
00000050: 4bbc fcbb 5161 3e3d 0515 79bd 7a3b 8bbc
00000060: e72f afbd a2b9 a3bb 2b1d 08be 79fc 513d
00000070: 9060 8b3d c7d2 1bbd 2f70 e33c 2e66 d53c
00000080: 38e4 513c 277d 233d 8597 083c 483e 8fbc
00000090: 6c6d 1c3d c441 cf3b b4a2 d93c 9bd9 b13a
000000a0: 05d7 b43c 22c0 3f3c e4d1 dfbc 5874 8ebd
000000b0: c4f3 4db9 d574 35bb 6873 143d 14b1 85bc
000000c0: be77 71bd 5906 343b de34 27bd ab20 623c
000000d0: 14c0 903c 6c28 98bc 0684 c33c 2f99 893c
000000e0: e3c3 c23c 2d59 1ebd f03c 9dbd 7750 7b3c
000000f0: 5ddd 9d3d 499a 2abc f4fd 353b cf6d c3bc
0.06193073 -0.0066516763 0.027973186 -0.03414697 0.03387884 -0.0357327 -0.0049890587 -0.027462168
-0.14186011 -0.08453544 -0.0019268141 -0.13935687 -0.0052360883 -0.07069954 -0.024587702 -0.07535902
-0.023579992 0.019015871 0.018941363 0.098854 -0.007712876 0.046479527 -0.06081106 -0.016996134
-0.085540585 -0.0049964944 -0.13292377 0.051266167 0.06805527 -0.03804281 0.027763454 0.0260497
0.012810759 0.039914276 0.008336906 -0.017485753 0.03819029 0.0063249785 0.02656684 0.001356888
0.022075186 0.011703523 -0.027321763 -0.069557846 -0.00019641133 -0.0027688046 0.036242872 -0.016319789
-0.058952086 0.0027469604 -0.040821902 0.013801734 0.017669715 -0.018573962 0.023866665 0.016796676
0.023775047 -0.038659263 -0.076776385 0.0153390085 0.07708237 -0.010412761 0.0027769776 -0.023856072

convolutional_layers.1.running_var f4 [64]
00000000: 300d 9f3f a872 3341 bac9 db40 9017 3d41
00000010: dfda cc40 9c74 1440 f6b7 d33f 34f4 b541
00000020: efce e541 680a 0543 c680 bf40 9d49 f041
00000030: 1e4a 2541 3fdc 1a41 55e8 503f d9de 7241
00000040: 9251 0840 6c55 1240 20f7 8341 718d 7d40
00000050: 20ea 0540 a8b6 9e3f 6c5b 6540 27a4 843f
00000060: 8c51 e03f de56 603f 95dd da3e 265b 883f
00000070: 925b 1841 f83c ad41 41fd 3141 013b 6b3f
00000080: a3c5 da3f b833 2641 fd0a 0141 9260 7e40
00000090: 3b22 e93f f25f 8841 cf29 0841 ea6e cb3f
000000a0: 61de 3f3f 078d f63e 3956 883f 60bf e23f
000000b0: 9d3a 9c3f 347b 6e40 cb69 c940 57a7 a240
000000c0: 40f0 f040 1341 3141 670f ed40 7fac 5c40
000000d0: f280 4b40 ab03 1340 9c19 3540 3dd3 8540
000000e0: 7edb 0b3f 8bfd 833f b928 5541 fb14 473f
000000f0: d588 9640 0052 7240 b071 ea3f 06b2 0240
1.24259 11.215492 6.868375 11.818253 6.4017177 2.3196173 1.6540515 22.74424
28.726042 133.04065 5.9844694 30.035944 10.330595 9.678771 0.8160451 15.179406
2.1299787 2.2864637 16.495667 3.961758 2.0924149 1.2399492 3.583705 1.0362595
1.7524886 0.8763255 0.4274718 1.0652816 9.522356 21.65477 11.12433 0.9188691
1.7091564 10.387627 8.065183 3.9746442 1.8213571 17.046848 8.510207 1.5893223
0.749487 0.4815447 1.0651313 1.7714653 1.2205387 3.7262697 6.294164 5.082927
7.5293274 11.078387 7.40813 3.4480283 3.1797452 2.2970989 2.829688 4.182036
0.54631793 1.031175 13.322442 0.7776639 4.704203 3.786255 1.8315945 2.0421157

convolutional_layers.3.weight f4 [32, 64, 5]
00000000: 24da 3cbe 7ac1 75bd c252 fabd 951a 903c
00000010: ac01 07be 5191 2e3e 7f7f aebc 9e44 55bc
00000020: a50b 3b3d 8c25 adbc bf17 c03c 82b0 9ebd
00000030: 5dd4 09bd 4030 0e35 b7f2 b1bd 4adf 9bbc
00000040: e399 0c3e 1c14 f93c ff5d e53a dbab 1e3c
00000050: 7477 8e3b 2364 34bd 833f 3ebc 84ac 933d
00000060: 1fe9 913a d151 88bd 2f78 c5bd 9e47 073d
00000070: 70d4 753d afc1 bebd ccd4 53be 8378 35be
00000080: 3bf9 0b3c 3a78 d6bc d0ba 92be 1598 5c3c
00000090: 8b07 dbbd 1eb2 6bbd b9be 113d 9f53 27bd
000000a0: c553 273e 4168 613c fd8e d43c 986e 0f3e
000000b0: 08ce 613d 5d7d 71bd 1bf7 6a3d 8df2 bbbb
000000c0: 8fdf 11bc b657 9fbc af81 28be 8685 8cbd
000000d0: 20d4 6d3d 8645 6dba d7e0 4d3d ab0c 493e
000000e0: 208a 593d d743 193e 9121 03bc 9edc 86bd
000000f0: e3f3 58bd ef97 6dbe c9c9 52bc 3ac0 44ba
00000100: b13d 86bd d31e 12be 35d2 d0bd 345b f33b
00000110: e806 96be de8b 4cbe 4ced a8bd 955a a8bd
00000120: 80e3 84bd 1eaa 893d 0813 71bd 52ca c13d
00000130: 312a c7bd 6d10 e5bc f205 08be a488 823d
00000140: 532f a4bb de47 58bc 2c49 16bd cd19 7a3d
00000150: c1bb b63d cd17 bcbc ceb9 bb3d 9494 6b3d
00000160: 5783 0c3d 54a8 45bd 8217 d73c 3986 06bd
00000170: 85eb afbd 1e6d 6a3d d24d 51bc c1f7 80bc
00000180: f7e5 1e3d 268d 3c3e 4450 f3bd e598 c73d
00000190: 7ee2 3cbd 345e 243c 83a0 f53c 9ba6 093e
000001a0: 1433 6a3d e3ca 50bc 9919 81ba c8f9 d23d
000001b0: 6e6e c0bc d9e8 c43c 69a6 37be c8d7 b03c
000001c0: 9e48 ddbd 92f1 c0bc 607b 98bc d13b 0c3d
000001d0: f9ad 533e 66e1 a63d a64f 963e 37c4 843e
000001e0: 3d5e ce3d 02c6 833d 0d80 803d e00b 9c3d
000001f0: 3a07 82bd 6669 09be 2c6a 543d f4b0 92bc
00000200: 2043 ffbc 5f9b c5bd c108 5cbd 1e48 78bd
00000210: 6da8 59be 6879 f4bc 9f99 d6bc f6ed d5bd
00000220: da82 ef3c bcce bdbd 594e 94bd 3b8d 6cbd
00000230: aae5 333e b294 f03b b632 a1bb b176 be3d
00000240: fcd6 a13d d62d adbd db51 4a3c a52f 8cbd
00000250: 93a2 acbd d5a1 96bd 9e4e e5bd 4477 38be
00000260: e42e c0bb 1b80 02be e005 3abe d976 44bd
00000270: b1c3 ef3d 55c4 243d 36a3 a1ba 4778 a83c
00000280: a92c 0e3d aaf2 81bd 5dbc 2e3c 71e0 4b3d
00000290: fa68 36bd 4a19 95bd 7573 893d af2b dbbc
000002a0: 7c32 013b 6149 063d 0c88 c93c 53e8 873d
000002b0: 3369 c83d 908d 37bd fe1b 54bd 3401 063b
000002c0: 7281 1dbe 08f8 8dbd eb21 1fbc 81cc 59bd
000002d0: 6ec3 ab3b 73bb 903d c65f 5a3d 1c14 1438
000002e0: cc5a 6c3d 196c e83c 99b4 6ebd 68c7 493d
000002f0: ddd2 db3d 5db5 29bd 666d cdbd 6890 79bb
00000300: f23e d7bd bf00 033e 097c 1abd 82d7 9f3d
00000310: e066 053e 233d debc 5be2 8e3d 750a cbba
00000320: 9454 80bd 6403 4dbd 8a82 2c3b 2a6b 143d
00000330: 7f15 01bd a516 4bbc 62f5 1bbe 44f0 d0bd
00000340: bbd6 8dbe b493 58be 6afb 933d 4a62 c33c
00000350: 867c 173e 0d00 9a3d c83b fabc bfc9 f2bc
00000360: 30b2 f13d 2e39 f2bd 6e86 aabd d4da 94bd
00000370: ac3d c73d 2413 d93d ec13 413d 40b9 083d
00000380: 2c97 023e e91a a5bd c5d7 20be d28d fdbd
00000390: 0290 cf3c 412a 0abe 7043 843d 394c 693d
000003a0: 04e6 3ebe dfb7 423d 2a56 9bbd bec0 303c
000003b0: 4e98 563c 515d 833d 3171 393d 3195 b7bd
000003c0: 124d 443d 711f eebd e51f 943c af27 813d
000003d0: 3c2b d53c ef0c 453c 55d1 23bc 09a7 9bbd
000003e0: b13e 753c 7139 943c 0256 123d 98e4 71bc
000003f0: 9a2a 0e3c f39b c73d ca1c 71ba 83f2 0bbe
-0.18442589 -0.059998967 -0.12222816 0.0175908 -0.13184232 0.17047621 -0.02130103 -0.013016848
0.045665402 -0.021136068 0.023448823 -0.0774851 -0.03364979 5.2969335e-07 -0.08688872 -0.019027371
0.13730578 0.030405097 0.0017499326 0.009684528 0.004347736 -0.04404081 -0.011611822 0.07210639
0.0011132098 -0.0665623 -0.09642064 0.033027284 0.06001705 -0.09314286 -0.20686644 -0.17721753
0.008543308 -0.026180375 -0.28658152 0.013463994 -0.10694798 -0.057542913 0.035582278 -0.04085123
0.1634055 0.013757766 0.025947088 0.14007032 0.055128127 -0.058957446 0.057364564 -0.0057357014
-0.008903398 -0.019451004 -0.1645572 -0.06861405 0.058063626 -0.00090511923 0.050263252 0.19633739
0.053110242 0.14967285 -0.008003608 -0.06585048 -0.052966963 -0.2320249 -0.012865492 -0.00075054506
-0.065547355 -0.14269571 -0.10196344 0.0074266437 -0.29302144 -0.1997523 -0.08248386 -0.08220402
-0.06488705 0.067219004 -0.05885604 0.09462418 -0.09724844 -0.027961934 -0.13283518 0.063737184
-0.0050105243 -0.013200728 -0.036690876 0.06105976 0.0892253 -0.022960568 0.09166299 0.057514742
0.034304943 -0.048256233 0.026256327 -0.03284285 -0.08589844 0.05723297 -0.012774901 -0.015743138
0.03879353 0.18413219 -0.11880544 0.09745959 -0.046114437 0.010032225 0.029983765 0.13442461
0.05717762 -0.012743684 -0.0009849548 0.10301548 -0.023490157 0.024036812 -0.17934574 0.021587268
-0.10804866 -0.02355269 -0.018613517 0.034236733 0.20671834 0.0814846 0.29357642 0.2593095
0.10076568 0.06434251 0.06274424 0.076194525 -0.063490346 -0.13419113 0.051859066 -0.017906643
-0.031159937 -0.09648775 -0.053719286 -0.06061565 -0.21255656 -0.029843047 -0.0261963 -0.10445778
0.0292372 -0.09267947 -0.07241506 -0.057751875 0.17568079 0.0073419446 -0.0049193753 0.09299982
0.07902333 -0.08456008 0.012348617 -0.06845025 -0.08429446 -0.07355086 -0.11196636 -0.18014246
-0.005864965 -0.12744181 -0.18166304 -0.047964904 0.11707247 0.0402263 -0.0012331966 0.020565165
0.03471056 -0.063451126 0.0106650265 0.04977459 -0.044533707 -0.07280214 0.06711475 -0.026754228
0.001971393 0.032784823 0.024601005 0.06636109 0.0978569 -0.04481274 -0.051784508 0.0020447494
-0.1538141 -0.06932074 -0.0097126765 -0.053173546 0.005241803 0.07067003 0.053313993 3.5304678e-05
0.05770378 0.028371857 -0.0582777 0.049262434 0.10733578 -0.041432727 -0.10030632 -0.0038080458
-0.10510053 0.12793253 -0.037715945 0.07804777 0.13027525 -0.027128762 0.06976768 -0.0015490787
-0.06266132 -0.05005206 0.0026322925 0.036235012 -0.03151464 -0.012395536 -0.15230325 -0.10202077
-0.2770289 -0.21150094 0.07225688 0.023850579 0.14793596 0.07519541 -0.030546084 -0.029637216
0.11801565 -0.118273124 -0.08326422 -0.07268301 0.0972856 0.10599354 0.04713814 0.033379793
0.1275298 -0.08061773 -0.1570731 -0.12380566 0.025337223 -0.13492681 0.06458175 0.056957457
-0.18642431 0.047538634 -0.07584794 0.010788141 0.013097836 0.06414283 0.045273963 -0.08964003
0.047925062 -0.11627091 0.018081615 0.06306397 0.026021592 0.012027009 -0.009998639 -0.07600219
0.01496856 0.018093796 0.035726555 -0.014763974 0.008677149 0.09746542 -0.00091977103 -0.1366673

convolutional_layers.3.bias f4 [32]
00000000: 70e3 073e cb17 323c 6eaa 523d 1099 093b
00000010: 4a4b 533d 1ff6 afbb 5c45 e33b d943 973b
00000020: da82 1a3d 2cca c43c aed7 053d eb88 27bc
00000030: 9897 41bd 8dee a6bd 9ffb 593d ed00 873c
00000040: 48c8 fd3c 7613 5dbc a710 86bb 1447 bcbc
00000050: 76e1 ad3b 0316 383c 9049 96bb ab35 b9bc
00000060: de4b 4c3b ad7f f2bc 3f81 e53c 5727 c0bb
00000070: 5b5d 52b9 a74b 75bc ce86 143c 671d b3bc
0.13270354 0.0108699305 0.051432066 0.0020995773 0.051585473 -0.005369916 0.0069357585 0.0046162424
0.037722446 0.024022184 0.03267639 -0.010225515 -0.04726371 -0.08150969 0.05321848 0.016479934
0.03097929 -0.013493409 -0.0040913406 -0.022983111 0.005306418 0.011235717 -0.004586406 -0.022608599
0.003117315 -0.029601896 0.02801573 -0.0058640647 -0.00020061938 -0.01497165 0.009065343 -0.021864606

convolutional_layers.4.weight f4 [32]
00000000: 9868 883f e237 8c3f 5039 873f 5ab6 853f
00000010: da90 833f c70e 903f ed81 6e3f bdc4 703f
00000020: 15e0 823f e150 703f 35e7 803f 4922 873f
00000030: b0fa 883f c4cc 833f 85e5 863f 67e7 6d3f
00000040: d3f8 683f 0036 793f b6d4 8b3f af24 6a3f
00000050: cce1 723f 631d 883f b9ea 7f3f d593 853f
00000060: 3368 623f 153a 823f 3d92 7a3f 2cf2 8a3f
00000070: 567e 6f3f 0b78 833f f0d3 843f 0b7a 883f
1.065692 1.0954554 1.0564365 1.0446274 1.027858 1.125451 0.93167 0.940502
1.0224634 0.9387341 1.0070559 1.0557338 1.0701504 1.0296865 1.0538794 0.92931217
0.91004676 0.9734802 1.0924289 0.91462225 0.9487579 1.0633968 0.99967533 1.043574
0.88440245 1.0173975 0.9787939 1.0855155 0.9355215 1.0271009 1.0377178 1.0662245

convolutional_layers.4.bias f4 [32]
00000000: 4d60 19be 616c 8ebd 0199 0abe 76a9 efbd
00000010: 6028 14be 3b88 b1bd 1704 d0bd b487 2e3d
00000020: 72c6 f3bd 4bcb f7bd b825 46be 8986 ccbd
00000030: a277 12bd 80be 7cbd 3d56 69bd 467c a3bd
00000040: ebd7 09be cc90 4bbd ae3e 77bd 3a54 2ebe
00000050: edcf 0cbe 6ff3 1dbe 7dc8 bfbd 709f cbbd
00000060: dab7 d2bd 7f14 18be 9219 2bbe 105c 7b3d
00000070: a2b9 18be 94b4 a3bd e75c c0bd e750 febd
-0.14978142 -0.069542654 -0.13534929 -0.11702244 -0.14468527 -0.08668562 -0.1015703 0.042609885
-0.11903085 -0.12099322 -0.19350326 -0.09986598 -0.035758622 -0.061705112 -0.05696701 -0.07982688
-0.13461272 -0.049698636 -0.06036251 -0.17024317 -0.13751192 -0.15424894 -0.09364412 -0.0994252
-0.10288973 -0.14851569 -0.16708973 0.061367095 -0.14914563 -0.07993427 -0.0939272 -0.12417775

convolutional_layers.4.running_mean f4 [32]
00000000: 5508 abbf f23a 8fbf 6c4e 8cbf 3620 d3bf
00000010: 0a3a d9bf 093f bdbf a2ae 8b3f 989a ba3f
00000020: cc80 91bf 2beb 863f f041 44bf 41eb 92bf
00000030: 4bbc d1bf 2b46 a2bf 0560 babf 1c33 fabd
00000040: d574 1f3e eb67 913e 2e3d f7bf d876 483f
00000050: 0ea5 04bf 456e aebf 3ea8 5e3c e00d 9abf
00000060: 5f74 d23e 239e d3be 10bc da3e 46ce 6bbf
00000070: bc44 9f3e f8ed 9bbf e12e debf f383 c2bf
-1.3361918 -1.1189864 -1.0961432 -1.6494205 -1.6970837 -1.4784862 1.0912669 1.4578428
-1.1367431 1.0540518 -0.7666311 -1.1478044 -1.6385587 -1.2677664 -1.4560553 -0.122167796
0.15571912 0.28399596 -1.9315546 0.7830634 -0.51814353 -1.3627402 0.013589917 -1.2035484
0.4110441 -0.41331586 0.42721605 -0.92111623 0.31107128 -1.2181997 -1.7358056 -1.5196518

convolutional_layers.4.running_var f4 [32]
00000000: 261a 2d40 0dc2 cb3f 6ff8 893f 26b9 8c3f
00000010: a765 8340 9e34 e03f 9f03 a53f f6a0 6b40
00000020: ec01 fb3f 00d8 8540 564c 0a40 5da5 1c40
00000030: 05a6 9b3f 7d20 ab3f e882 0840 e93d 973f
00000040: ce7a 8a3f d6e1 3d3f 16bd 5040 68bc 0440
00000050: 43ff fb3f 8cdb 573f 632f f23f 4127 a23f
00000060: ad55 c540 96cb 053f 3ba2 9e3f 660c bb3f
00000070: 996d e03f 5c9a 483f e5c3 0940 f28f 9140
2.704721 1.5918595 1.0778941 1.0994003 4.1061587 1.7516057 1.289173 3.6816993
1.9609962 4.182617 2.1609092 2.447593 1.216004 1.336929 2.13299 1.1815768
1.0818727 0.74172723 3.261541 2.0739994 1.9687275 0.84319377 1.8920711 1.2668229
6.1667085 0.5226377 1.2393259 1.4613159 1.7533447 0.78360534 2.1525815 4.5488214

convolutional_layers.6.weight f4 [16, 32, 5]
00000000: af18 f9bd fbb7 27be 2c12 03bd 526a 943d
00000010: a002 85bd 6357 71bd 10ff cfbd a443 59be
00000020: 94b2 51be 8a3f 00be f006 86be 7c63 8cbe
00000030: f779 6f3d 0f21 c13c 6b95 14bd 1ca1 013c
00000040: 5948 3c3c 5f0a 19be ca2d 023e ecea 053e
00000050: b6ee 3f3e f1c4 903d 2114 ea3b fa0a 013d
00000060: e476 d83d 4ec8 d93d 0914 c1bd 84f1 893d
00000070: 874d 913d ab1b 613e cca0 29be 50c4 b33d
00000080: 8da5 c33b 3a65 a33d 05d0 1dbe 6ff7 d4bd
00000090: 3aa7 54bd e685 18be 1b2a 0ebe a973 3ebd
000000a0: 2565 8dbd 98c8 d7bd d456 ef3d 1d0b 643d
000000b0: a83b ab3d 8c35 27bd f382 b33d 53af 8abd
000000c0: 7686 fdbd 1dba b53d 2423 6d3d 3a1b 5f3d
000000d0: adeb eebd f80c ccbd 4ff9 a8bd 5212 8a3d
000000e0: 2080 0b3e 3c2c 4bbd ce07 8e3d 51e9 85bd
000000f0: 814e b8bb a198 65bd 9adc c7bd a826 81bd
00000100: 5cb6 2a3d 8cc6 14bd 463c 1d3d 3ad4 7dbe
00000110: d894 98ba 3731 edbd e69d 47be 4123 0ebe
00000120: 9aff 80be 50dd 21be bbe2 fcbd 0b61 903d
00000130: 1822 59bd 962a 93bc c7e9 12be fd75 3bbe
00000140: 878f 923d bca0 c8bd c17d 0abe 43b7 b5bc
00000150: 7db0 673d 87cf d73d 0e57 503e d892 493e
00000160: b320 1e3e ab3c 52bd 453d 6f3e db83 2e3e
00000170: 63b3 ca3d b154 ce3d 76a5 673e 3969 85bd
00000180: 448b 153d 429c a53b 9f48 1b3d a105 fc3c
00000190: 7e51 083e 5918 af3d ef8b 6ebd a0c1 6b3c
000001a0: 8812 89bc 0359 9cbd 9a13 13be c6a6 0fbe
000001b0: 4159 f5bc 0b2f 57bd f0d0 17be 8d9d 74bd
000001c0: 333a e4bd f6fe 1cbe ccaa 3c3d 52bb db3c
000001d0: 56a7 59bd d06d 9ebd 6412 c8bd 808d 35be
000001e0: 6a34 04be 1757 92bd 1f87 7bbd 62e2 043e
000001f0: 9e99 14be 8306 c8bd 793b aa3d 1823 c03d
00000200: 5d04 11be 1687 21bb c1b0 ea3d dfc4 3a3e
00000210: 5650 79bd f674 2b3e 1184 8e3b 45d5 e1bd
00000220: 1a26 85bd ac12 babc d756 a3be 7dad 91bd
00000230: 7964 b93d 3f2d d33d 37f4 08bd b31c e6bc
00000240: 3892 16be 8956 87bd 1f3b a13d a758 12bd
00000250: 4721 803d 8ce1 8ebd afc0 c6bd afb7 c5bd
00000260: 9d1d 02be b57b 873d 9a14 a73d eb00 37bd
00000270: cb30 68be a1a7 adbd 7b2f 5dbc 5614 71bd
00000280: 7d02 783e 22ab 653e c259 463d ae15 223e
00000290: 16c9 9d3d b267 933d 21dd df3d 2295 c9bc
000002a0: f72a 343e f97d d53d 91bd c13d 56fe 5d3e
000002b0: 3caf 123e 8f1f 163e 6a97 543c c731 063e
000002c0: 898b 073d 4b0c 1dbd 4a60 08be 389f 753e
000002d0: 07e8 b5bc 5967 d8bd a065 fbbc b38d 233e
000002e0: 424d 503d bb93 5abe 2bde e9bd 4b4c 67bc
000002f0: 3674 60be f05f 15bd 736f 8ebd 234a bbbd
00000300: 0bdb ad3d eae6 3abe 0454 47be 3015 ddbd
00000310: 5db8 37be dcc6 27be 708e 76be 00a1 7dbe
00000320: b01b 3e3e 3a72 16be f675 593d 4f71 2fbe
00000330: 4b68 07be 0087 9c3b 1d34 d4bc 6be0 c43d
00000340: d7c0 ba3c 806a 763d 90cf 00be e7f4 973d
00000350: b52a 183e 6aea 99bd 02c0 f3bc 9712 9fba
00000360: db59 b8bd 2dee 15be a330 34be 3989 2fbe
00000370: 65f8 c6bc b140 ef3c 2548 db3d 18b1 21bd
00000380: 1df6 2c3e 9fa8 703c a1ae 7fbd 8a9e babd
00000390: 1f80 93bd 8903 4c3e 7533 84bd 060c 8cbc
000003a0: 03b8 17be 2089 393d 6983 48bc ad54 13be
000003b0: c524 553d 8658 1dbd 47df 8e3d 38dd db3d
000003c0: c03a 0d3c 7f9a f33d 2c29 863d 0fa6 c93c
000003d0: ab59 e53d 4c3c 003e d42c f8bd 84fb 503d
000003e0: 8191 8c3d 6945 efbd 3a1d edba add6 a4bd
000003f0: e3bf f43d e3ba 06be 0388 593c 0676 20be
-0.12162911 -0.16378777 -0.031999752 0.072468415 -0.06494641 -0.05892123 -0.10156071 -0.21217209
-0.20478278 -0.12524238 -0.26177168 -0.2741965 0.058465924 0.023575334 -0.03627531 0.007911947
0.011491858 -0.14945363 0.1271278 0.13077897 0.18743405 0.070688136 0.007143513 0.03150461
0.105695516 0.10633908 -0.094276495 0.067355186 0.07094865 0.2198321 -0.16565245 0.08777678
0.005970663 0.07978292 -0.15411384 -0.10398757 -0.051917292 -0.14894828 -0.1388325 -0.04649702
-0.069040574 -0.10536307 0.11686483 0.05567466 0.08360988 -0.04082255 0.08765211 -0.06771722
-0.12379162 0.08873389 0.05789484 0.054469325 -0.11666045 -0.09963411 -0.08250677 0.067417756
0.13623095 -0.049602732 0.069350824 -0.06538642 -0.005624593 -0.05605376 -0.09758873 -0.06306201
0.041677818 -0.03632216 0.03838756 -0.2478799 -0.0011641039 -0.115816526 -0.19493827 -0.13880636
-0.2519501 -0.1580708 -0.12347933 0.070497595 -0.05301103 -0.017964642 -0.14346991 -0.18306728
0.07156282 -0.09796283 -0.13524534 -0.022182113 0.056564797 0.105376296 0.20345709 0.19684923
0.15442161 -0.05132739 0.23363216 0.17042486 0.098974966 0.10074747 0.22621712 -0.0651421
0.036509767 0.005054028 0.037911054 0.030764403 0.13312337 0.08549566 -0.05823892 0.0143894255
-0.01673247 -0.07634165 -0.14362946 -0.14028463 -0.029949786 -0.052535098 -0.14825797 -0.059720565
-0.11143913 -0.15331635 0.046061322 0.02682272 -0.0531381 -0.07735789 -0.09769133 -0.17729759
-0.1291062 -0.07145517 -0.06140816 0.12976983 -0.14511725 -0.09766867 0.08312125 0.093816936
-0.1416182 -0.0024647168 0.114594944 0.18239163 -0.06086763 0.16743836 0.0043492396 -0.11027006
-0.06501408 -0.022713982 -0.3190219 -0.071131684 0.09052367 0.103113644 -0.033436026 -0.028089857
-0.14704216 -0.06608302 0.078726046 -0.035729077 0.06256347 -0.069766134 -0.0970472 -0.096541755
-0.12706609 0.06615392 0.08158226 -0.04467861 -0.22674863 -0.08479238 -0.01350009 -0.058857284
0.24219699 0.22428563 0.048425443 0.15828583 0.0770437 0.07197513 0.10930849 -0.024607245
0.17594515 0.10424418 0.09459985 0.21679053 0.14324659 0.14660476 0.012975553 0.13104926
0.033092055 -0.0383418 -0.13317981 0.23986518 -0.022205366 -0.10566587 -0.030688107 0.15972023
0.05085493 -0.21345417 -0.11419328 -0.014117311 -0.21919331 -0.036468446 -0.06954851 -0.09145
0.08489045 -0.18252149 -0.19465643 -0.10795057 -0.17941423 -0.16384453 -0.24077773 -0.24768448
0.1856525 -0.14692011 0.053091012 -0.17133068 -0.13223378 0.0047768354 -0.025903756 0.09613117
0.022797031 0.06016016 -0.12579179 0.07419758 0.14860041 -0.07515414 -0.029754642 -0.0012136278
-0.090015136 -0.14641638 -0.17596678 -0.1714219 -0.024288366 0.029205652 0.1070712 -0.03947553
0.1689076 0.01468864 -0.0624224 -0.0911227 -0.072021715 0.19923224 -0.06455127 -0.017095577
-0.14816289 0.04529679 -0.012238362 -0.1438777 0.05203702 -0.0384145 0.069761805 0.107355535
0.008619964 0.11894702 0.06550822 0.024615316 0.111987434 0.12523001 -0.12117925 0.051021114
0.0686369 -0.11683161 -0.0018090375 -0.08048759 0.11950662 -0.13157229 0.013277057 -0.15670022

convolutional_layers.6.bias f4 [16]
00000000: 2be6 86bd b7be 97bc 8033 18bd 6d8c 0ebc
00000010: 7751 7dbd 966b 5dbd f8d4 aebd 92a9 e8bd
00000020: 6ad4 49bb 6135 59bd c233 dabd be33 a7bc
00000030: df64 2fbd 3c4a 623b fdd9 05bc 5200 cfbd
-0.0658687 -0.018523557 -0.03715849 -0.008700472 -0.06184527 -0.05405768 -0.08536714 -0.11360468
-0.0030796775 -0.05302942 -0.10654403 -0.020410415 -0.042820808 0.003452911 -0.008169648 -0.10107483

convolutional_layers.7.weight f4 [16]
00000000: 137c 633f af32 503f 6676 543f 3dca 5a3f
00000010: 9741 5b3f da08 5d3f f80c 603f db66 653f
00000020: 9648 743f 3b41 5e3f b9b1 763f 5451 3f3f
00000030: 6fba 683f b87d 5c3f f16c 633f 49b5 703f
0.888612 0.8132734 0.8299316 0.8546484 0.8564696 0.8634163 0.8751979 0.8961007
0.9542326 0.86818284 0.96364933 0.7473347 0.90909475 0.8612933 0.88838106 0.9402662

convolutional_layers.7.bias f4 [16]
00000000: d2ea 11be 2c2f 10be 0bce 3dbe a598 50be
00000010: 9cee 1bbe c515 37be 5402 f1bd 2c48 61bd
00000020: 0e48 e9bd d025 01be ab84 cebd 06f1 88be
00000030: 2fb0 09be ccde 1fbe 8b46 23be 7b57 3ebe
-0.14249733 -0.14080495 -0.1853563 -0.2037073 -0.15227741 -0.17879398 -0.11768022 -0.05500047
-0.113906965 -0.1261208 -0.10083898 -0.26746386 -0.13446115 -0.15612334 -0.15944879 -0.18588059

convolutional_layers.7.running_mean f4 [16]
00000000: d5d9 aebf 3e5c 193d c802 81bf 85ee 75bf
00000010: 5aed 5dbf 56a7 6abf fb6c 72bf 39eb 64bf
00000020: 7eca 29bf c475 33bf 8f9c 2ebf aa99 673f
00000030: a6aa 48bf a7f8 bebe c06f 30bf 1b6e 79bf
-1.3660227 0.037441485 -1.0078974 -0.96067077 -0.86690295 -0.91661584 -0.9469754 -0.8942142
-0.66324604 -0.7010157 -0.6820764 0.9046885 -0.7838539 -0.37299082 -0.68920517 -0.9743363

convolutional_layers.7.running_var f4 [16]
00000000: e2ab 033f 5ef3 773f ebbe 033f b2eb 243f
00000010: da8a 503f ae58 1c3f 2c64 123f a1b7 2c3f
00000020: 8597 203f 5afd c93e e6df 293f c5c5 353f
00000030: afb5 f73e c39e fc3e 195c fa3e 6220 9e3e
0.5143415 0.96855724 0.5146319 0.6442214 0.8146187 0.61072814 0.571841 0.67467695
0.627312 0.39451104 0.66357267 0.710049 0.483808 0.49339876 0.4889839 0.3088408

output_layer.weight f4 [11, 3008]
00000000: 5e26 d7bd 5b96 f0bb 8e08 743c c32d a33c
00000010: 41db 713d cc3e b53d 0a7e b23c 6713 a3bd
00000020: 77bc 0dbe 117f 853d 0088 cebc 2f62 febd
00000030: 4908 c3bd 8f22 f0bc a514 5abd 1e4a 2b3b
00000040: c13f bfbd e447 37bd 2cbf 2bbd 49ef bbbc
00000050: e7a6 503c c7d6 0cbd 9a9a 3f3c bbfd b73d
00000060: 2524 8d3d f703 ec3d e77a aa3c 0f1f 57bb
00000070: 48a1 5bbd 126a b73c efe4 51bc 096b 1f3d
00000080: 2de3 c7bb 93e1 e23c 22ca ad3c 1232 2f3d
00000090: 1494 ad3c a071 e93d efa6 373d b468 1fbd
000000a0: c26b 49bd 8b20 c9bd 85b8 68bd d70b 303d
000000b0: 132e aa3d 6398 cc3d 2a9e 143d c523 0f3d
000000c0: 36b0 da3b a49c e23a 70f6 143d ffce b8bd
000000d0: 0862 e1bb dc94 89bd 539e 0bbc 388b a43d
000000e0: e511 5d3c a542 9dbc 5b3f 03bb d257 6ebd
000000f0: c018 2a3c 9524 1dbd 696d b3bd 1bfb e8bd
00000100: 5e83 1abe d450 2bbd 7153 0ebe d8fd 33be
00000110: df78 e4bd c185 77bd dd27 96bb b0b1 8bbd
00000120: ab04 fbbd 10b9 8bbd cccb b0bd f738 19be
00000130: 66c3 36bd b569 9abd a30e 9bbd 7a8c 813b
00000140: c4da 45bb 8a7d 083d 63d9 d3ba 941d 20bd
00000150: 7bb9 b83a 91c8 9b3b fa57 fcbc 9745 b13d
00000160: 79a5 043c 11cb 11bd 41db acbd ef13 a3bd
00000170: c07d 97bc 5c13 cf3c 9d66 b4bc 0402 f53c
00000180: 3d56 33bd a57c c5bd 3816 24bd f2c0 82bd
00000190: 6031 96bd 2a79 f43c e36f 7f3d daf6 50bc
000001a0: 68ae f73c f6c9 ce3d 0470 cdbc 347c bfbb
000001b0: 7f99 c1bd a4f3 523d 47ec dd3c 50de cabd
000001c0: 9bc5 9ebd 265c b9bd e84c 1bbe e725 c6bd
000001d0: 2168 00be 3643 8b3b 7901 50bc 42de 813c
000001e0: 0ef5 00bd 6601 adbd efb1 a0bd 583d 893d
000001f0: ce1b 8f3d 0e13 743d b7fa 053d 827c 3ebd
00000200: 7f2d 6ebd c275 b2bc 6cb7 303d 0bda 753d
00000210: dad2 2c3c ae86 ab3d 7c42 293c 1ec1 34bd
00000220: e421 2dbd b7c6 a6bc 0033 9e3d 6cd8 e6b7
00000230: fc6c 113c b264 62bd 67d7 b1bd 8551 833d
00000240: 4a8b 313d ff87 fc3d b67a a33d 2858 623d
00000250: 971c 7c3d 9800 2a3d e1cc 8ebd 40b9 19be
00000260: 2813 81bb 0b1b 0e3b 6ad4 c2bb c03c 83bd
00000270: 2a95 193d c427 c73b 438a bb3b d16e 00be
00000280: 638e bbbd f51f c2bd cd0d f2bd 8949 86bd
00000290: a8f4 2dbe b101 b9bd a8ba 38be d2ab 33be
000002a0: 4788 27be 0c59 b7bd 232c 7fbd e420 06be
000002b0: 04d0 e7bd c1a8 153b 1854 c6bd 8c82 2fbe
000002c0: 1e3d fcbd 0fb6 36be 81bc fcbd e0c9 01be
000002d0: ddfa 2cbc d75f 9d3c 4de5 abbd 5cca 01be
000002e0: 6149 13be 7a5b 4ebd 2d3a e5bd 030a 673c
000002f0: cb43 d43d 839f a03d eeee 793d 3159 6d3d
00000300: 52eb babc a469 fe3c d4f5 9fbc 70a4 013b
00000310: 781f 823d 8247 c63d e2bb 2b3d b7b2 463d
00000320: 91bd b33d db8a 3d3d b307 4a3d 7300 f13b
00000330: 0e65 9c3c 9e46 153d 5a81 c23d 4936 683d
00000340: 9c23 0f3d d506 24bd 90ce ecbc 9435 5c3c
00000350: 71a3 0ebb 9e1f 033d b259 6c3d f9ef 873d
00000360: a58e 033d d5ef aa3d 1f88 f23c 86d1 4d3d
00000370: bb39 ff3c c379 203d 9be5 023d 62df d63c
00000380: 40c4 993c 5cc0 323d 2df5 703d bcfd 343d
00000390: 1a53 d83c 907e 173b 3171 663d fe5c e7bc
000003a0: afe6 cc3b 0c39 193d 3b35 db3b a2aa 1a3d
000003b0: 4643 7e3c a94b ad3b b15c 903d 7d51 f13d
000003c0: a56a 9c3d 8b80 8f3d 5352 0e3d 58a3 d73d
000003d0: 9e58 e53c 4352 573d 1fca 7e3d 1441 b63d
000003e0: 5220 a53c 2f0e 5e3d 2490 0b3d 82c7 2cbc
000003f0: 60cc 963d e42e 873d 725e 963d 0d50 db3d
-0.10505365 -0.0073421425 0.014894618 0.019919282 0.059046987 0.08849868 0.021788616 -0.07962685
-0.13841425 0.065183766 -0.025211334 -0.12421071 -0.09523065 -0.029313354 -0.053242344 0.0026136707
-0.09338332 -0.044746295 -0.041930363 -0.022941248 0.012735105 -0.034384515 0.011694575 0.08983942
0.0689166 0.11524194 0.020810558 -0.003282491 -0.053620607 0.022389445 -0.01281093 0.038920436
-0.0061000795 0.027695453 0.021214548 0.04277236 0.021188773 0.113986254 0.044836935 -0.038918212
-0.04917503 -0.0982066 -0.056816597 0.04298004 0.08309569 0.09990003 0.03628365 0.03494622
0.006673838 0.0017289114 0.036367834 -0.09023856 -0.0068781413 -0.06717846 -0.008521634 0.08034366
0.013493036 -0.019196818 -0.0020026776 -0.05818922 0.010381877 -0.038364965 -0.08761103 -0.113760196
-0.15089175 -0.04182513 -0.13899018 -0.17577302 -0.11155867 -0.060430292 -0.004582389 -0.068210006
-0.1225675 -0.06822407 -0.08632621 -0.14963137 -0.04461994 -0.07539693 -0.07571151 0.0039535137
-0.003019021 0.03332285 -0.0016162809 -0.039090708 0.0014093363 0.004754134 -0.03080367 0.08655851
0.008096092 -0.03559405 -0.08440257 -0.079627864 -0.01849258 0.025277786 -0.022021586 0.029908188
-0.043783415 -0.09642915 -0.040060252 -0.06384458 -0.07333636 0.029842932 0.062362563 -0.0127541665
0.03023453 0.10097115 -0.025077827 -0.0058436636 -0.09453105 0.051501885 0.027090205 -0.09905684
-0.07752534 -0.09050779 -0.15166056 -0.09675198 -0.12539722 0.0042499555 -0.012695664 0.015853051
-0.031483702 -0.08447532 -0.07846438 0.067011535 0.06987725 0.059588484 0.032709803 -0.04650546
-0.058148857 -0.021784667 0.043143675 0.060022395 0.010548318 0.083752975 0.0103307925 -0.044129483
-0.04226865 -0.020358426 0.07724571 -2.7518916e-05 0.008876082 -0.05527181 -0.08683663 0.06412033
0.043345727 0.12330627 0.0798239 0.055259854 0.061550703 0.041504472 -0.06972671 -0.15012074
-0.003939051 0.00216836 -0.005945732 -0.064080715 0.03749577 0.0060777385 0.005723269 -0.12542273
-0.091580175 -0.094787516 -0.118190385 -0.065569945 -0.1698786 -0.09033526 -0.18039954 -0.17546013
-0.1636058 -0.08952531 -0.06229795 -0.13098484 -0.11318973 0.002283618 -0.09684008 -0.17139643
-0.12316345 -0.17842887 -0.12340642 -0.12674665 -0.010557857 0.019210739 -0.08393345 -0.1267485
-0.1438346 -0.050380208 -0.11192737 0.014101508 0.10364493 0.078429244 0.061018877 0.057946388
-0.022817288 0.031056233 -0.0195264 0.001978185 0.063536584 0.09681608 0.041927226 0.04851028
0.08776391 0.046275 0.04932375 0.00735479 0.019091155 0.0364443 0.09497328 0.056692395
0.03494607 -0.040045578 -0.02890709 0.013440508 -0.00217649 0.032012574 0.057702728 0.06637568
0.03211846 0.083465256 0.029605923 0.050248645 0.031155458 0.03917862 0.03195725 0.026229564
0.018770337 0.04364048 0.058827568 0.044187292 0.026406813 0.0023116209 0.05626029 -0.028242584
0.0062530856 0.03740792 0.006689695 0.037760384 0.015518969 0.0052885604 0.070489295 0.11783121
0.07637528 0.070069395 0.03474648 0.10529202 0.027996358 0.052568685 0.062204476 0.088991314
0.020157013 0.054212745 0.03407301 -0.010545613 0.073632 0.066007406 0.07342233 0.10708628

output_layer.bias f4 [11]
00000000: c7d1 d63d ed25 2ebd becd 6abd bca9 8cba
00000010: e6f0 58bd 5539 2dbd 1502 b63c 2391 8bbd
00000020: de95 16bd ec1e 5f3d aef7 cc3d
0.104892306 -0.042516638 -0.057325117 -0.0010731737 -0.052964114 -0.042291004 0.02221779 -0.06814792
-0.03676402 0.05447285 0.10008179
