libemg_3dc/transfer_learning/checkpoints/feature_extractor_with_fc_reset.pt (torch, 207257 bytes, 20 tensors)

convolutional_layers.0.weight f4 [64, 10, 5]
000000 39 d5 ab bd bf 06 7d bd f6 7f 04 bc a8 bb 17 3e
       -0.08390278 -0.06177401 -0.008087149 0.14817679
000010 16 89 be bd 42 8a 86 3d 2b b9 78 bd 53 f0 9b 3a
       -0.09303491 0.06569339 -0.060723465 0.0011897184
000020 0c 89 1f 3d ca 04 12 3d 8b 74 17 3e 3c c2 1d 3e
       0.038949057 0.0356491 0.14790551 0.15406126
000030 e9 3a 65 be 34 e1 4b be 16 26 91 bc c9 fd e8 bd
       -0.22385754 -0.19910127 -0.017718356 -0.11376531
000040 87 79 9c bd 91 1c 0c 3e 1b 81 c9 bb 8a 91 19 bc
       -0.07640367 0.13682772 -0.006149424 -0.009373078
000050 04 a5 43 bd 08 aa 1d bd ca ac 0c 3e c7 3f 78 3e
       -0.047764793 -0.038492233 0.13737789 0.24243079
000060 8b d7 3b be 7e 5c c7 3d 35 48 7c bd 52 ba 59 3d
       -0.18343942 0.09734438 -0.0615923 0.053156205
000070 d2 db 00 3d f5 1e ec bd 83 d5 90 bc 8d 79 e1 bc
       0.031459637 -0.11529342 -0.017679935 -0.02752378
000080 42 11 b8 bd b8 93 02 bd 93 4b 2e 3e f6 98 e3 3d
       -0.08987667 -0.031879157 0.17021017 0.11113159
000090 58 d7 fe 3c e5 78 c8 3b 5d e6 1a be 1d 93 29 bd
       0.031108543 0.0061179274 -0.15126939 -0.041400064
0000a0 e5 dd b9 bd 5c 6e a4 bd c8 30 b0 bc 0f 40 01 3e
       -0.09075526 -0.08028862 -0.021507636 0.12622093
0000b0 15 e2 90 bc 71 9e d1 bd 8b 9e 53 bc 3a a3 c6 3d
       -0.01768593 -0.102352984 -0.012916218 0.09699102
0000c0 aa 2d 35 3e bb 5a 7a 3d e2 19 ff bc c3 42 ca bc
       0.176932 0.061121684 -0.031140272 -0.024690038
0000d0 80 44 c2 3d ae 36 10 3d b3 51 ff bc 79 c5 31 be
       0.094857216 0.035208397 -0.031166887 -0.17360486
0000e0 ab a6 e3 bd e4 d7 a1 3d fa 69 6a bd 12 79 05 bd
       -0.11115774 0.07902506 -0.057229973 -0.032586165
0000f0 64 37 c0 bc 45 eb f4 3d 94 40 3c bd 11 9d c8 bd
       -0.023463912 0.119589366 -0.045960024 -0.09795583
000100 5f f8 93 3d 72 62 e0 3c 2f 8d b6 3d 36 a1 ba bd
       0.072251074 0.027390692 0.089136474 -0.0911278
000110 8a d9 56 be 7e 68 48 3e 7c c9 9b 3d 1d 3a 17 3e
       -0.20981422 0.1957111 0.076067895 0.14768262
000120 3f f9 51 be 72 96 1d be dc e4 7d 3e 23 ee 86 bd
       -0.20505236 -0.15389422 0.24794334 -0.0658839
000130 84 f3 fc 3c 72 8a 15 be d0 e5 a5 3c 5e 61 05 3e
       0.030877836 -0.14603594 0.020251185 0.13025424
000140 99 bd d3 3d bc 05 bb bc 5d a8 24 bc 9d 86 8b bd
       0.10338897 -0.022829883 -0.010049907 -0.06812785
000150 7a 11 90 bd 49 08 6f bc db 8c ec bd d3 1a f7 3d
       -0.070345834 -0.014589378 -0.115503035 0.12065663
000160 6d 33 c9 3d 94 b1 63 bd 7c 34 cf 3c 65 29 12 bc
       0.09824262 -0.055589274 0.025293581 -0.008921002
000170 ed ec 25 3d 8c b6 93 3d 27 ee a4 bd 69 98 92 bd
       0.040509153 0.072125524 -0.080532365 -0.07157976
000180 ef f4 7e 3d 8d 23 22 3e 58 60 03 3e f3 7e be bd
       0.062245306 0.15833874 0.12829721 -0.093015574
000190 04 24 f2 3d b1 ac 65 bd 92 87 a9 ba 62 0e b5 bd
       0.11823276 -0.056072894 -0.001293408 -0.08840634
0001a0 67 62 a1 3d da 92 cc 3d b3 67 87 3d e5 0c ce 3d
       0.07880097 0.09988947 0.06611576 0.10061053
0001b0 83 53 82 ba 69 69 92 bd 5e 35 af 3a 35 13 ca bd
       -0.0009943101 -0.07149012 0.0013367345 -0.09866945
0001c0 5c 09 9f 3a b5 54 0d bd 46 4d a6 bd 8e 07 66 3c
       0.0012133527 -0.03450461 -0.081202075 0.014039887
0001d0 be 7f 8a bd 6e aa 2f 3d 9a 98 d1 3d a1 3b f6 3d
       -0.06762646 0.042887144 0.102341846 0.12023092
0001e0 8a 40 65 bd 2f 39 b6 bc 21 6e 84 3d 4f 96 51 bc
       -0.055969752 -0.022244064 0.06466318 -0.012792184
0001f0 61 2e 03 3e d2 b5 ee bc fa ad 4e 3d 93 41 50 3d
       0.12810661 -0.029139433 0.050458886 0.050843786
000200 d4 08 94 3d bd 6e 8b 3d c2 c9 92 3c ec 1e d3 bc
       0.07228246 0.06808231 0.017918471 -0.02577158
000210 be ce d2 bc dd fb ed bd e4 6e d5 bc cf fa 97 bd
       -0.025733348 -0.11620305 -0.026053853 -0.07420885
000220 26 a1 2a 3d 85 94 a1 3d 64 25 d1 3d b1 f8 60 3d
       0.04165759 0.07889656 0.1021221 0.05492467
000230 f4 fd 85 3c 99 1f d6 bd 5b 2f 7b 3d f6 26 20 3e
       0.016356446 -0.104552455 0.06132446 0.15639862
000240 5e d3 dc 3d ba e2 e0 bb de dc 3f bd 3f 5e f2 bd
       0.107825026 -0.0068629654 -0.046841495 -0.11834382
000250 00 e0 9f be 03 74 8f be 40 a3 80 bd ba 1e 51 bd
       -0.31225586 -0.28018197 -0.062811375 -0.051054694
000260 9f f4 10 bb b2 84 10 3e e8 25 3d 3c 4f da da 3d
       -0.0022118462 0.14113119 0.011544682 0.1068617
000270 a8 b6 1d bd d3 67 0e be 83 2e 61 be 48 65 76 3c
       -0.038504273 -0.13906793 -0.21990399 0.015038796
000280 76 97 8a bd 36 90 a4 3d e9 15 3a be 65 20 c2 3d
       -0.0676717 0.080353186 -0.1817242 0.09478835
000290 23 e4 08 3e c1 65 6c 3d 8c 03 b1 bb c5 32 b6 3d
       0.13368277 0.057714228 -0.005402034 0.08896402
0002a0 d2 8b 2b 3e 0d a5 23 3d a4 34 82 3d 2e d5 19 bd
       0.16752556 0.039952327 0.06357697 -0.03755682
0002b0 fe 2b 6d 3c d4 e3 c5 3d 89 9f 04 be 8a 51 28 bd
       0.014475821 0.096625954 -0.12951483 -0.041093387
0002c0 97 0b f5 bd 8e 72 4a bd 8c 02 01 3e bc 58 2b 3d
       -0.11965101 -0.049425654 0.12598628 0.04183267
0002d0 4c 21 e4 3d 61 eb c2 3c 0d 40 3d 3d b6 8d 52 bd
       0.111391634 0.023793878 0.04620366 -0.051404677
0002e0 ed ca de bc 3d 3f 05 bd 0c c3 8d bd 7f 06 07 3e
       -0.027196372 -0.03253101 -0.06921968 0.13186072
0002f0 7a f9 19 3d 28 e9 93 be 3b 73 e6 bd a1 d0 25 be
       0.037591435 -0.28888822 -0.11252447 -0.16192867
000300 67 f6 29 3e c5 5d 85 3e 56 9f dc bd ff fe 1b 3d
       0.16597901 0.26048103 -0.107725784 0.03808498
000310 cd 57 2c 3d 51 df 29 bd 60 77 be 3d fb 65 53 bd
       0.04207592 -0.041472737 0.09300113 -0.051610928
000320 5e 22 12 be 04 6e ad 3c 70 0e b6 3d e1 54 fb bc
       -0.14270923 0.021170624 0.088894725 -0.030680122
000330 86 1d 4e be 4f 42 a4 3d 5d e1 54 3d 3d c3 e0 3c
       -0.2012845 0.0802046 0.051972736 0.027436847
000340 b7 f8 17 3d 97 16 d7 3c 4a 35 12 bd bc 7a 28 3d
       0.037102427 0.026255889 -0.03569535 0.041132674
000350 17 f7 b9 3d a5 b2 9d bd fc 00 d7 bc fa 8b 3b bd
       0.09080332 -0.07700089 -0.026245587 -0.04578779
000360 48 dd 50 3d e2 43 fd bd 6a 60 20 3d ef bf 30 3d
       0.05099228 -0.12366463 0.039154448 0.043151792
000370 8d 6d bb bb fb 82 72 bd ce a1 16 bc c9 ad 91 bd
       -0.0057198466 -0.059206944 -0.009193851 -0.07113225
000380 06 da 8e 3d 3f 05 3e be 15 ae 46 be 68 e9 38 be
       0.069751784 -0.18556689 -0.19402345 -0.18057787
000390 bd 4c 34 3d a1 d2 9e bc f1 c7 20 3d e4 b7 99 3c
       0.044018496 -0.019387545 0.03925318 0.018764444
0003a0 df eb 07 bd 6b 72 5a 3d 80 3e b4 bd 08 00 69 bd
       -0.03318393 0.053331774 -0.088009834 -0.056884795
0003b0 94 36 ca 3d 30 a0 17 bc 45 bf 13 be 9a b6 c2 3d
       0.09873691 -0.0092545 -0.14428432 0.09507485
0003c0 57 4c b3 3d ed 04 af bd fc 3f 35 be 5b c4 96 bd
       0.08754795 -0.085458614 -0.1770019 -0.073616706
0003d0 b8 80 b9 3d 0f 15 a3 3d c0 00 5d be 1f 82 31 bd
       0.09057754 0.07963001 -0.21582317 -0.043336984
0003e0 76 d7 45 3e 00 5e f1 bb 9d 3a 97 3d 57 ee 19 be
       0.19320473 -0.007365942 0.073842265 -0.15032326
0003f0 da 06 04 3d 8f 12 df bd 37 e9 4e 3b d0 8d 9a 3d
       0.032233097 -0.10892212 0.0031572112 0.0754658

convolutional_layers.0.bias f4 [64]
000000 3a 3c 8f 3d 3d f5 1a bd 2a 1b 48 3d 37 fb 76 bd
       0.06993909 -0.037831534 0.04885403 -0.06029817
000010 60 d8 6a 3d cb cf f7 bc 8a 17 de 3b 3f 22 7d 3c
       0.057335258 -0.03025045 0.0067777084 0.015450059
000020 e3 3f c1 bd 12 ad b2 3c 74 48 6a bb c0 d8 b7 bd
       -0.094360135 0.021811042 -0.0035748752 -0.08976889
000030 76 d5 c5 3c f4 86 31 bd 39 98 9c bc ad 93 2f bd
       0.024149638 -0.043341592 -0.019115554 -0.042865444
000040 56 b0 31 bc a3 d5 ef 3c d5 b6 28 bc 67 23 f0 3d
       -0.010845264 0.029276675 -0.010297497 0.117255025
000050 c5 9b aa bc 25 8e 53 3d d3 65 3b bd e6 76 84 bc
       -0.02082623 0.05164923 -0.045751404 -0.016169976
000060 b9 1c 99 bd d8 a4 2d bb f2 63 08 be fd 11 3b 3d
       -0.074761815 -0.002649596 -0.13319376 0.04567145
000070 c6 89 22 3d 6d bb 28 3b 9a 86 31 3c 1b 6e ab 3c
       0.039682172 0.002574648 0.010835314 0.020926526
000080 7a fd bd 3c 7e 38 60 3c f0 e1 94 bc 02 5f f3 bc
       0.023192156 0.013685344 -0.018174142 -0.02970839
000090 69 d7 43 3d dc e3 29 3d c8 f1 56 3d 20 41 2f 3b
       0.047812853 0.04147707 0.052476674 0.0026741698
0000a0 c4 75 c0 3c c3 5a 80 3c eb 76 10 bd 96 07 6c bd
       0.023493655 0.015668279 -0.03526966 -0.057624422
0000b0 ba dc a9 3b fe ec 6b 3c 3e 4b 69 3d 0c 18 28 3b
       0.0051837834 0.014399765 0.056956522 0.0025649099
0000c0 b3 30 1a bd 00 e0 01 3d f1 5d 72 bc 93 d4 e7 3c
       -0.0376441 0.031707764 -0.014792905 0.028299605
0000d0 a3 f3 08 3d 3b 2b f1 bc 09 43 16 3d 49 87 0c 3b
       0.033435475 -0.02943956 0.036685023 0.002144294
0000e0 f9 dc c3 3c 85 ec 37 bd 7a 2d 35 bd 82 47 a9 3c
       0.023909079 -0.044903297 -0.044232823 0.02066398
0000f0 9f 61 72 3d 7e 2d 91 bb 4f 0b 04 bc 14 19 f9 bc
       0.05917513 -0.004430472 -0.008059337 -0.030407466

convolutional_layers.1.weight f4 [64]
000000 18 22 84 3f ba 13 81 3f 9d da 75 3f f1 be 7f 3f
       1.0322905 1.0084145 0.960367 0.9990073
000010 e9 0a 70 3f 8f d1 6f 3f 15 35 88 3f 50 e4 85 3f
       0.9376665 0.93679136 1.0641199 1.04603
000020 f3 5a 78 3f 36 c2 6d 3f f7 51 80 3f cc 19 78 3f
       0.9701378 0.9287447 1.0025014 0.9691436
000030 76 37 7c 3f b7 82 85 3f 06 a5 86 3f e7 13 80 3f
       0.98522127 1.0430516 1.0519111 1.0006074
000040 31 14 74 3f ae c6 80 3f 87 f4 7f 3f 81 fa 83 3f
       0.9534331 1.0060632 0.99982494 1.0310823
000050 eb c2 82 3f e8 47 85 3f 6c 3e 77 3f eb e3 8c 3f
       1.0215734 1.0412569 0.96579623 1.1007055
000060 5a 60 8b 3f cf 67 70 3f 8e 77 93 3f 5e a3 6e 3f
       1.0888779 0.939084 1.152086 0.9321803
000070 94 88 82 3f 4f 74 76 3f 41 c6 80 3f 25 a7 7f 3f
       1.019793 0.9627122 1.0060502 0.9986442
000080 dd 44 77 3f 71 dd 6d 3f fd ae 82 3f eb 05 87 3f
       0.9658945 0.9291602 1.0209652 1.0548681
000090 9a df 6f 3f 46 57 84 3f 49 69 82 3f 13 98 77 3f
       0.93700564 1.0339134 1.018838 0.9671642
0000a0 b4 54 79 3f a8 7d 81 3f 12 a8 7e 3f a1 a4 72 3f
       0.9739487 1.0116472 0.99475205 0.94782454
0000b0 d3 79 82 3f 8e 0b 71 3f ac a6 73 3f ec 19 84 3f
       1.0193428 0.94158256 0.95176196 1.0320411
0000c0 bf b1 80 3f 7e 32 6e 3f bb 20 83 3f d4 69 7b 3f
       1.0054244 0.93045795 1.0244364 0.98208356
0000d0 44 9b 74 3f 3a 9e 5e 3f 69 3e 71 3f 7d 52 7c 3f
       0.95549417 0.86960185 0.94235855 0.9856337
0000e0 a6 6e 77 3f b5 a6 80 3f 24 27 85 3f 06 f6 88 3f
       0.9665321 1.0050875 1.040257 1.070008
0000f0 fd 61 7b 3f 83 6c 85 3f b0 30 5a 3f 7e 7c 84 3f
       0.98196393 1.042374 0.8523054 1.0350492

convolutional_layers.1.bias f4 [64]
000000 16 97 9b bb fc b8 a8 3d 26 11 9d bc bb 08 81 bc
       -0.0047482355 0.08238408 -0.019173216 -0.015751233
000010 89 ba 84 3c 66 ea a9 3d 0c 4e 18 3c 17 9f 7d bd
       0.016202228 0.08296661 0.009295952 -0.061919298
000020 78 0b 03 3d 53 aa b0 bc b9 31 ee 3b 05 fa 80 bb
       0.03199336 -0.021565592 0.007269111 -0.0039360547
000030 be 84 98 3d 72 54 d6 3c 28 e1 c3 bb 54 e7 95 3d
       0.074471936 0.026163314 -0.0059777685 0.07319513
000040 5b 7b b0 3c 3a d2 e7 bb fc 38 c9 3c 8f 46 a6 bd
       0.021543195 -0.0070746215 0.024563305 -0.08118927
000050 70 b6 d1 3c be d8 cb bc ba 72 46 3e a5 67 f8 bc
       0.025599688 -0.024883624 0.19379702 -0.030322859
000060 0a 95 90 3c 2b 34 10 bd 7a 98 71 3b 6e f6 a9 bc
       0.017649192 -0.035206 0.0036864565 -0.02074739
000070 d1 56 1a 3d 5a 2b 27 3d 5c 87 31 3c 9d 53 e0 bc
       0.03768045 0.040812828 0.010835495 -0.02738362
000080 a5 c1 90 3c 35 64 1d bd 66 f7 46 3d 37 63 3b bd
       0.017670462 -0.038425643 0.04857578 -0.045748916
000090 67 6e 33 3c 71 8f aa 3d 9c 68 a4 3d 35 fe d1 bc
       0.010951615 0.083281405 0.08027765 -0.02563391
0000a0 a4 58 04 bd ba 8d 3d bd 19 cb f1 3b 04 e5 fc bc
       -0.032311097 -0.04627774 0.0073789475 -0.030870922
0000b0 40 8e 62 3c 27 30 bb bb 6b f7 e1 ba 81 68 2a 3b
       0.01382786 -0.0057125273 -0.0017239874 0.002600223
0000c0 41 99 3f bd 10 bb 2e 3e 95 7e 22 3c df 84 e4 bc
       -0.046777014 0.17063546 0.009917875 -0.02789539
0000d0 ae bc 6d bd 2e fe 30 3d 72 1d aa bb 92 f0 84 bc
       -0.058041267 0.043211155 -0.0051914984 -0.016227994
0000e0 12 84 34 3d 0f 80 b7 bc d9 0e 37 bd 37 38 1d bc
       0.044071265 -0.02239993 -0.044691894 -0.009595922
0000f0 81 af 9e 3b 45 04 77 3c f3 ab 21 3b 44 63 1b bc
       0.004842699 0.0150767015 0.002466914 -0.009484116

convolutional_layers.1.running_mean f4 [64]
000000 bb 37 97 3d 79 a3 49 bd 3a 16 64 3d 35 c8 96 bd
       0.073836766 -0.049228165 0.05568526 -0.07362405
000010 82 e1 86 3d 2b 65 d3 bc 5b c1 40 3c 21 7a f8 3c
       0.06585981 -0.025805077 0.01176485 0.030331673
000020 64 f8 95 bd 41 f9 85 3d ce 25 93 3a 30 90 8b bd
       -0.073227674 0.06541682 0.0011226477 -0.06814611
000030 16 d3 03 3d 04 9f 10 bd 72 cc 92 bc 39 0f db bc
       0.03218373 -0.0353079 -0.017919753 -0.026740657
000040 11 40 c9 bb f7 11 0a 3d 74 78 8b bc 1d 01 00 3e
       -0.0061416705 0.03370854 -0.01702521 0.12500425
000050 e3 51 d3 bc e8 e0 60 3d 9e 00 2a bd 86 31 93 bc
       -0.025795883 0.054901987 -0.041504495 -0.01796795
000060 e6 7b 92 bd 55 77 a6 b9 18 54 09 be 75 49 2f 3d
       -0.07152538 -0.00031750897 -0.13410985 0.042794663
000070 b0 3c dc 3c aa 8f a9 3c 0c 71 c2 b9 9e c6 a3 3c
       0.026884407 0.020698387 -0.0003708679 0.019992169
000080 eb e6 d7 3c f8 87 26 3a ec ab ee bc 22 5b 18 bd
       0.026355227 0.00063526584 -0.029134713 -0.037196286
000090 f4 bc 53 3d 9a a0 70 3d 3b d1 78 3d c1 12 d9 3b
       0.05169387 0.05874691 0.060746413 0.00662455
0000a0 5f 8a c5 3c 5d 28 8d 3c 8e e7 1b bd 7b 38 5c bd
       0.024113832 0.01723116 -0.038062625 -0.0537648
0000b0 3b 3b d6 3b cc 02 ac 3c bc 6b 80 3d 71 13 06 3c
       0.0065378225 0.020997427 0.06270549 0.008183346
0000c0 94 7c d9 bc a1 b3 32 3d 15 e6 80 bb dc 71 0d 3d
       -0.026548661 0.04362834 -0.003933678 0.034532413
0000d0 86 34 27 3d e0 36 0f bd dc 60 28 3d 37 d6 cd bb
       0.040821575 -0.034964442 0.041107997 -0.00628164
0000e0 7b 9c c4 3c 97 26 3f bd ce 60 eb bc b9 26 b7 3c
       0.024000397 -0.04666766 -0.028732684 0.022357332
0000f0 52 e8 57 3d 26 b5 b9 bb 91 e4 54 bc 11 d6 02 bd
       0.052711792 -0.0056673465 -0.012993948 -0.03194243

convolutional_layers.1.running_var f4 [64]
000000 1c a9 a5 3f 3d 0c 35 41 a3 05 df 40 24 54 3f 41
       1.2942233 11.315488 6.969438 11.958042
000010 42 19 cf 40 c9 ac 18 40 61 6c d8 3f 60 33 b8 41
       6.471833 2.385546 1.6908075 23.025085
000020 e2 2e e8 41 b4 3c 06 43 32 8c c4 40 ac 89 f2 41
       29.022892 134.23712 6.1421137 30.317223
000030 f8 5c 27 41 78 ae 1c 41 03 1f 65 3f 64 e2 75 41
       10.460197 9.792595 0.89500445 15.367771
000040 96 01 0f 40 55 7a 16 40 e1 2b 86 41 28 bc 80 40
       2.2344718 2.3512166 16.771425 4.0229683
000050 44 0b 0a 40 4b 14 a2 3f 88 75 6b 40 b5 4c 87 3f
       2.1569376 1.2662443 3.6790485 1.0570284
000060 9c 89 e7 3f c4 39 6e 3f ec 86 f5 3e 2d 0c 8d 3f
       1.808887 0.93056893 0.479545 1.1019341
000070 4b f1 19 41 0e 60 af 41 ae 19 35 41 8a 2d 7e 3f
       9.621409 21.921902 11.318769 0.9928824
000080 96 d2 e2 3f 6f c7 28 41 5d 92 02 41 ae 89 81 40
       1.7720516 10.54869 8.160733 4.0480566
000090 64 80 ed 3f 8e 0f 8a 41 39 14 0a 41 b6 7d d2 3f
       1.8554807 17.257595 8.629937 1.6444614
0000a0 97 f3 4a 3f 95 57 04 3f 2c d6 89 3f 40 1e e7 3f
       0.7927794 0.5169614 1.0768485 1.8056107
0000b0 62 e4 a3 3f af 53 72 40 72 7a cd 40 2d a1 a5 40
       1.2804072 3.7863576 6.421197 5.175925
0000c0 bc c0 f4 40 b1 c2 33 41 76 cc ef 40 0d 27 62 40
       7.648527 11.235032 7.4937086 3.5336335
0000d0 ae a0 4d 40 28 42 17 40 cc 9c 37 40 75 0f 88 40
       3.212932 2.3634129 2.8689451 4.251887
0000e0 90 d9 11 3f 60 e8 89 3f 55 b0 57 41 1a 14 52 3f
       0.569726 1.077404 13.48055 0.8206192
0000f0 e8 65 99 40 cf a3 7a 40 e8 50 f0 3f d8 4b 08 40
       4.7936897 3.916248 1.8774691 2.1296291

convolutional_layers.3.weight f4 [32, 64, 5]
000000 24 da 3c be 7a c1 75 bd c2 52 fa bd 95 1a 90 3c
       -0.18442589 -0.059998967 -0.12222816 0.0175908
000010 ac 01 07 be 51 91 2e 3e 7f 7f ae bc 9e 44 55 bc
       -0.13184232 0.17047621 -0.02130103 -0.013016848
000020 a5 0b 3b 3d 8c 25 ad bc bf 17 c0 3c 82 b0 9e bd
       0.045665402 -0.021136068 0.023448823 -0.0774851
000030 5d d4 09 bd 40 30 0e 35 b7 f2 b1 bd 4a df 9b bc
       -0.03364979 5.2969335e-07 -0.08688872 -0.019027371
000040 e3 99 0c 3e 1c 14 f9 3c ff 5d e5 3a db ab 1e 3c
       0.13730578 0.030405097 0.0017499326 0.009684528
000050 74 77 8e 3b 23 64 34 bd 83 3f 3e bc 84 ac 93 3d
       0.004347736 -0.04404081 -0.011611822 0.07210639
000060 1f e9 91 3a d1 51 88 bd 2f 78 c5 bd 9e 47 07 3d
       0.0011132098 -0.0665623 -0.09642064 0.033027284
000070 70 d4 75 3d af c1 be bd cc d4 53 be 83 78 35 be
       0.06001705 -0.09314286 -0.20686644 -0.17721753
000080 3b f9 0b 3c 3a 78 d6 bc d0 ba 92 be 15 98 5c 3c
       0.008543308 -0.026180375 -0.28658152 0.013463994
000090 8b 07 db bd 1e b2 6b bd b9 be 11 3d 9f 53 27 bd
       -0.10694798 -0.057542913 0.035582278 -0.04085123
0000a0 c5 53 27 3e 41 68 61 3c fd 8e d4 3c 98 6e 0f 3e
       0.1634055 0.013757766 0.025947088 0.14007032
0000b0 08 ce 61 3d 5d 7d 71 bd 1b f7 6a 3d 8d f2 bb bb
       0.055128127 -0.058957446 0.057364564 -0.0057357014
0000c0 8f df 11 bc b6 57 9f bc af 81 28 be 86 85 8c bd
       -0.008903398 -0.019451004 -0.1645572 -0.06861405
0000d0 20 d4 6d 3d 86 45 6d ba d7 e0 4d 3d ab 0c 49 3e
       0.058063626 -0.00090511923 0.050263252 0.19633739
0000e0 20 8a 59 3d d7 43 19 3e 91 21 03 bc 9e dc 86 bd
       0.053110242 0.14967285 -0.008003608 -0.06585048
0000f0 e3 f3 58 bd ef 97 6d be c9 c9 52 bc 3a c0 44 ba
       -0.052966963 -0.2320249 -0.012865492 -0.00075054506
000100 b1 3d 86 bd d3 1e 12 be 35 d2 d0 bd 34 5b f3 3b
       -0.065547355 -0.14269571 -0.10196344 0.0074266437
000110 e8 06 96 be de 8b 4c be 4c ed a8 bd 95 5a a8 bd
       -0.29302144 -0.1997523 -0.08248386 -0.08220402
000120 80 e3 84 bd 1e aa 89 3d 08 13 71 bd 52 ca c1 3d
       -0.06488705 0.067219004 -0.05885604 0.09462418
000130 31 2a c7 bd 6d 10 e5 bc f2 05 08 be a4 88 82 3d
       -0.09724844 -0.027961934 -0.13283518 0.063737184
000140 53 2f a4 bb de 47 58 bc 2c 49 16 bd cd 19 7a 3d
       -0.0050105243 -0.013200728 -0.036690876 0.06105976
000150 c1 bb b6 3d cd 17 bc bc ce b9 bb 3d 94 94 6b 3d
       0.0892253 -0.022960568 0.09166299 0.057514742
000160 57 83 0c 3d 54 a8 45 bd 82 17 d7 3c 39 86 06 bd
       0.034304943 -0.048256233 0.026256327 -0.03284285
000170 85 eb af bd 1e 6d 6a 3d d2 4d 51 bc c1 f7 80 bc
       -0.08589844 0.05723297 -0.012774901 -0.015743138
000180 f7 e5 1e 3d 26 8d 3c 3e 44 50 f3 bd e5 98 c7 3d
       0.03879353 0.18413219 -0.11880544 0.09745959
000190 7e e2 3c bd 34 5e 24 3c 83 a0 f5 3c 9b a6 09 3e
       -0.046114437 0.010032225 0.029983765 0.13442461
0001a0 14 33 6a 3d e3 ca 50 bc 99 19 81 ba c8 f9 d2 3d
       0.05717762 -0.012743684 -0.0009849548 0.10301548
0001b0 6e 6e c0 bc d9 e8 c4 3c 69 a6 37 be c8 d7 b0 3c
       -0.023490157 0.024036812 -0.17934574 0.021587268
0001c0 9e 48 dd bd 92 f1 c0 bc 60 7b 98 bc d1 3b 0c 3d
       -0.10804866 -0.02355269 -0.018613517 0.034236733
0001d0 f9 ad 53 3e 66 e1 a6 3d a6 4f 96 3e 37 c4 84 3e
       0.20671834 0.0814846 0.29357642 0.2593095
0001e0 3d 5e ce 3d 02 c6 83 3d 0d 80 80 3d e0 0b 9c 3d
       0.10076568 0.06434251 0.06274424 0.076194525
0001f0 3a 07 82 bd 66 69 09 be 2c 6a 54 3d f4 b0 92 bc
       -0.063490346 -0.13419113 0.051859066 -0.017906643
000200 20 43 ff bc 5f 9b c5 bd c1 08 5c bd 1e 48 78 bd
       -0.031159937 -0.09648775 -0.053719286 -0.06061565
000210 6d a8 59 be 68 79 f4 bc 9f 99 d6 bc f6 ed d5 bd
       -0.21255656 -0.029843047 -0.0261963 -0.10445778
000220 da 82 ef 3c bc ce bd bd 59 4e 94 bd 3b 8d 6c bd
       0.0292372 -0.09267947 -0.07241506 -0.057751875
000230 aa e5 33 3e b2 94 f0 3b b6 32 a1 bb b1 76 be 3d
       0.17568079 0.0073419446 -0.0049193753 0.09299982
000240 fc d6 a1 3d d6 2d ad bd db 51 4a 3c a5 2f 8c bd
       0.07902333 -0.08456008 0.012348617 -0.06845025
000250 93 a2 ac bd d5 a1 96 bd 9e 4e e5 bd 44 77 38 be
       -0.08429446 -0.07355086 -0.11196636 -0.18014246
000260 e4 2e c0 bb 1b 80 02 be e0 05 3a be d9 76 44 bd
       -0.005864965 -0.12744181 -0.18166304 -0.047964904
000270 b1 c3 ef 3d 55 c4 24 3d 36 a3 a1 ba 47 78 a8 3c
       0.11707247 0.0402263 -0.0012331966 0.020565165
000280 a9 2c 0e 3d aa f2 81 bd 5d bc 2e 3c 71 e0 4b 3d
       0.03471056 -0.063451126 0.0106650265 0.04977459
000290 fa 68 36 bd 4a 19 95 bd 75 73 89 3d af 2b db bc
       -0.044533707 -0.07280214 0.06711475 -0.026754228
0002a0 7c 32 01 3b 61 49 06 3d 0c 88 c9 3c 53 e8 87 3d
       0.001971393 0.032784823 0.024601005 0.06636109
0002b0 33 69 c8 3d 90 8d 37 bd fe 1b 54 bd 34 01 06 3b
       0.0978569 -0.04481274 -0.051784508 0.0020447494
0002c0 72 81 1d be 08 f8 8d bd eb 21 1f bc 81 cc 59 bd
       -0.1538141 -0.06932074 -0.0097126765 -0.053173546
0002d0 6e c3 ab 3b 73 bb 90 3d c6 5f 5a 3d 1c 14 14 38
       0.005241803 0.07067003 0.053313993 3.5304678e-05
0002e0 cc 5a 6c 3d 19 6c e8 3c 99 b4 6e bd 68 c7 49 3d
       0.05770378 0.028371857 -0.0582777 0.049262434
0002f0 dd d2 db 3d 5d b5 29 bd 66 6d cd bd 68 90 79 bb
       0.10733578 -0.041432727 -0.10030632 -0.0038080458
000300 f2 3e d7 bd bf 00 03 3e 09 7c 1a bd 82 d7 9f 3d
       -0.10510053 0.12793253 -0.037715945 0.07804777
000310 e0 66 05 3e 23 3d de bc 5b e2 8e 3d 75 0a cb ba
       0.13027525 -0.027128762 0.06976768 -0.0015490787
000320 94 54 80 bd 64 03 4d bd 8a 82 2c 3b 2a 6b 14 3d
       -0.06266132 -0.05005206 0.0026322925 0.036235012
000330 7f 15 01 bd a5 16 4b bc 62 f5 1b be 44 f0 d0 bd
       -0.03151464 -0.012395536 -0.15230325 -0.10202077
000340 bb d6 8d be b4 93 58 be 6a fb 93 3d 4a 62 c3 3c
       -0.2770289 -0.21150094 0.07225688 0.023850579
000350 86 7c 17 3e 0d 00 9a 3d c8 3b fa bc bf c9 f2 bc
       0.14793596 0.07519541 -0.030546084 -0.029637216
000360 30 b2 f1 3d 2e 39 f2 bd 6e 86 aa bd d4 da 94 bd
       0.11801565 -0.118273124 -0.08326422 -0.07268301
000370 ac 3d c7 3d 24 13 d9 3d ec 13 41 3d 40 b9 08 3d
       0.0972856 0.10599354 0.04713814 0.033379793
000380 2c 97 02 3e e9 1a a5 bd c5 d7 20 be d2 8d fd bd
       0.1275298 -0.08061773 -0.1570731 -0.12380566
000390 02 90 cf 3c 41 2a 0a be 70 43 84 3d 39 4c 69 3d
       0.025337223 -0.13492681 0.06458175 0.056957457
0003a0 04 e6 3e be df b7 42 3d 2a 56 9b bd be c0 30 3c
       -0.18642431 0.047538634 -0.07584794 0.010788141
0003b0 4e 98 56 3c 51 5d 83 3d 31 71 39 3d 31 95 b7 bd
       0.013097836 0.06414283 0.045273963 -0.08964003
0003c0 12 4d 44 3d 71 1f ee bd e5 1f 94 3c af 27 81 3d
       0.047925062 -0.11627091 0.018081615 0.06306397
0003d0 3c 2b d5 3c ef 0c 45 3c 55 d1 23 bc 09 a7 9b bd
       0.026021592 0.012027009 -0.009998639 -0.07600219
0003e0 b1 3e 75 3c 71 39 94 3c 02 56 12 3d 98 e4 71 bc
       0.01496856 0.018093796 0.035726555 -0.014763974
0003f0 9a 2a 0e 3c f3 9b c7 3d ca 1c 71 ba 83 f2 0b be
       0.008677149 0.09746542 -0.00091977103 -0.1366673

convolutional_layers.3.bias f4 [32]
000000 70 e3 07 3e cb 17 32 3c 6e aa 52 3d 10 99 09 3b
       0.13270354 0.0108699305 0.051432066 0.0020995773
000010 4a 4b 53 3d 1f f6 af bb 5c 45 e3 3b d9 43 97 3b
       0.051585473 -0.005369916 0.0069357585 0.0046162424
000020 da 82 1a 3d 2c ca c4 3c ae d7 05 3d eb 88 27 bc
       0.037722446 0.024022184 0.03267639 -0.010225515
000030 98 97 41 bd 8d ee a6 bd 9f fb 59 3d ed 00 87 3c
       -0.04726371 -0.08150969 0.05321848 0.016479934
000040 48 c8 fd 3c 76 13 5d bc a7 10 86 bb 14 47 bc bc
       0.03097929 -0.013493409 -0.0040913406 -0.022983111
000050 76 e1 ad 3b 03 16 38 3c 90 49 96 bb ab 35 b9 bc
       0.005306418 0.011235717 -0.004586406 -0.022608599
000060 de 4b 4c 3b ad 7f f2 bc 3f 81 e5 3c 57 27 c0 bb
       0.003117315 -0.029601896 0.02801573 -0.0058640647
000070 5b 5d 52 b9 a7 4b 75 bc ce 86 14 3c 67 1d b3 bc
       -0.00020061938 -0.01497165 0.009065343 -0.021864606

convolutional_layers.4.weight f4 [32]
000000 98 68 88 3f e2 37 8c 3f 50 39 87 3f 5a b6 85 3f
       1.065692 1.0954554 1.0564365 1.0446274
000010 da 90 83 3f c7 0e 90 3f ed 81 6e 3f bd c4 70 3f
       1.027858 1.125451 0.93167 0.940502
000020 15 e0 82 3f e1 50 70 3f 35 e7 80 3f 49 22 87 3f
       1.0224634 0.9387341 1.0070559 1.0557338
000030 b0 fa 88 3f c4 cc 83 3f 85 e5 86 3f 67 e7 6d 3f
       1.0701504 1.0296865 1.0538794 0.92931217
000040 d3 f8 68 3f 00 36 79 3f b6 d4 8b 3f af 24 6a 3f
       0.91004676 0.9734802 1.0924289 0.91462225
000050 cc e1 72 3f 63 1d 88 3f b9 ea 7f 3f d5 93 85 3f
       0.9487579 1.0633968 0.99967533 1.043574
000060 33 68 62 3f 15 3a 82 3f 3d 92 7a 3f 2c f2 8a 3f
       0.88440245 1.0173975 0.9787939 1.0855155
000070 56 7e 6f 3f 0b 78 83 3f f0 d3 84 3f 0b 7a 88 3f
       0.9355215 1.0271009 1.0377178 1.0662245

convolutional_layers.4.bias f4 [32]
000000 4d 60 19 be 61 6c 8e bd 01 99 0a be 76 a9 ef bd
       -0.14978142 -0.069542654 -0.13534929 -0.11702244
000010 60 28 14 be 3b 88 b1 bd 17 04 d0 bd b4 87 2e 3d
       -0.14468527 -0.08668562 -0.1015703 0.042609885
000020 72 c6 f3 bd 4b cb f7 bd b8 25 46 be 89 86 cc bd
       -0.11903085 -0.12099322 -0.19350326 -0.09986598
000030 a2 77 12 bd 80 be 7c bd 3d 56 69 bd 46 7c a3 bd
       -0.035758622 -0.061705112 -0.05696701 -0.07982688
000040 eb d7 09 be cc 90 4b bd ae 3e 77 bd 3a 54 2e be
       -0.13461272 -0.049698636 -0.06036251 -0.17024317
000050 ed cf 0c be 6f f3 1d be 7d c8 bf bd 70 9f cb bd
       -0.13751192 -0.15424894 -0.09364412 -0.0994252
000060 da b7 d2 bd 7f 14 18 be 92 19 2b be 10 5c 7b 3d
       -0.10288973 -0.14851569 -0.16708973 0.061367095
000070 a2 b9 18 be 94 b4 a3 bd e7 5c c0 bd e7 50 fe bd
       -0.14914563 -0.07993427 -0.0939272 -0.12417775

convolutional_layers.4.running_mean f4 [32]
000000 07 28 a8 bf ee 2d 8f bf bd 7e 8c bf dc cd d0 bf
       -1.3137215 -1.1185892 -1.0976177 -1.6312823
000010 04 9d d7 bf ac e3 bc bf 6a 4c 8b 3f ae 51 b9 3f
       -1.6844792 -1.475698 1.0882695 1.4478052
000020 89 ff 8f bf 34 ba 85 3f 9c 69 43 bf bf 91 91 bf
       -1.1249858 1.044745 -0.7633302 -1.1372603
000030 ca e0 ce bf 5e af 9f bf a8 a4 b8 bf 2e 04 f5 bd
       -1.616235 -1.2475393 -1.4425249 -0.11963688
000040 ac 92 1f 3e be 9f 8c 3e a3 17 f7 bf 32 7c 47 3f
       0.15583295 0.27465624 -1.9304088 0.7792388
000050 85 6d 07 bf 70 ad ad bf 4a 87 97 3c 02 39 99 bf
       -0.5290149 -1.3568554 0.018497128 -1.1970522
000060 23 c8 d8 3e 5a 67 d5 be 53 39 d9 3e c8 9b 6e bf
       0.42340192 -0.41680413 0.42426547 -0.93206453
000070 09 b3 a1 3e 55 0c 98 bf 6a ea dc bf a1 1a c2 bf
       0.31581905 -1.1878763 -1.7259037 -1.5164376

convolutional_layers.4.running_var f4 [32]
000000 e7 d4 33 40 29 84 ca 3f e8 25 87 3f 27 34 92 3f
       2.8098695 1.5821582 1.0558443 1.1422166
000010 a1 2e 88 40 48 1b e2 3f ec 3f a4 3f 83 87 71 40
       4.255692 1.7664576 1.2832007 3.773896
000020 e1 3e 00 40 18 47 88 40 f7 fd 0b 40 9e 99 21 40
       2.0038378 4.2586784 2.1873758 2.525001
000030 15 ea 9d 3f 92 2c b0 3f 2a b7 0d 40 bf c9 96 3f
       1.2337061 1.3763602 2.2143044 1.1780318
000040 b3 e9 8b 3f 48 93 40 3f 41 fd 53 40 fd e1 00 40
       1.0930694 0.75224733 3.3123324 2.0137932
000050 76 12 ff 3f 7c 6e 5f 3f cd f9 ef 3f 27 be a5 3f
       1.9927509 0.8727796 1.8748108 1.2948655
000060 ea a2 c6 40 74 08 0e 3f fd fe 9e 3f 16 f0 bf 3f
       6.207387 0.5548165 1.2421566 1.4995143
000070 6e 60 e1 3f d9 aa 5b 3f 8a 8b 0d 40 8c a5 94 40
       1.7607553 0.8580757 2.2116418 4.6452084

convolutional_layers.6.weight f4 [16, 32, 5]
000000 af 18 f9 bd fb b7 27 be 2c 12 03 bd 52 6a 94 3d
       -0.12162911 -0.16378777 -0.031999752 0.072468415
000010 a0 02 85 bd 63 57 71 bd 10 ff cf bd a4 43 59 be
       -0.06494641 -0.05892123 -0.10156071 -0.21217209
000020 94 b2 51 be 8a 3f 00 be f0 06 86 be 7c 63 8c be
       -0.20478278 -0.12524238 -0.26177168 -0.2741965
000030 f7 79 6f 3d 0f 21 c1 3c 6b 95 14 bd 1c a1 01 3c
       0.058465924 0.023575334 -0.03627531 0.007911947
000040 59 48 3c 3c 5f 0a 19 be ca 2d 02 3e ec ea 05 3e
       0.011491858 -0.14945363 0.1271278 0.13077897
000050 b6 ee 3f 3e f1 c4 90 3d 21 14 ea 3b fa 0a 01 3d
       0.18743405 0.070688136 0.007143513 0.03150461
000060 e4 76 d8 3d 4e c8 d9 3d 09 14 c1 bd 84 f1 89 3d
       0.105695516 0.10633908 -0.094276495 0.067355186
000070 87 4d 91 3d ab 1b 61 3e cc a0 29 be 50 c4 b3 3d
       0.07094865 0.2198321 -0.16565245 0.08777678
000080 8d a5 c3 3b 3a 65 a3 3d 05 d0 1d be 6f f7 d4 bd
       0.005970663 0.07978292 -0.15411384 -0.10398757
000090 3a a7 54 bd e6 85 18 be 1b 2a 0e be a9 73 3e bd
       -0.051917292 -0.14894828 -0.1388325 -0.04649702
0000a0 25 65 8d bd 98 c8 d7 bd d4 56 ef 3d 1d 0b 64 3d
       -0.069040574 -0.10536307 0.11686483 0.05567466
0000b0 a8 3b ab 3d 8c 35 27 bd f3 82 b3 3d 53 af 8a bd
       0.08360988 -0.04082255 0.08765211 -0.06771722
0000c0 76 86 fd bd 1d ba b5 3d 24 23 6d 3d 3a 1b 5f 3d
       -0.12379162 0.08873389 0.05789484 0.054469325
0000d0 ad eb ee bd f8 0c cc bd 4f f9 a8 bd 52 12 8a 3d
       -0.11666045 -0.09963411 -0.08250677 0.067417756
0000e0 20 80 0b 3e 3c 2c 4b bd ce 07 8e 3d 51 e9 85 bd
       0.13623095 -0.049602732 0.069350824 -0.06538642
0000f0 81 4e b8 bb a1 98 65 bd 9a dc c7 bd a8 26 81 bd
       -0.005624593 -0.05605376 -0.09758873 -0.06306201
000100 5c b6 2a 3d 8c c6 14 bd 46 3c 1d 3d 3a d4 7d be
       0.041677818 -0.03632216 0.03838756 -0.2478799
000110 d8 94 98 ba 37 31 ed bd e6 9d 47 be 41 23 0e be
       -0.0011641039 -0.115816526 -0.19493827 -0.13880636
000120 9a ff 80 be 50 dd 21 be bb e2 fc bd 0b 61 90 3d
       -0.2519501 -0.1580708 -0.12347933 0.070497595
000130 18 22 59 bd 96 2a 93 bc c7 e9 12 be fd 75 3b be
       -0.05301103 -0.017964642 -0.14346991 -0.18306728
000140 87 8f 92 3d bc a0 c8 bd c1 7d 0a be 43 b7 b5 bc
       0.07156282 -0.09796283 -0.13524534 -0.022182113
000150 7d b0 67 3d 87 cf d7 3d 0e 57 50 3e d8 92 49 3e
       0.056564797 0.105376296 0.20345709 0.19684923
000160 b3 20 1e 3e ab 3c 52 bd 45 3d 6f 3e db 83 2e 3e
       0.15442161 -0.05132739 0.23363216 0.17042486
000170 63 b3 ca 3d b1 54 ce 3d 76 a5 67 3e 39 69 85 bd
       0.098974966 0.10074747 0.22621712 -0.0651421
000180 44 8b 15 3d 42 9c a5 3b 9f 48 1b 3d a1 05 fc 3c
       0.036509767 0.005054028 0.037911054 0.030764403
000190 7e 51 08 3e 59 18 af 3d ef 8b 6e bd a0 c1 6b 3c
       0.13312337 0.08549566 -0.05823892 0.0143894255
0001a0 88 12 89 bc 03 59 9c bd 9a 13 13 be c6 a6 0f be
       -0.01673247 -0.07634165 -0.14362946 -0.14028463
0001b0 41 59 f5 bc 0b 2f 57 bd f0 d0 17 be 8d 9d 74 bd
       -0.029949786 -0.052535098 -0.14825797 -0.059720565
0001c0 33 3a e4 bd f6 fe 1c be cc aa 3c 3d 52 bb db 3c
       -0.11143913 -0.15331635 0.046061322 0.02682272
0001d0 56 a7 59 bd d0 6d 9e bd 64 12 c8 bd 80 8d 35 be
       -0.0531381 -0.07735789 -0.09769133 -0.17729759
0001e0 6a 34 04 be 17 57 92 bd 1f 87 7b bd 62 e2 04 3e
       -0.1291062 -0.07145517 -0.06140816 0.12976983
0001f0 9e 99 14 be 83 06 c8 bd 79 3b aa 3d 18 23 c0 3d
       -0.14511725 -0.09766867 0.08312125 0.093816936
000200 5d 04 11 be 16 87 21 bb c1 b0 ea 3d df c4 3a 3e
       -0.1416182 -0.0024647168 0.114594944 0.18239163
000210 56 50 79 bd f6 74 2b 3e 11 84 8e 3b 45 d5 e1 bd
       -0.06086763 0.16743836 0.0043492396 -0.11027006
000220 1a 26 85 bd ac 12 ba bc d7 56 a3 be 7d ad 91 bd
       -0.06501408 -0.022713982 -0.3190219 -0.071131684
000230 79 64 b9 3d 3f 2d d3 3d 37 f4 08 bd b3 1c e6 bc
       0.09052367 0.103113644 -0.033436026 -0.028089857
000240 38 92 16 be 89 56 87 bd 1f 3b a1 3d a7 58 12 bd
       -0.14704216 -0.06608302 0.078726046 -0.035729077
000250 47 21 80 3d 8c e1 8e bd af c0 c6 bd af b7 c5 bd
       0.06256347 -0.069766134 -0.0970472 -0.096541755
000260 9d 1d 02 be b5 7b 87 3d 9a 14 a7 3d eb 00 37 bd
       -0.12706609 0.06615392 0.08158226 -0.04467861
000270 cb 30 68 be a1 a7 ad bd 7b 2f 5d bc 56 14 71 bd
       -0.22674863 -0.08479238 -0.01350009 -0.058857284
000280 7d 02 78 3e 22 ab 65 3e c2 59 46 3d ae 15 22 3e
       0.24219699 0.22428563 0.048425443 0.15828583
000290 16 c9 9d 3d b2 67 93 3d 21 dd df 3d 22 95 c9 bc
       0.0770437 0.07197513 0.10930849 -0.024607245
0002a0 f7 2a 34 3e f9 7d d5 3d 91 bd c1 3d 56 fe 5d 3e
       0.17594515 0.10424418 0.09459985 0.21679053
0002b0 3c af 12 3e 8f 1f 16 3e 6a 97 54 3c c7 31 06 3e
       0.14324659 0.14660476 0.012975553 0.13104926
0002c0 89 8b 07 3d 4b 0c 1d bd 4a 60 08 be 38 9f 75 3e
       0.033092055 -0.0383418 -0.13317981 0.23986518
0002d0 07 e8 b5 bc 59 67 d8 bd a0 65 fb bc b3 8d 23 3e
       -0.022205366 -0.10566587 -0.030688107 0.15972023
0002e0 42 4d 50 3d bb 93 5a be 2b de e9 bd 4b 4c 67 bc
       0.05085493 -0.21345417 -0.11419328 -0.014117311
0002f0 36 74 60 be f0 5f 15 bd 73 6f 8e bd 23 4a bb bd
       -0.21919331 -0.036468446 -0.06954851 -0.09145
000300 0b db ad 3d ea e6 3a be 04 54 47 be 30 15 dd bd
       0.08489045 -0.18252149 -0.19465643 -0.10795057
000310 5d b8 37 be dc c6 27 be 70 8e 76 be 00 a1 7d be
       -0.17941423 -0.16384453 -0.24077773 -0.24768448
000320 b0 1b 3e 3e 3a 72 16 be f6 75 59 3d 4f 71 2f be
       0.1856525 -0.14692011 0.053091012 -0.17133068
000330 4b 68 07 be 00 87 9c 3b 1d 34 d4 bc 6b e0 c4 3d
       -0.13223378 0.0047768354 -0.025903756 0.09613117
000340 d7 c0 ba 3c 80 6a 76 3d 90 cf 00 be e7 f4 97 3d
       0.022797031 0.06016016 -0.12579179 0.07419758
000350 b5 2a 18 3e 6a ea 99 bd 02 c0 f3 bc 97 12 9f ba
       0.14860041 -0.07515414 -0.029754642 -0.0012136278
000360 db 59 b8 bd 2d ee 15 be a3 30 34 be 39 89 2f be
       -0.090015136 -0.14641638 -0.17596678 -0.1714219
000370 65 f8 c6 bc b1 40 ef 3c 25 48 db 3d 18 b1 21 bd
       -0.024288366 0.029205652 0.1070712 -0.03947553
000380 1d f6 2c 3e 9f a8 70 3c a1 ae 7f bd 8a 9e ba bd
       0.1689076 0.01468864 -0.0624224 -0.0911227
000390 1f 80 93 bd 89 03 4c 3e 75 33 84 bd 06 0c 8c bc
       -0.072021715 0.19923224 -0.06455127 -0.017095577
0003a0 03 b8 17 be 20 89 39 3d 69 83 48 bc ad 54 13 be
       -0.14816289 0.04529679 -0.012238362 -0.1438777
0003b0 c5 24 55 3d 86 58 1d bd 47 df 8e 3d 38 dd db 3d
       0.05203702 -0.0384145 0.069761805 0.107355535
0003c0 c0 3a 0d 3c 7f 9a f3 3d 2c 29 86 3d 0f a6 c9 3c
       0.008619964 0.11894702 0.06550822 0.024615316
0003d0 ab 59 e5 3d 4c 3c 00 3e d4 2c f8 bd 84 fb 50 3d
       0.111987434 0.12523001 -0.12117925 0.051021114
0003e0 81 91 8c 3d 69 45 ef bd 3a 1d ed ba ad d6 a4 bd
       0.0686369 -0.11683161 -0.0018090375 -0.08048759
0003f0 e3 bf f4 3d e3 ba 06 be 03 88 59 3c 06 76 20 be
       0.11950662 -0.13157229 0.013277057 -0.15670022

convolutional_layers.6.bias f4 [16]
000000 2b e6 86 bd b7 be 97 bc 80 33 18 bd 6d 8c 0e bc
       -0.0658687 -0.018523557 -0.03715849 -0.008700472
000010 77 51 7d bd 96 6b 5d bd f8 d4 ae bd 92 a9 e8 bd
       -0.06184527 -0.05405768 -0.08536714 -0.11360468
000020 6a d4 49 bb 61 35 59 bd c2 33 da bd be 33 a7 bc
       -0.0030796775 -0.05302942 -0.10654403 -0.020410415
000030 df 64 2f bd 3c 4a 62 3b fd d9 05 bc 52 00 cf bd
       -0.042820808 0.003452911 -0.008169648 -0.10107483

convolutional_layers.7.weight f4 [16]
000000 13 7c 63 3f af 32 50 3f 66 76 54 3f 3d ca 5a 3f
       0.888612 0.8132734 0.8299316 0.8546484
000010 97 41 5b 3f da 08 5d 3f f8 0c 60 3f db 66 65 3f
       0.8564696 0.8634163 0.8751979 0.8961007
000020 96 48 74 3f 3b 41 5e 3f b9 b1 76 3f 54 51 3f 3f
       0.9542326 0.86818284 0.96364933 0.7473347
000030 6f ba 68 3f b8 7d 5c 3f f1 6c 63 3f 49 b5 70 3f
       0.90909475 0.8612933 0.88838106 0.9402662

convolutional_layers.7.bias f4 [16]
000000 d2 ea 11 be 2c 2f 10 be 0b ce 3d be a5 98 50 be
       -0.14249733 -0.14080495 -0.1853563 -0.2037073
000010 9c ee 1b be c5 15 37 be 54 02 f1 bd 2c 48 61 bd
       -0.15227741 -0.17879398 -0.11768022 -0.05500047
000020 0e 48 e9 bd d0 25 01 be ab 84 ce bd 06 f1 88 be
       -0.113906965 -0.1261208 -0.10083898 -0.26746386
000030 2f b0 09 be cc de 1f be 8b 46 23 be 7b 57 3e be
       -0.13446115 -0.15612334 -0.15944879 -0.18588059

convolutional_layers.7.running_mean f4 [16]
000000 1e fc ac bf c6 87 fc 3c 9e ba 7c bf 65 76 73 bf
       -1.351444 0.03082646 -0.98722255 -0.9510253
000010 86 b8 5a bf 6c 79 65 bf cf 75 71 bf 6c 49 61 bf
       -0.8543781 -0.896384 -0.94320387 -0.8800266
000020 4a 23 28 bf de 21 32 bf 9b b9 2b bf dd 78 64 3f
       -0.65678847 -0.6958293 -0.67080086 0.8924692
000030 f0 83 46 bf 1f a8 c1 be c5 b3 2d bf ac d6 77 bf
       -0.7754507 -0.3782358 -0.6785243 -0.9681194

convolutional_layers.7.running_var f4 [16]
000000 2d 3a 02 3f 8b 68 73 3f b7 b0 02 3f b8 f9 26 3f
       0.5087002 0.95081395 0.51050895 0.6522479
000010 5a a2 49 3f 84 dd 18 3f 0c f2 12 3f 5a de 2a 3f
       0.78763354 0.59713006 0.57400584 0.6674553
000020 dc e3 1e 3f 93 08 cb 3e 21 a1 22 3f 14 64 35 3f
       0.62066436 0.3965498 0.63527113 0.7085583
000030 29 2d f2 3e 7a 6e fb 3e 3f d0 f8 3e 2d 25 a0 3e
       0.4730008 0.49107724 0.4859638 0.31278363

output_layer.weight f4 [11, 3008]
000000 33 ab a8 bc 0c 90 40 bd 0c bf 4b 3c a4 10 78 3a
       -0.020589447 -0.047012374 0.012435686 0.0009462929
000010 8c 3b 90 bc b2 f0 ff 3a ec 42 14 bc ec 83 1b bd
       -0.01760652 0.0019526689 -0.009049159 -0.037967607
000020 63 bc 83 bd 34 92 68 bd 8e 76 08 bd 02 4c 31 bd
       -0.06432416 -0.056780055 -0.033316188 -0.043285377
000030 19 d2 be bc 7a 4c 48 bd f3 12 bf bc 53 e6 b5 bd
       -0.023293542 -0.04890106 -0.023324465 -0.088818215
000040 ec 66 8b bd 8a 93 05 bd 3c 89 a7 bc 48 b7 b9 bc
       -0.0680674 -0.032611407 -0.02045118 -0.022670403
000050 b0 30 aa bc 16 94 09 bc de 1f d8 bc 6f a1 b2 3a
       -0.02077517 -0.008397123 -0.026382383 0.0013628433
000060 48 e6 09 bc 65 8a 1d bd e3 f3 4c bd 9f d0 a3 bd
       -0.00841672 -0.03846206 -0.050037276 -0.07998776
000070 2a 6a cd 3a c0 f0 79 bd 76 42 f0 bb f9 e0 e0 bc
       0.0015671898 -0.061020613 -0.0073321415 -0.027451025
000080 dc a5 7b bd 3d 08 e1 bc 4f bd 68 bd d8 05 a8 3b
       -0.061437473 -0.027469749 -0.056821164 0.0051276498
000090 ae f6 33 bd 9a b3 38 bd 72 10 5d bc f9 01 9b bd
       -0.043936424 -0.045093156 -0.01349269 -0.07568736
0000a0 a2 d2 0b bd fe 07 13 bd 51 1a ab bd 24 5e 6f bc
       -0.034136422 -0.035896294 -0.08354629 -0.014609847
0000b0 03 a1 2a bd 14 fd f2 bc db 59 21 bd f3 8f 5f bd
       -0.04165746 -0.029661693 -0.039392333 -0.05458064
0000c0 88 92 49 bd 55 47 87 bd 31 7e 75 bc 30 cf 6a bd
       -0.04921201 -0.066054024 -0.0149837 -0.057326496
0000d0 b0 61 2f bd 00 ea 31 bc a0 06 e8 bc 9d a5 1a bd
       -0.04281777 -0.010859013 -0.028323472 -0.037755597
0000e0 dd 63 e7 bc 5d 8d 86 bc 7d 56 0b bd 48 6e b0 bc
       -0.02824586 -0.01642483 -0.03401803 -0.021536961
0000f0 44 7e 4e bd 1e 73 09 bd 4e 14 1b bd 87 ae 03 bd
       -0.050413385 -0.03355705 -0.03786116 -0.032148864
000100 7d c7 0b bd dc 3f 4d bd 14 2b 2a bc 60 6d ba bd
       -0.034125794 -0.05010973 -0.010386247 -0.09102893
000110 8d 31 d7 bc d1 33 5a bd c9 e4 62 39 95 b2 74 bc
       -0.026268745 -0.053272072 0.00021638269 -0.014935155
000120 72 23 be bb d4 4c 4a bc 87 a9 9c bc 65 95 97 bd
       -0.0058025653 -0.012347419 -0.019123806 -0.074015416
000130 e4 45 fe bc 74 8d 2e bd 2e 3e 3c bc 37 00 0a bd
       -0.031039186 -0.04261537 -0.011489434 -0.03369161
000140 14 3c 50 bd 56 c9 4d bd 5c 2d 8f bd b6 32 a1 bc
       -0.050838545 -0.050240837 -0.069910735 -0.019677501
000150 96 70 b3 bd 3f 41 00 bd 02 ec 9b bd 5a 57 fa bc
       -0.087617084 -0.031312224 -0.07613374 -0.03055923
000160 e8 19 cf bc 22 48 17 bc a1 e5 2f bd 84 38 84 bd
       -0.025280908 -0.009233506 -0.0429436 -0.06456092
000170 2a d2 43 bd dd 61 24 bd ae bb f4 bc a5 dc 06 bd
       -0.04780785 -0.040132392 -0.029874649 -0.032925267
000180 26 e3 98 3b ac c4 0d bd 51 7e 12 bd 29 f7 33 bd
       0.00466575 -0.03461139 -0.035764996 -0.043936882
000190 17 e7 8a bc e8 da 99 bd 9b f8 a3 3b eb 00 81 bd
       -0.016955895 -0.07512456 0.0050040013 -0.06299003
0001a0 ef 2b 20 bd f7 39 a9 bc d3 23 0f bd 2d 41 9b bd
       -0.0391044 -0.020657523 -0.034946274 -0.07580791
0001b0 01 a9 6b bd 3c 6a c3 bc 55 74 99 bd 7b 44 ba bc
       -0.05753422 -0.023854367 -0.07492892 -0.022737732
0001c0 90 4b ac bd 3a f9 c0 bd 95 d1 d5 bc cf 34 70 bd
       -0.0841285 -0.09422536 -0.026100913 -0.058644112
0001d0 4a a2 0d bd 09 8c dd ba 4b 6e 9b bd 73 1e a3 bd
       -0.0345786 -0.0016902696 -0.07589396 -0.07964792
0001e0 51 3a 5a bd 88 53 8d bc c0 fc 14 bd b2 0b 24 bd
       -0.05327827 -0.017251745 -0.036373854 -0.040050216
0001f0 0e 07 54 bd 69 59 e9 bc db 93 28 bd 9a e2 b3 bb
       -0.05176454 -0.028485017 -0.04115663 -0.0054896595
000200 a4 3e 68 bd 07 c6 61 bd 11 c3 62 bd 8d 60 a7 bc
       -0.056700364 -0.055120494 -0.05536181 -0.020431781
000210 9e 6e 95 bd 10 8b 89 bc 2c 14 75 bd 47 b1 de bc
       -0.07296489 -0.016789943 -0.05983369 -0.027184142
000220 77 df 03 bd 2d b5 d9 bb cc fa b4 3b 49 02 83 3b
       -0.032195535 -0.0066439123 0.0055230614 0.003998075
000230 a0 be b7 bc f3 42 1d bd 32 95 74 bd b4 16 89 bc
       -0.022429764 -0.038393926 -0.059712596 -0.016734459
000240 65 b8 8e bc dd 70 67 3c f8 5a 25 bd 91 80 c1 bc
       -0.01742191 0.01412603 -0.040369958 -0.023620876
000250 45 9e 9b 3b 05 8f 22 bd 70 3c 4a bd 24 90 be bb
       0.004749092 -0.039687175 -0.049374044 -0.0058155227
000260 1c 10 a8 bc 29 db 3f bd fb 8c 8b bd 14 c3 82 bd
       -0.020515494 -0.046839867 -0.06813999 -0.063848644
000270 d1 e1 90 bd 57 42 a7 bc 5d 27 f5 bc 5d 60 a6 ba
       -0.07074321 -0.020417375 -0.029925996 -0.0012693513
000280 3b d6 74 bd 01 99 b8 bc 63 2a 8e bd 74 16 84 bd
       -0.05977462 -0.022533895 -0.069416784 -0.06449595
000290 a9 f6 3a bd 80 3b 8f bd 6c 68 ab bd 56 4f 4b bd
       -0.04564539 -0.069937706 -0.08369526 -0.049636208
0002a0 01 1e 80 bc 57 a0 d1 bd f0 96 6b bc 79 f0 6e bc
       -0.015639307 -0.102356605 -0.014379248 -0.0145837
0002b0 9e 94 ed 39 42 aa 21 bb 7c d1 4e bd d4 4c e0 bc
       0.0004531489 -0.0024668132 -0.05049275 -0.027380385
0002c0 ca 11 24 bd c0 4e 22 bd 23 23 20 bd a7 14 84 bd
       -0.040056027 -0.039625883 -0.03909601 -0.064492516
0002d0 f3 3f 8e bc 14 51 f5 bc b3 56 aa b9 c1 07 3a bc
       -0.017364478 -0.029945888 -0.00032489523 -0.011354388
0002e0 49 f1 8c bc 69 46 39 bd 95 2c 14 bc fc b3 c7 bc
       -0.017204897 -0.045233164 -0.009043832 -0.024377815
0002f0 ee 1d a6 3c c3 e6 84 3c 49 ee 5f bc ea 26 30 bb
       0.020277943 0.016223317 -0.013667651 -0.0026878663
000300 f5 37 58 3d 13 e5 2a 3c 9e c3 6e bc 82 61 c3 3c
       0.05278774 0.010430592 -0.014573006 0.023850206
000310 7d c3 32 bb 39 9d 4b 3c 98 df 89 3c d6 c7 1c 3c
       -0.0027277165 0.0124276215 0.01683025 0.009569129
000320 ec b8 24 3d 52 d3 28 3c 82 8e 58 3d 7f de 50 3d
       0.040215418 0.010304289 0.05287028 0.05099344
000330 cb 83 00 3d 53 f3 2c 3d 0a d2 72 3d f2 d3 f7 3c
       0.031375688 0.04222424 0.05928234 0.03025243
000340 2b b2 c8 3c 5d 14 f5 3c 37 a4 1a bc 21 67 0c 3d
       0.02449902 0.029916937 -0.009438566 0.03427804
000350 fd a8 c4 3c 8d 6c 8c 3d 50 1b a3 3c 8b 38 d5 3c
       0.024006361 0.06856642 0.019910485 0.026027938
000360 8f 17 80 3c 64 6b 17 bc da 1e 3f 3d 80 aa 1a 3c
       0.015636234 -0.0092419125 0.04666028 0.009440064
000370 ef bb 9a 3c 76 a3 8f 3b a0 ad 13 3d 42 d5 75 3a
       0.018888442 0.0043834997 0.036054254 0.0009377786
000380 83 9f 4e 3d bd 30 15 3d 98 3a 36 3c 66 1e 81 3c
       0.05044509 0.036423434 0.011122368 0.015761565
000390 83 d5 4d bb c3 d8 41 3d c1 c3 4a 3b 03 52 57 bb
       -0.003140778 0.04732586 0.0030939432 -0.003285528
0003a0 ef 64 77 3d 59 2d 4d 3d 34 9e 2e ba 6e 25 49 3c
       0.060398992 0.050092075 -0.00066611473 0.01227699
0003b0 50 d3 a7 bb d7 55 95 bc d3 fd 02 3d 68 63 24 3d
       -0.005121626 -0.018229408 0.031980347 0.040133864
0003c0 1d 13 00 3d 25 69 23 3d a5 c3 73 3c 88 03 80 3d
       0.031268228 0.039895196 0.014878188 0.062506735
0003d0 97 55 8e 3b 9a a3 4a 3b fd 02 cf 3c aa c9 11 bb
       0.004343699 0.0030920268 0.02526998 -0.0022245445
0003e0 59 9d 20 3c 37 03 67 3b c6 28 82 3d 45 7d 8a 3d
       0.00980314 0.003524972 0.06355433 0.067621745
0003f0 ac c8 88 3d ac d5 ec 3b d4 90 05 3d fa 0f 05 3d
       0.066789 0.00722762 0.032608822 0.03248594

output_layer.bias f4 [11]
000000 1b a1 53 3c b8 24 2f bc 74 b6 52 bc 40 cd f3 bb
       0.0129168285 -0.010689907 -0.012860883 -0.007440239
000010 97 f9 4f bb 22 78 4c bb d0 0a 1c b8 d8 d3 d6 bb
       -0.003173446 -0.0031199534 -3.720337e-05 -0.0065560155
000020 2e 54 df 3a ec d4 55 3c 4d 88 50 3c
       0.0017038637 0.013051253 0.012727809
