libemg_3dc/transfer_learning/checkpoints/finetune_with_fc_reset.pt (torch, 206886 bytes, 20 tensors)

convolutional_layers.0.weight f4 [64, 10, 5]
000000 68 a1 c9 bd f3 27 35 bd db 33 08 3d b6 04 46 3e
       -0.09845239 -0.04422755 0.03325258 0.19337735
000010 7f 9a 3b bd f1 62 65 3d c3 d6 89 bd f6 7a 17 bc
       -0.045801636 0.05600256 -0.06730416 -0.009245625
000020 b3 ba a9 3c bf ab 7c 3c 78 f9 d2 3d 24 0e 0c 3e
       0.020718908 0.015421807 0.10301489 0.13677269
000030 8f 65 3d be 35 1a 19 be 42 8f eb 39 ec 90 cc bd
       -0.18495773 -0.14951403 0.00044929428 -0.09988579
000040 6f 75 73 bd dc c6 04 3e c6 6c b7 bc d2 2a 27 bc
       -0.059438165 0.12966484 -0.022390734 -0.01020308
000050 91 f4 93 ba 62 1e 50 bc 0a b1 d0 3d 55 83 45 3e
       -0.0011288096 -0.012702556 0.101900175 0.1928838
000060 96 5d 5c be 0c 56 e3 3d 40 a2 54 bd 80 4a d0 3c
       -0.21520075 0.111003965 -0.051912546 0.02542615
000070 87 96 35 bc f9 04 1a be a0 0e 9d bc d3 38 41 bd
       -0.011083252 -0.1504096 -0.019172013 -0.047173332
000080 23 58 d9 bd 8d f3 44 bd 06 c3 ff 3d e0 18 0a 3e
       -0.10612514 -0.04808383 0.1248837 0.13486052
000090 66 9d 56 3d d8 47 a8 bc 65 31 44 be 7d a9 15 bd
       0.0523962 -0.02054207 -0.19159468 -0.03653859
0000a0 90 3d a9 bd 2b 6e b1 bd 46 99 11 bd c7 f1 f2 3d
       -0.08263695 -0.08663591 -0.035546564 0.118625216
0000b0 04 58 aa bb 5b e0 2b be 1e 9d 50 bd 6f c7 0c 3e
       -0.0051984806 -0.16784804 -0.05093109 0.13747953
0000c0 f2 2c 8b 3e 59 e9 2e 3e 60 7d 00 bd c9 65 97 bc
       0.27182728 0.17081203 -0.031369567 -0.018481152
0000d0 80 14 c3 3d 4e c9 28 3d 70 b2 f0 bc 37 ba 21 be
       0.095253944 0.041207604 -0.02938196 -0.15793692
0000e0 65 5b c9 bd cc d5 b4 3d 6b fc 3b bd 90 75 bc bc
       -0.09831885 0.08829841 -0.04589502 -0.023005277
0000f0 b5 90 0e bd 70 2d dc 3d 61 07 0d bd 5b 01 97 bd
       -0.034805972 0.10750854 -0.034430865 -0.073733054
000100 ec 9b 90 3d 27 05 f5 3c 49 01 e4 3d 9b 09 95 bd
       0.0706099 0.029909683 0.111330576 -0.07277223
000110 a0 79 54 be ca 43 3c 3e 94 7a 64 3d f7 91 0f 3e
       -0.20749521 0.18385234 0.055780962 0.14020525
000120 c8 73 4e be ed e1 06 be 63 af 88 3e 8d f0 cd bd
       -0.20161355 -0.13172121 0.2669631 -0.10055647
000130 b3 f5 40 bc d0 68 45 be a0 55 b2 bc dc b8 c4 3d
       -0.011777329 -0.19278264 -0.021769345 0.09605572
000140 61 4e ec 3d 75 be 84 bd 43 46 89 bd f9 f1 06 be
       0.11538387 -0.06481639 -0.067028545 -0.13178243
000150 cd 31 19 be 7e 46 74 bb c7 1f f4 bd 65 1b dc 3d
       -0.14960404 -0.0037273462 -0.119201235 0.107474126
000160 9a 35 aa 3d 25 c9 7d bd c3 32 60 3d 5a 77 1f 3c
       0.08311005 -0.061959404 0.05473591 0.0097330455
000170 e2 a1 5f 3d 4f 30 ae 3d 1c 4e 9d bd 1e aa 88 bd
       0.054597743 0.08505308 -0.07680914 -0.06673072
000180 97 af a0 3d e5 c5 2b 3e 40 24 fc 3d 38 d6 df bd
       0.07845991 0.1677471 0.12311602 -0.10929531
000190 05 2b 17 3e 51 0a 5e bd b9 48 e4 bc c4 20 ef bd
       0.14762504 -0.054209057 -0.027866708 -0.116761714
0001a0 d9 c8 82 3d d2 84 b2 3d 1a 4c 7f 3d 66 7d e3 3d
       0.06385965 0.0871674 0.062328435 0.11107902
0001b0 64 9d ae 3c 4c 83 27 bd 04 4d 57 bc 6e bf f6 bd
       0.021315284 -0.0408967 -0.013140921 -0.12048231
0001c0 f7 14 d0 bc d6 66 56 bd b1 85 a6 bd a4 76 0e bb
       -0.025400622 -0.052344166 -0.08130968 -0.0021738196
0001d0 2a 57 89 bd 7b 4c 2b 3d db 85 d2 3d 8a ea e2 3d
       -0.06706078 0.041820984 0.10279437 0.11079891
0001e0 b1 c3 80 bd 04 ed 19 bc 00 cc 98 3d 15 38 26 bc
       -0.06287325 -0.009394888 0.07460785 -0.010145207
0001f0 23 2c 0a 3e f3 58 0b bc 38 2b 8d 3d ec c2 52 3d
       0.134934 -0.008505094 0.06893009 0.051455423
000200 69 d7 4d 3d 3d d3 cc 3c e3 df be 3c 76 be 2b bc
       0.05025426 0.02500307 0.023300117 -0.010482421
000210 b4 21 25 3c 8e 47 b0 bd 0b 6a 83 bc b3 b4 fc bd
       0.010078836 -0.08607398 -0.016041776 -0.12339153
000220 7c 13 3a 3c 20 df 73 3d 65 d4 be 3d 37 6c ff 3c
       0.0113571845 0.05953896 0.09317855 0.03117953
000230 e2 61 8a bc d2 04 03 be 35 b6 46 3d 08 59 18 3e
       -0.016892377 -0.12794808 0.04851361 0.14877713
000240 43 29 c4 3d 4c cf 5c 3b 90 ef 2b bd 86 fa 06 be
       0.095781825 0.0033692895 -0.04197651 -0.13181505
000250 8b ab ac be 13 bc 9b be b9 a9 5b bd ce e2 81 bd
       -0.33724627 -0.30416927 -0.053628657 -0.06342088
000260 51 85 8c bc fe a4 fd 3d 37 e8 ac bb 72 38 ce 3d
       -0.017153414 0.123849854 -0.0052767056 0.1006936
000270 99 bc 29 bd 38 14 17 be 97 4f 80 be d5 47 8f bc
       -0.041439626 -0.14753807 -0.25060722 -0.017490307
000280 09 a0 98 bd ed 55 98 3d 1a bf 46 be b8 84 94 3d
       -0.07452399 0.07438264 -0.19408837 0.072518766
000290 77 ca ce 3d b6 e5 56 3d af 26 d7 bb 38 98 af 3d
       0.10097211 0.052465163 -0.0065658907 0.08573955
0002a0 35 2f 20 3e bc c4 04 3c f9 6d 24 3d 1f 77 6d bd
       0.15643008 0.008103546 0.04014394 -0.05797493
0002b0 04 44 85 3c 34 1a f0 3d 94 c3 dc bd 00 da 55 bb
       0.016267784 0.11723748 -0.10779491 -0.0032631159
0002c0 8b 7c c0 bd 08 9d 99 bc a8 c7 17 3e b4 f6 19 3d
       -0.09398755 -0.018751636 0.14822257 0.03758879
0002d0 cf f2 f4 3d 65 07 fe 3c c9 07 8b 3d 4b e0 15 bc
       0.119603746 0.031009385 0.06788594 -0.009147714
0002e0 d4 9e 8d 3c 53 fe a0 bd 87 72 e7 bd a3 49 bf 3d
       0.01728765 -0.078610085 -0.11301141 0.09340217
0002f0 87 c1 b4 3c 8a ba 8c be a9 2f 07 be c4 cd 39 be
       0.022064937 -0.27486068 -0.13201775 -0.181449
000300 fd 42 1d 3e 74 e2 87 3e 0a 61 b0 bd 2d a4 86 3c
       0.15357585 0.26539958 -0.08612259 0.016435707
000310 f4 c8 cb 3c a6 46 2a bd b9 9f f8 3d c2 1c 8b bc
       0.024876095 -0.04157128 0.1213984 -0.016981486
000320 1e 11 23 be 77 af a6 3b a5 4f 9f 3d 16 61 1e bd
       -0.15924498 0.005086835 0.07778863 -0.038666807
000330 4b 52 58 be dd c9 89 3d d6 c6 cd 3c c0 16 22 3c
       -0.21125142 0.067279555 0.025119226 0.009893119
000340 0f 1e 47 3d 2f 2a 56 3d bd 09 4e bd f6 8f 2c 3d
       0.04861265 0.052286323 -0.050302256 0.04212948
000350 39 b6 c7 3d 52 4d 86 bd 0d ff bc bc c1 27 80 bd
       0.09751553 -0.065577164 -0.023070836 -0.062575825
000360 45 e3 8a 3c 27 85 35 be c9 51 17 3c 5e bd 93 3c
       0.016954074 -0.17726575 0.009235808 0.018034633
000370 19 24 9e 3a 65 66 6e bd 2a 6a d9 bb 01 a2 59 bd
       0.0012065201 -0.05820312 -0.00663497 -0.053133015
000380 2c ac 9d 3d 86 90 35 be 0f b6 41 be 20 f5 3b be
       0.07698855 -0.17730913 -0.18917106 -0.18355227
000390 f7 56 35 3d a3 63 13 bd a0 ba 66 3d d3 21 0d 3d
       0.04427239 -0.035983693 0.056330323 0.034456085
0003a0 ad ec 50 bc 4f 91 85 3d 77 ea 96 bd 24 92 43 bd
       -0.01275174 0.06521856 -0.07368939 -0.047746792
0003b0 1c ff dc 3d 0f 0a a0 b9 6e 47 f0 bd 6a 81 e3 3d
       0.10790846 -0.00030525072 -0.11732374 0.11108668
0003c0 ac 87 e0 3d 1b 02 33 bd 29 b5 00 be 05 7f 86 bc
       0.10963377 -0.04370318 -0.12569107 -0.01641799
0003d0 9f 06 1b 3e 81 5b 90 3d 4e 70 6c be 63 d7 60 bd
       0.15139244 0.07048703 -0.23089716 -0.05489291
0003e0 9d f9 4e 3e f6 10 45 3c 05 ba b8 3d ad 76 0c be
       0.20212407 0.01202797 0.090198554 -0.13717146
0003f0 94 30 0f 3d ac 22 03 be ff d0 bc bb dd 10 b9 3d
       0.034958437 -0.12806195 -0.005762219 0.090364195

convolutional_layers.0.bias f4 [64]
000000 d5 55 89 3d b1 96 1e bd ef a7 3e 3d 49 eb 67 bd
       0.06705824 -0.03871793 0.046546873 -0.05662087
000010 bc 27 77 3d 81 b0 0c bd cd a9 f3 3b 1e b1 5c 3c
       0.060340628 -0.034348015 0.0074360133 0.013469962
000020 49 b4 be bd 9f 72 b3 3c c1 d4 d3 ba 4c c7 b9 bd
       -0.093117304 0.021905242 -0.0016161428 -0.09071216
000030 6b 64 99 3c 65 3e 27 bd 0c df 4e bc 6e b0 33 bd
       0.01872464 -0.04083099 -0.012626421 -0.04386943
000040 ba d1 29 bc f9 3a c6 3c 3d 1a fb bb f9 7a e3 3d
       -0.010364944 0.024198042 -0.00766304 0.111074395
000050 14 cb cf bc ac f1 3e 3d 11 73 4a bd 74 81 94 bc
       -0.02536539 0.046617195 -0.049426142 -0.018128134
000060 35 f2 92 bd 40 e5 27 bb 12 9b 18 be a0 d3 19 3d
       -0.071751036 -0.0025618821 -0.14902905 0.037555337
000070 e0 6b 15 3d c2 51 5a 3a a4 b2 4f 3c dc 3c d2 3c
       0.03647983 0.0008328223 0.012676869 0.025663786
000080 ec df a9 3c dd 09 4a 3c 9a 2d 98 bc e8 5e ed bc
       0.020736657 0.012331453 -0.018576432 -0.028975919
000090 b6 f8 2e 3d 8c 16 31 3d 78 15 4a 3d 86 07 2e 3b
       0.042717658 0.043234393 0.04933688 0.0026554777
0000a0 81 f6 d1 3c 38 56 d2 3b c7 86 bb bc 78 72 71 bd
       0.025630238 0.0064189695 -0.022891415 -0.058947057
0000b0 a9 31 70 bb a7 66 a3 3c da 88 7a 3d 7b 70 4b 3b
       -0.0036650694 0.01994641 0.061165668 0.0031042385
0000c0 3a c4 0f bd 97 52 f2 3c 79 40 2c bc e5 77 0d 3d
       -0.035099246 0.029580398 -0.010513418 0.03453817
0000d0 e7 0f 02 3d a4 19 01 bd 4e 3d 23 3d 8e 32 71 3a
       0.031753447 -0.031518593 0.039853387 0.00092009536
0000e0 2b 0d 00 3d 28 a1 46 bd b5 ac 32 bd d1 e4 0f 3c
       0.031262558 -0.048493534 -0.043621738 0.008782581
0000f0 5b 5b 58 3d 94 c2 e7 bb e5 cf 98 bb 97 2a 04 bd
       0.0528215 -0.007072756 -0.004663455 -0.03226718

convolutional_layers.1.weight f4 [64]
000000 33 d8 86 3f 92 e3 7f 3f f2 b4 72 3f d7 66 7b 3f
       1.0534729 0.9995662 0.9480735 0.98203796
000010 73 5d 6f 3f 1c 91 6f 3f c8 fc 84 3f 0c 2c 84 3f
       0.9350197 0.93580794 1.0389643 1.0325942
000020 80 f3 72 3f 37 89 6c 3f b3 84 81 3f c6 76 74 3f
       0.949028 0.92396873 1.0118622 0.95493734
000030 8c a8 7c 3f 3f af 83 3f be 79 87 3f a4 d1 7f 3f
       0.9869468 1.0287856 1.0584028 0.9992926
000040 d6 0f 73 3f 46 78 83 3f 1c ec 7c 3f d1 75 82 3f
       0.9494604 1.027108 0.98797774 1.0192205
000050 11 4c 81 3f 28 87 8d 3f 98 3a 73 3f 60 13 8b 3f
       1.0101339 1.1056871 0.9501128 1.0865288
000060 50 10 8a 3f 79 7a 77 3f 66 1e 92 3f f3 65 74 3f
       1.0786228 0.96671253 1.1415527 0.9546806
000070 cf 92 7f 3f 55 a8 73 3f 43 c2 80 3f cd f1 76 3f
       0.9983339 0.9517873 1.0059284 0.9646271
000080 09 20 7c 3f ba fb 6c 3f 75 68 82 3f 8a f7 81 3f
       0.9848638 0.92571604 1.0188128 1.0153668
000090 bc 36 6c 3f 1b 04 84 3f 48 32 80 3f 5d f4 72 3f
       0.9227102 1.0313753 1.0015345 0.9490412
0000a0 1b 40 7e 3f 68 8b 81 3f 2b 1c 87 3f f0 1f 6f 3f
       0.9931657 1.0120668 1.0555471 0.9340811
0000b0 aa 60 83 3f fa d3 78 3f 8d 90 6e 3f 03 47 82 3f
       1.0263875 0.9719845 0.93189317 1.0177921
0000c0 81 aa 80 3f 0e 43 6a 3f d5 24 81 3f a2 ba 7f 3f
       1.0052034 0.9150857 1.0089365 0.99894154
0000d0 25 99 6e 3f 2a ef 5b 3f fc d0 6d 3f b3 26 7f 3f
       0.9320243 0.8591181 0.9289701 0.99668425
0000e0 03 b2 84 3f 78 39 7f 3f d2 9f 82 3f d5 c2 88 3f
       1.0366825 0.99697065 1.0205023 1.0684458
0000f0 0d 45 7e 3f 96 bb 87 3f 69 cc 5c 3f b9 7c 85 3f
       0.99324113 1.0604122 0.86249405 1.0428687

convolutional_layers.1.bias f4 [64]
000000 dd ab 14 3c fd 28 82 3d 30 56 de bc 3e 07 1d bd
       0.0090741785 0.06355474 -0.027140707 -0.038336985
000010 01 37 0a 3d d8 60 ff 3d 8f 4b 89 3c b9 03 9a bd
       0.033743862 0.12469643 0.016759662 -0.07520241
000020 b0 68 69 3c 46 f5 aa bc 6f a5 6f bc fb f2 82 bc
       0.014246151 -0.020868909 -0.014626845 -0.015985003
000030 78 ee 7e 3c 0f 0b 31 bb 07 23 bd 3c 6b 9a bb 3d
       0.015559785 -0.0027014648 0.023087991 0.09160312
000040 9e a5 bf 3c 97 86 12 3b ed b8 d4 bc 70 39 a5 bd
       0.023394402 0.0022358054 -0.025967086 -0.08067596
000050 e3 ce c9 3c e8 35 fd bc 4c d2 4c 3e 9a 85 97 bd
       0.024634784 -0.030909494 0.20002097 -0.07398529
000060 1f 70 a2 3c 21 e3 95 bc 6c 35 57 bd f0 ca af 3c
       0.019828854 -0.01829678 -0.05254118 0.021459073
000070 76 85 b2 3c bf bf f6 3c 99 73 2f 3c c5 63 5c bd
       0.021792155 0.030120729 0.010708713 -0.053806085
000080 af be bc 3c 20 4f 74 bd b1 a4 4e 3d dd 86 ac bd
       0.023040144 -0.059645772 0.05045003 -0.08424161
000090 31 1e 51 bc 35 2c af 3d 83 35 bd 3d 32 85 76 bd
       -0.012763546 0.08553354 0.09238722 -0.06018562
0000a0 e4 15 e5 3b 02 93 65 bd 5e f5 e5 bc a4 33 3e bd
       0.006991135 -0.0560484 -0.028071102 -0.046435967
0000b0 b1 71 4b 3b c0 42 1a bd f8 0b 9c 3b 86 f7 ad 3a
       0.0031043107 -0.037661314 0.004762169 0.001327262
0000c0 74 52 fc bc 46 30 29 3e 51 0b 37 3d 11 e2 cc bb
       -0.030801035 0.16522321 0.044688527 -0.006252535
0000d0 62 b8 96 bd ff 30 f2 3c 0b 4b c7 bc b5 fc c5 bb
       -0.07359387 0.029564379 -0.024327775 -0.006042088
0000e0 f7 22 3b 3a 0e 5e f3 bc ce a1 5d bd 3a 00 15 bd
       0.0007138694 -0.029707935 -0.054109387 -0.03637717
0000f0 1b 52 92 bc 75 40 8e bc aa 9c 05 3d e1 f6 d9 bc
       -0.017861417 -0.01736472 0.03262011 -0.026606979

convolutional_layers.1.running_mean f4 [64]
000000 50 82 87 3d cf 06 ec bc 9c dc 1a 3d 12 8c 33 bd
       0.06616652 -0.02881184 0.037808046 -0.043834753
000010 b3 83 55 3d f6 4d 0a bd 85 b7 27 3b 4a b8 cb ba
       0.05212755 -0.033765756 0.0025591564 -0.0015542593
000020 80 a8 de bd 59 35 aa bc 94 b5 ef ba 88 9c db bd
       -0.108719826 -0.020777391 -0.0018288367 -0.10723215
000030 be 80 28 3c 3f 17 50 bd b7 b3 87 bc 8b 8d 49 bd
       0.010284601 -0.05080342 -0.016565187 -0.04920725
000040 3e 5e 73 bc 02 5b be 3c c5 2b d8 3b 0b 09 db 3d
       -0.014854012 0.023236755 0.0065970146 0.10695084
000050 43 86 af bc 43 70 3b 3d d6 99 68 bd c8 6e 95 bc
       -0.021426326 0.045761358 -0.056787334 -0.018241301
000060 b0 49 9a bd 43 f7 4f bb f6 6e 18 be f4 fa 16 3d
       -0.07533586 -0.0031733073 -0.14886078 0.03686042
000070 cd b0 30 3d 0e 39 e3 bb a0 c5 ae 3c b1 1f e8 3c
       0.04313736 -0.0069342917 0.02133447 0.028335424
000080 2a d4 9c 3c 03 16 a8 3c 0d 37 61 bc e4 92 ac bc
       0.019144136 0.020518309 -0.013746035 -0.021066137
000090 23 43 27 3d 42 a1 10 3d 53 59 33 3d a3 47 27 3a
       0.04083551 0.035310037 0.043786358 0.0006381219
0000a0 32 d7 d0 3c 40 3c dc 3b 90 f3 b9 bc a5 2c 84 bd
       0.025493238 0.0067210495 -0.022699147 -0.06453828
0000b0 fa d7 3b bb de 34 97 3c ba b2 4a 3d d5 31 ec bb
       -0.0028662668 0.018457826 0.049486853 -0.007208089
0000c0 48 74 20 bd 0a cd 99 3c 26 46 9e bc f7 90 03 3d
       -0.039173394 0.018774528 -0.019320559 0.03212067
0000d0 89 a1 d9 3c 7c 1c e1 bc e3 5d 05 3d 95 41 f0 3a
       0.026566284 -0.027479403 0.03256024 0.0018330092
0000e0 a6 2f 04 3d 39 38 42 bd 97 5c 68 bd 82 44 14 3c
       0.032272004 -0.0474169 -0.056728926 0.009049537
0000f0 ce 4d 5f 3d 9f 1d 03 bc b7 58 20 bb 0f e4 09 bd
       0.05451756 -0.008002668 -0.002446694 -0.03366476

convolutional_layers.1.running_var f4 [64]
000000 c8 37 86 3f bf 7a 03 41 ac 7c 17 41 ab 16 9c 41
       1.0485773 8.217467 9.467937 19.511068
000010 94 74 a9 40 52 a9 e1 3f b7 09 fd 3f c1 03 b5 41
       5.2954807 1.7629797 1.976859 22.626833
000020 9d 2c cf 41 b2 0e 1b 43 d4 ce cd 40 ef 1e c1 41
       25.896784 155.0574 6.4314976 24.140104
000030 83 9d d2 40 d2 fc 29 41 5a 5a b6 3f 46 96 ba 40
       6.5817275 10.624224 1.4246323 5.830844
000040 df d8 0e 40 65 cf 9c 3f 79 1b bb 41 f6 18 fc 3f
       2.2319868 1.2250792 23.388414 1.9695117
000050 52 5a 20 40 0b 96 72 3f b0 57 ae 40 0b ab 89 3f
       2.5055127 0.947602 5.448204 1.0755323
000060 76 37 ba 3f 94 e6 42 3f 24 a3 fa 3e f7 2d 44 3f
       1.4548175 0.76133084 0.4895259 0.76632637
000070 45 fc 52 40 d2 67 14 41 7b 69 72 41 13 b4 5e 3f
       3.2966473 9.275347 15.150752 0.8699352
000080 eb ac 7f 3f eb ed e8 40 6a 43 01 40 18 0a 02 41
       0.99873227 7.2790427 2.0197396 8.127464
000090 a5 d1 6e 3f cb 77 c4 40 4e 72 8a 40 25 44 0b 40
       0.9328864 6.139623 4.326453 2.1760342
0000a0 49 c7 4a 3f b0 c6 0f 3f 3e 69 09 3f 6d a1 34 40
       0.79210335 0.5616255 0.5367621 2.8223526
0000b0 9b 95 4e 3f 5f 81 46 3f 01 d4 51 41 8c 2b 18 41
       0.8069703 0.77541155 13.114259 9.510632
0000c0 d4 fe 30 40 81 88 5d 41 67 b8 bd 40 ca f2 bc 3f
       2.7655535 13.845826 5.92876 1.4761593
0000d0 54 00 02 40 59 20 07 40 c6 f0 9b 40 16 2e 8b 3f
       2.03127 2.1113493 4.8731413 1.0873439
0000e0 91 43 76 3f 30 21 58 3f 7b 1c 82 41 66 35 fb 3e
       0.9619685 0.8442564 16.263906 0.49064177
0000f0 2a 83 d5 3f 36 62 79 40 59 c6 90 3f b4 d4 f4 3f
       1.6680653 3.8966193 1.1310531 1.9127412

convolutional_layers.3.weight f4 [32, 64, 5]
000000 51 ec 6f be 63 03 e8 bd 66 29 0c be 91 ab 23 3c
       -0.23429991 -0.11328771 -0.13687667 0.009989635
000010 84 d4 10 be 15 e8 1b 3e 34 53 2b bd e6 cd 15 bd
       -0.14143568 0.15225251 -0.041827396 -0.036573313
000020 87 76 db 3c 22 5b 02 bd fb ed 13 3d f9 8d 98 bd
       0.026789917 -0.031825192 0.036115628 -0.07448954
000030 70 58 18 bd f9 06 8e bb 58 ca ba bd b4 7c 15 bd
       -0.037193716 -0.0043343273 -0.09120625 -0.03649588
000040 ae f6 fa 3d 23 6c ab 3c ac eb 43 bb 73 9e e1 3b
       0.12254082 0.020925587 -0.002989511 0.0068853437
000050 60 90 e9 3c 21 20 28 bd ec 22 5a bc 6e 26 9c 3d
       0.028511226 -0.041046266 -0.01331399 0.076245174
000060 dc a6 80 3c af 19 53 bd 44 f4 ae bd 6b db 37 3d
       0.015704565 -0.051538166 -0.08542684 0.044886988
000070 49 39 8e 3d f7 4c b1 bd 49 c8 58 be f2 79 31 be
       0.0694452 -0.08657258 -0.21170153 -0.17331675
000080 c8 59 ba 3c 37 8c 25 bc bc 62 89 be 50 67 0f 3d
       0.02274789 -0.010104231 -0.2683314 0.035010636
000090 8c 1e d8 bd 89 9a 80 bd 2e 18 06 3d 5e 02 1c bd
       -0.10552701 -0.06279475 0.032737903 -0.038088195
0000a0 51 e4 26 3e 9d 07 89 3c d8 e6 12 3d 94 b9 1b 3e
       0.16298033 0.016727263 0.03586468 0.15207511
0000b0 61 51 88 3d 1b e3 52 bd b2 39 7c 3d f4 45 2c 3a
       0.06656147 -0.051486116 0.06157846 0.0006571703
0000c0 27 eb df 3a 44 6d f8 bb e4 cf 25 be 4d cd 8b bd
       0.0017083631 -0.007581385 -0.16192585 -0.068262674
0000d0 b4 59 60 3d ee 42 ba ba d0 92 6b 3d c7 ff 50 3e
       0.054773048 -0.001421062 0.05751306 0.20410071
0000e0 7c eb 55 3d 0f ac 19 3e 4c d2 49 bb 1d b7 67 bd
       0.05222653 0.15007041 -0.0030795513 -0.056571115
0000f0 25 f8 0c bd 6b ad 6d be 42 ce d5 bc 8c d0 8e bb
       -0.034416337 -0.23210685 -0.026099328 -0.004358357
000100 42 f6 56 bd a3 1c f7 bd ca 8c bd bd 33 88 31 3c
       -0.052480944 -0.12066009 -0.09255369 0.010835695
000110 95 86 94 be 69 73 44 be 93 7a 7c ba 9e ee 71 bc
       -0.29008928 -0.1918465 -0.0009631302 -0.014766363
000120 1d 96 95 bc b5 70 e7 3d 4c 88 46 bc 11 26 d0 3d
       -0.018260056 0.11300794 -0.012117457 0.101635106
000130 a3 46 91 bd 40 d2 22 bb 43 a7 eb bd 11 22 ae 3d
       -0.07093551 -0.0024844557 -0.11506512 0.085025914
000140 40 71 2c 3d 84 9f 86 3c 7f d7 fb bc 78 c2 44 3d
       0.04210019 0.016433485 -0.030742405 0.048037022
000150 ef 82 a9 3d d9 ad 59 bd 3e ba 99 3d 93 2c 38 3d
       0.08276927 -0.05314431 0.07506226 0.044964384
000160 54 0f b7 3c 84 0a 55 bd ad 79 48 3c 94 4b 4e bd
       0.022346176 -0.05201198 0.012236041 -0.050365046
000170 f3 a8 d4 bd 62 5b 2c 3d 5a 09 9f bc 60 e1 4b 3a
       -0.10383787 0.042079337 -0.019413639 0.0007777419
000180 fd 18 21 3d 37 ae 3a 3e 93 7c fa bd c9 5a d1 3d
       0.03933047 0.1823052 -0.12230792 0.10222394
000190 95 9b 42 bd d9 bf 81 3b 48 68 ac 3c c0 ee f1 3d
       -0.047511656 0.0039596376 0.021045819 0.11813116
0001a0 89 92 10 3d b9 8f fb ba ac 31 b9 3c e8 8e 07 3e
       0.035295997 -0.0019192613 0.022606693 0.13238108
0001b0 1a 60 39 3a a5 cd 2d 3d 95 02 23 be c1 dd 7e 3c
       0.000707151 0.042432446 -0.15918954 0.0155558
0001c0 59 44 e8 bd 1d 3e 99 bc 6c 6a ad bb dd 6e 2f 3d
       -0.11341161 -0.018706376 -0.0052922275 0.042830337
0001d0 8c b1 5c 3e 6d 5b bb 3d cd 55 97 3e 78 da 86 3e
       0.21552104 0.091482975 0.29557648 0.26338553
0001e0 3c e8 0d 3e 26 65 73 3d 31 33 7f 3d ff 27 a1 3d
       0.13858122 0.059422635 0.06230468 0.07868957
0001f0 05 fc 41 bd bb 20 23 be a4 be f1 3c b3 ef 2b bd
       -0.047359485 -0.15930454 0.02950985 -0.041976642
000200 29 c6 72 bd 2f ab 06 be 34 30 60 bd 78 2f 15 bd
       -0.05927101 -0.13151239 -0.05473347 -0.036422223
000210 83 76 3e be 8e 02 9c bc 9f 50 59 bc 7b 07 e1 bd
       -0.18599896 -0.019044187 -0.0132638505 -0.10987755
000220 d6 f4 b4 3c 06 66 c1 bd 30 9c 98 bd e4 9b 78 bd
       0.022089403 -0.094432876 -0.074516654 -0.060695544
000230 b4 33 24 3e f8 e2 c0 bb e3 54 62 bc 0f 83 b2 3d
       0.16035348 -0.005886432 -0.013814184 0.08716404
000240 7e 80 94 3d 63 72 a2 bd 61 6e 8c 3c 0a 77 6f bd
       0.072510704 -0.07931974 0.017142477 -0.058463134
000250 b3 2b 8e bd 75 9b 66 bd 29 5d fb bd 74 93 3b be
       -0.06941929 -0.0563006 -0.12273628 -0.18317968
000260 14 70 02 bb f2 af f9 bd 05 66 36 be 12 15 5f bd
       -0.001990323 -0.12191762 -0.17812355 -0.054463454
000270 60 20 f7 3d ba 8c 30 3d af 13 30 bc 66 99 24 3c
       0.12066722 0.043102957 -0.01074688 0.010046339
000280 9e 0b 07 3d ee 44 f2 bc 32 9e 36 3d c1 3a 8f 3d
       0.032970063 -0.029573884 0.04458446 0.06993628
000290 39 97 a6 3a 0b 99 c1 bd d4 c6 54 3d 95 ef 26 bd
       0.0012709863 -0.09453019 0.05194743 -0.040755827
0002a0 55 96 f1 bb 6d 01 d5 3c 96 6d ec 3b 48 92 51 3d
       -0.0073726573 0.026001656 0.007215212 0.051164895
0002b0 05 a5 b3 3d df da 60 bd be 56 73 bd 1e ce d9 bb
       0.08771709 -0.05489623 -0.059408896 -0.0066468855
0002c0 b1 e5 1e be bf ac 7e bd 80 e7 91 bb 83 41 5c bd
       -0.15517308 -0.062176462 -0.004452646 -0.053773414
0002d0 ad 67 a7 3b 5c b4 a7 3d 47 03 66 3d c0 d9 e7 3b
       0.0051087947 0.08188698 0.05615547 0.0070755184
0002e0 4a ae 82 3d f3 16 37 3c 8f d7 91 bd 4e 21 54 3d
       0.06380899 0.011174905 -0.07121193 0.051789574
0002f0 32 f8 f1 3d f0 8c d3 bc 37 de b3 bd 3c 72 c6 bb
       0.118149176 -0.02582404 -0.087826185 -0.0060560983
000300 b4 16 d4 bd b8 13 0e 3e 3d 1a ab bc c9 30 71 3d
       -0.10355893 0.1387471 -0.020886535 0.058884416
000310 5f 40 ef 3d c5 dc 1a bd 4c a4 89 3d 6e cb bf 3a
       0.116822 -0.0378082 0.0672079 0.001463277
000320 8d 34 a5 bd 4f a1 89 bd 59 cd 28 bc 67 9c 72 bc
       -0.08066664 -0.0672022 -0.010302865 -0.014807797
000330 56 72 c4 bd 7b a1 20 bd 36 d0 3b be a8 63 03 be
       -0.0959212 -0.0392165 -0.18341145 -0.12830985
000340 19 de 98 be 65 5c 58 be d5 8f ca 3d ff 29 71 3d
       -0.29856947 -0.21128996 0.09890715 0.05887794
000350 a8 9e 43 3e f6 a4 f9 3d cf f2 9b 3c 3b 65 d2 ba
       0.19103491 0.12189667 0.019036679 -0.0016051898
000360 4e dc db 3d 61 65 0e be 06 0f bc bd 58 fa 65 bd
       0.10735379 -0.1390586 -0.09182553 -0.05614695
000370 e1 ad ab 3d e3 90 c0 3d 86 51 43 3d 9e 7e 47 3d
       0.08382774 0.09402635 0.04768517 0.048704736
000380 fa 53 08 3e b2 39 f0 bd 49 2f 3b be e5 f7 0c be
       0.13313285 -0.117297545 -0.18279757 -0.1376644
000390 17 60 7b 3c 47 79 15 be b2 df b7 3d 57 37 71 3d
       0.015342734 -0.14597045 0.08978213 0.058890667
0003a0 87 85 4c be 7d 7b 09 3d 95 4f 96 bd 27 30 18 3d
       -0.19972812 0.033565033 -0.07339398 0.037155297
0003b0 f3 71 70 3c 5b c7 79 3d f7 10 40 3d bb 03 9b bd
       0.014675605 0.060981136 0.04689118 -0.07569071
0003c0 bb f9 1a 3d aa 6c e8 bd 70 6d d8 3c 27 59 97 3d
       0.037835818 -0.11348851 0.026419371 0.07390051
0003d0 28 7d 0f 3d 80 e3 ed 3c e4 c6 00 bb e6 79 8d bd
       0.035031468 0.029039145 -0.0019649798 -0.06908016
0003e0 cc a0 bd 3c ff ba e7 3c cb af 52 3d 7f 3c 18 bc
       0.023147963 0.028287409 0.05143718 -0.009291767
0003f0 bc 7a 82 3c 47 17 d6 3d 2d 70 c3 3c c0 65 26 be
       0.015927665 0.104536586 0.0238572 -0.16249752

convolutional_layers.3.bias f4 [32]
000000 d4 ae f3 3d fb 14 65 3c 93 6e 77 3d 2a cb a1 3b
       0.1189858 0.013982053 0.060408186 0.004937549
000010 b8 0f 49 3d b9 43 8b bc 91 ee dd ba 47 86 c5 b9
       0.049087256 -0.017000066 -0.001693206 -0.00037674812
000020 43 7c 44 3d 3b d8 bb 3c 33 67 ec 3c ce 29 e3 bb
       0.047970068 0.022930255 0.028857803 -0.0069324737
000030 77 d8 3e bd c3 3e a6 bd 1d 17 2c 3d 1f fc 13 3c
       -0.046593156 -0.081174396 0.04201423 0.009032278
000040 f8 41 bf 3c cd f7 7b bc 05 be 99 bb 2b 93 96 bc
       0.023346886 -0.0153789045 -0.0046918415 -0.018380722
000050 fc a5 0a 3c 92 0a 88 3c 2c 32 31 bc 03 0f cd bc
       0.008462425 0.016606603 -0.010815185 -0.025031572
000060 1a 0e 79 3b ab 79 ce bc d1 09 f0 3c d1 d9 84 bb
       0.003800279 -0.0252045 0.029301556 -0.004054286
000070 94 fd d5 3a 34 15 1b bc 7f 9a 9b 3b 89 34 a2 bc
       0.0016326183 -0.009465504 0.004748642 -0.019800441

convolutional_layers.4.weight f4 [32]
000000 32 b7 87 3f c9 f2 8f 3f 97 00 86 3f 07 44 86 3f
       1.0602782 1.1245967 1.046893 1.048951
000010 e4 ee 87 3f f8 f2 8d 3f f7 8a 5d 3f ba aa 67 3f
       1.0619779 1.1089773 0.8654017 0.90494883
000020 63 31 87 3f b8 28 6c 3f a9 c1 7f 3f 19 9b 87 3f
       1.0561947 0.9224963 0.99904877 1.0594207
000030 b8 bf 8e 3f 8e 99 8c 3f f3 96 8b 3f b1 f2 64 3f
       1.1152258 1.0984361 1.0905441 0.8943282
000040 2e 4c 64 3f 57 c6 74 3f 0d 8c 8b 3f 04 36 65 3f
       0.8917874 0.9561514 1.0902115 0.89535546
000050 c5 6b 70 3f 59 81 85 3f 7a ba 82 3f ff e8 87 3f
       0.93914443 1.0430099 1.0213158 1.061798
000060 6f 2a 63 3f 8b 63 87 3f 44 99 7b 3f 09 98 86 3f
       0.88736624 1.0577253 0.9828074 1.0515147
000070 02 38 62 3f de 0e 82 3f 33 67 85 3f 7f 5c 84 3f
       0.8836671 1.0160787 1.0422119 1.0340728

convolutional_layers.4.bias f4 [32]
000000 00 95 15 be c7 43 60 bd ff 25 26 be ba 90 0c be
       -0.1460762 -0.054752138 -0.16225432 -0.13727084
000010 d7 77 0b be 9e 90 dd bd 49 9f e9 bd 39 a7 9e 3d
       -0.13619934 -0.10818599 -0.11407334 0.07746739
000020 9b be b6 bd 25 09 13 be 7c d1 53 be 60 78 bb bd
       -0.08923074 -0.14358957 -0.2068538 -0.09153819
000030 b2 f7 d1 bc 68 86 e7 3c 31 56 1f bb 06 52 f8 bd
       -0.025630806 0.028262332 -0.0024312849 -0.1212502
000040 00 f8 14 be 6e 66 45 bd 4f 5a 69 bd bd a4 3e be
       -0.1454773 -0.048193388 -0.05697089 -0.1861753
000050 d2 11 08 be 77 7f 41 be ef be 9c bd 6b e8 a0 bd
       -0.13288048 -0.1889628 -0.07653605 -0.0785683
000060 ff 5f e1 bd b9 05 de bd 17 b9 33 be dd b2 20 3d
       -0.11004638 -0.10840935 -0.17551075 0.039233077
000070 83 49 1d be 1b 69 f9 bd f9 f9 cf bd b4 3c 13 be
       -0.15360074 -0.121782504 -0.101551004 -0.14378625

convolutional_layers.4.running_mean f4 [32]
000000 51 31 8e bf 55 da a5 bf 48 d1 86 bf 9f 3c ff bf
       -1.11088 -1.2957255 -1.0532618 -1.9940375
000010 78 6d 01 c0 44 21 97 bf 11 dc 99 3f b8 b6 4a 3e
       -2.0223064 -1.1807027 1.2020284 0.19796264
000020 ce 5a 9e bf c9 04 60 3e 67 52 a7 bf 1a 83 eb bf
       -1.2371461 0.21876825 -1.3072022 -1.8399384
000030 d4 a8 04 c0 a8 76 d3 bf a0 12 ac bf a0 a2 6a bf
       -2.0728045 -1.6520586 -1.3443184 -0.91654396
000040 80 e5 3b bd e0 60 3a bd 2b d7 0f c0 c1 71 3a bf
       -0.045873165 -0.045502543 -2.2475078 -0.72829825
000050 e8 38 86 bf 4b 9e a3 bf 7f 18 93 be 1c c8 bb bf
       -1.0486116 -1.2782682 -0.28729627 -1.4670444
000060 fa e2 92 bd 34 45 82 bf 6f 4a 8e 3e 20 c2 06 c0
       -0.071721986 -1.0177369 0.27791163 -2.1055984
000070 d7 64 4b be af 30 c1 bf e8 55 ea bf 88 11 03 c0
       -0.19862686 -1.5092982 -1.8307467 -2.047945

convolutional_layers.4.running_var f4 [32]
000000 87 4d 8a 3f 68 52 c3 3f 29 68 9a 3f 5d 83 cc 3f
       1.080491 1.5259523 1.2063037 1.5977589
000010 7d 92 42 40 b4 81 95 3f 40 1c df 3f 1b f8 a9 3f
       3.040191 1.1680207 1.7430496 1.3278841
000020 99 07 af 3f ba c0 49 40 05 df 44 40 7f 1b 28 40
       1.3674194 3.152388 3.076112 2.6266782
000030 35 a9 11 40 59 44 c9 3f 21 e1 d3 3f 9d 4c ef 3f
       2.2759526 1.5723983 1.6553079 1.8695256
000040 98 9f fe 3f 35 8e 85 3f a3 b2 23 40 5b c0 a7 40
       1.9892454 1.0434023 2.5577781 5.242231
000050 f7 15 c6 3f 3e f5 8e 3f 24 5b d1 3f 2e da c1 3f
       1.5475453 1.1168592 1.6355939 1.5144708
000060 32 8f f8 40 4c f1 62 3f 2f 28 9c 3f 40 23 4e 40
       7.76748 0.8864944 1.2199763 3.2209015
000070 bb a0 94 40 67 0f bd 3f 19 ff 29 40 38 05 19 41
       4.6446204 1.4770325 2.656195 9.563774

convolutional_layers.6.weight f4 [16, 32, 5]
000000 1e f1 f0 bd c1 17 0f be 63 0f 8a 3b 42 78 c2 3d
       -0.117647395 -0.13973905 0.00421326 0.094955936
000010 95 3b 83 bd af 0d 43 bd 88 2b ca bd 75 f1 4d be
       -0.06407849 -0.04762047 -0.09871584 -0.2011164
000020 ec 8d 56 be ed 3b fe bd f0 da 67 be f5 eb 75 be
       -0.20952576 -0.12413774 -0.22642112 -0.24015792
000030 79 1e 7e 3d fe d7 36 3d f6 e9 3e bd 42 89 f6 b9
       0.06204078 0.04463958 -0.04660984 -0.0004702304
000040 27 b9 4b 3c de 04 15 be ae 53 17 3e c3 61 11 3e
       0.0124342805 -0.14552638 0.14778015 0.1419745
000050 45 22 4c 3e bb 22 9a 3d c5 3e a5 3c b6 f7 79 3d
       0.19934948 0.075261556 0.020171532 0.06102725
000060 44 39 0d 3e 15 d3 eb 3d 0d 73 9d bd d8 78 64 3d
       0.13791376 0.1151487 -0.0768796 0.055779308
000070 eb 78 7c 3d 22 f5 49 3e 1f a7 28 be 48 c7 c4 3d
       0.061638754 0.19722417 -0.16470002 0.096083224
000080 87 e3 b1 3c 4a 33 c4 3d 0e df 0d be e7 ad a9 bd
       0.021714939 0.09580095 -0.1385462 -0.08285122
000090 a0 ff da bc be a8 07 be 9e cf 01 be 40 84 26 bd
       -0.02673322 -0.13247964 -0.12676856 -0.040653467
0000a0 27 2b 8b bd cb 9e cd bd 7e 35 05 3e 7a 20 7f 3d
       -0.0679534 -0.10040053 0.13008687 0.06228683
0000b0 74 c1 c1 3d 2f b0 23 bd 21 c9 a1 3d f6 6d 9a bd
       0.094607264 -0.039962944 0.078996904 -0.07540505
0000c0 fe fd f3 bd b3 24 c4 3d fd 00 59 3d 25 d4 7d 3d
       -0.119136795 0.09577312 0.052979458 0.061969895
0000d0 83 2e d1 bd ab 5a 89 bd e7 88 8b bd 04 a7 0b 3d
       -0.102139495 -0.06706747 -0.068132214 0.034094825
0000e0 8a d8 df 3d 36 58 53 bd cd 25 c2 3d 4e b2 0f bd
       0.109299734 -0.051597796 0.09479866 -0.035082154
0000f0 e0 23 72 bd 9c 79 b8 bd f8 5c ee bd 4f fb b6 bd
       -0.059116244 -0.0900757 -0.11638826 -0.08934652
000100 e8 87 b6 3b c7 43 61 bd 4a fe 2a 3d 63 4f 60 be
       0.0055704005 -0.054996278 0.041746415 -0.21905284
000110 a6 df 7a 3c 85 66 eb bd ad 8a 4f be 95 5e 17 be
       0.015312111 -0.114941634 -0.20267744 -0.14782174
000120 32 7f 8b be 42 b7 3e be e4 ef 14 be 37 41 ad 3d
       -0.2724548 -0.18624595 -0.14544636 0.08459704
000130 67 b9 51 bd df 0e ae bc 8b 11 1d be 5c 61 33 be
       -0.051202204 -0.021247325 -0.15338723 -0.17517608
000140 30 3c 74 3d 7b f5 e1 bd db 06 12 be 13 ff de bc
       0.05962771 -0.1103315 -0.14260428 -0.027221238
000150 23 64 7e 3d 1e 77 ee 3d fa 8f 64 3e 37 f7 6f 3e
       0.062107217 0.116438136 0.22320548 0.23434149
000160 91 6a 2c 3e 5c 61 5d bd 8e bf 7b 3e 54 35 36 3e
       0.16837527 -0.054047927 0.24584791 0.1779378
000170 dd 8f cd 3d c4 b7 ce 3d 70 47 69 3e 05 10 6b bd
       0.10037205 0.10093644 0.22781157 -0.057388324
000180 25 5c 35 3d cb 9f bb 3c 71 2f 69 3d fb 3f 37 3d
       0.04427733 0.022903344 0.05693001 0.04473875
000190 29 f5 fd 3d 4e 94 88 3d bc e5 b7 bd bb ca 6a 3b
       0.12400276 0.06668912 -0.08979365 0.0035826403
0001a0 cf 94 2a bc 54 e2 64 bd 08 d3 fb bd 98 ae 21 be
       -0.010411455 -0.055879906 -0.122961104 -0.15789258
0001b0 7f 4f 5f bd f9 99 75 bd a5 01 e6 bd c3 37 30 bd
       -0.054519173 -0.059961293 -0.112307824 -0.04302193
0001c0 a0 c8 e3 bd 05 7a 26 be eb 8f 12 3c 39 26 61 b9
       -0.111222506 -0.16257484 0.0089454455 -0.00021471911
0001d0 38 5b ac bd 08 b3 e0 bd 41 43 f6 bd 4d bc 59 be
       -0.08415836 -0.109716475 -0.120245464 -0.21263237
0001e0 9f 3f 0d be df fe 9a bd 62 e7 5e bd f6 7c 10 3e
       -0.13793801 -0.07568144 -0.054419883 0.14110169
0001f0 26 2c 0c be 8f f1 b4 bd f5 57 c3 3d 60 4b ed 3d
       -0.13688716 -0.08835136 0.09538261 0.11586642
000200 54 be 07 be d2 6a 94 3c b8 a9 e0 3d 5b c4 32 3e
       -0.13256198 0.018117342 0.10969871 0.17457716
000210 0a ff 85 bd 3c 31 21 3e 53 66 bc 3c 7c 42 c5 bd
       -0.065427855 0.15741438 0.02299801 -0.096318215
000220 95 6f 47 bd c4 e4 82 bb 5a 61 9c be 5d 0f 4d bd
       -0.048690397 -0.003994556 -0.30543023 -0.05006348
000230 d2 28 da 3d 82 11 c5 3d ff 72 e5 bc 5a 56 41 bc
       0.10652317 0.0962248 -0.028008936 -0.011800373
000240 0a f6 00 be 0d 4f 37 bd 02 31 8d 3d 55 59 43 bd
       -0.12593856 -0.044753123 0.06894113 -0.047692616
000250 ac 9d 7e 3d 7e 7f 79 bd 1c e3 e7 bd d8 14 d8 bd
       0.062162086 -0.0609126 -0.113226146 -0.10550851
000260 73 46 07 be a2 c7 88 3d c9 f7 3f 3d a8 b0 d8 bc
       -0.13210468 0.06678702 0.046867166 -0.026451424
000270 79 af 54 be a6 d3 a4 bd 5d c2 80 bc 87 f6 85 bd
       -0.20770063 -0.08048181 -0.01571768 -0.06541162
000280 a8 2e 70 3e 01 c3 54 3e c8 25 03 3d 71 bf 2d 3e
       0.23455298 0.20777513 0.032018453 0.1696756
000290 e5 47 b0 3d 68 2d d9 3d 27 7b 1f 3e ab 6b c1 3c
       0.08607463 0.10604364 0.15574323 0.02361091
0002a0 2d f6 50 3e 6f dc f1 3d 6a 6d 1b 3e a9 8a 8b 3e
       0.20406409 0.118096225 0.15178457 0.27254227
0002b0 f5 c5 43 3e 73 b3 3d 3e d0 a1 66 3d 57 ac e5 3d
       0.19118483 0.18525486 0.05630666 0.11214512
0002c0 b6 b3 a5 39 a8 88 b1 bd fc 65 2f be 49 0b 64 3e
       0.00031605148 -0.08668643 -0.17128748 0.2226993
0002d0 3f 36 1e bd 22 9b fd bd 1b 36 0c bd 49 ba 39 3e
       -0.03862595 -0.12383105 -0.034231286 0.18137468
0002e0 1e c7 83 3d 6c 08 19 be 90 c9 84 bd ac 82 15 3b
       0.06434463 -0.14944619 -0.064837575 0.0022813482
0002f0 4f 3b 4e be 1d 06 51 bc 1e 53 59 bd 1e 0a 8c bd
       -0.20139812 -0.012757805 -0.053057782 -0.06837867
000300 3b 67 ea 3d a2 d2 10 be ef d3 1c be a0 86 9d bd
       0.11445471 -0.1414285 -0.15315221 -0.07691693
000310 c5 19 1a be a9 61 04 be 0c bb 4c be 3b 43 60 be
       -0.15048893 -0.1292788 -0.19993228 -0.21900646
000320 94 a4 55 3e e3 44 fa bd d9 9a b9 3d 59 76 19 be
       0.20863563 -0.1222017 0.09062738 -0.14986552
000330 4c c8 ea bd 82 49 06 3d d6 a3 57 3c c2 96 f9 3d
       -0.11463985 0.032784946 0.01316162 0.12186958
000340 66 f1 0d 3d 7b e5 91 3d 4d 76 fe bd 90 42 a5 3d
       0.034654044 0.07123848 -0.12424908 0.080693364
000350 35 90 29 3e f0 ad 4d bd a9 a6 43 bc 10 9b c6 3b
       0.16558917 -0.050214708 -0.01194159 0.0060609654
000360 42 f1 c0 bd 62 b6 28 be 0e d5 48 be e6 0e 47 be
       -0.09421016 -0.16475824 -0.19612524 -0.19439277
000370 0e 9c af bb 7b c3 57 3d 91 12 04 3e cd 56 9f bc
       -0.0053591793 0.05267666 0.12897708 -0.01945057
000380 d6 5a 33 3e 3a f5 b6 3b 98 5c 89 bd 69 ce ba bd
       0.1751512 0.0055834325 -0.06707114 -0.09121401
000390 a7 73 8b bd 7b 3b 4b 3e d7 b8 a0 bd 91 21 b4 bb
       -0.06809168 0.19846909 -0.078477554 -0.0054971655
0003a0 4e 98 09 be f2 fe 49 3d d6 13 b7 ba da 4b 18 be
       -0.13437006 0.0493154 -0.0013967704 -0.14872685
0003b0 d6 be 23 3d fa 86 88 bd 03 95 ea 3c ce 78 b1 3d
       0.039976917 -0.0666637 0.028635507 0.0866562
0003c0 10 05 81 3c f2 f1 f3 3d 15 54 92 3d cb 65 ef 3c
       0.015749484 0.11911382 0.071449436 0.029223343
0003d0 ed 43 f0 3d fa dc 1b 3e 94 c8 b6 bd 6c a6 7f 3d
       0.11731706 0.15221015 -0.08924976 0.06241457
0003e0 01 40 9e 3d 0f 19 d8 bd da e4 8a 3c 1b c0 8f bd
       0.077270515 -0.105516545 0.016954828 -0.07019063
0003f0 73 bc 13 3e 79 77 b9 bd 61 73 58 3d 6b e5 1d be
       0.14427356 -0.09055991 0.05284441 -0.15419547

convolutional_layers.6.bias f4 [16]
000000 67 71 74 bd 81 03 2e bc ce 93 68 bc 12 2d 31 3c
       -0.05967846 -0.010620953 -0.014195396 0.010813968
000010 74 5b 4d bd 4f 9a 18 bd 97 2d 91 bd 2b 67 d6 bd
       -0.050136045 -0.037256535 -0.07088774 -0.104688965
000020 1f 9a 54 ba 86 12 54 bd 4d df d6 bd bd 9b c4 bc
       -0.0008110124 -0.051775478 -0.1049181 -0.024000043
000030 f9 f4 5d bc 66 91 df 3c 2b 76 7e bc 22 1f 76 bd
       -0.013547176 0.027291011 -0.015531103 -0.060088284

convolutional_layers.7.weight f4 [16]
000000 ab 56 7d 3f 37 54 5b 3f 74 99 75 3f fd b5 7a 3f
       0.9896037 0.85675377 0.95937276 0.9793394
000010 9c 54 72 3f 6d 29 78 3f de 1e 69 3f 33 fa 80 3f
       0.94660354 0.9693821 0.91062725 1.0076355
000020 32 8e 84 3f 44 52 6e 3f 3d 9d 83 3f 74 93 56 3f
       1.0355895 0.9309428 1.028236 0.83818746
000030 4f 3d 84 3f 97 67 73 3f 44 44 75 3f 0f 1e 87 3f
       1.033121 0.9507994 0.9580729 1.0556048

convolutional_layers.7.bias f4 [16]
000000 c5 b6 b3 bd d8 8a f8 bd 8e 2a d0 bd b3 76 dd bd
       -0.08775095 -0.12135857 -0.10164367 -0.10813656
000010 fd 2c dc bd 5a 11 de bd fd cb b2 bd 26 ca ea 3b
       -0.10750768 -0.10843153 -0.08730314 0.0071652113
000020 33 2f 82 bd e4 2c d0 bd bf fd 83 bd 81 fd 6a be
       -0.06356659 -0.10164812 -0.064448826 -0.22948267
000030 e4 bc 93 bd d6 4d ca bd 12 c7 12 be 6f a2 d2 bd
       -0.072137624 -0.09878127 -0.14333752 -0.10284888

convolutional_layers.7.running_mean f4 [16]
000000 fd ee a0 bf 5a 3d 08 3f 18 54 55 bf 01 85 19 bf
       -1.2572933 0.53218615 -0.8333144 -0.5996857
000010 91 b9 00 be 5f 52 59 bf da 96 3a bf a3 a7 17 bf
       -0.12570788 -0.84891313 -0.7288643 -0.5924017
000020 17 69 ac be 29 18 0b bf 5b 7d 10 bf 0c 9e a4 3f
       -0.33673927 -0.5433374 -0.5644128 1.2860732
000030 02 99 23 bf db b6 0f be b2 90 b2 be 46 6a 6c bf
       -0.63905346 -0.14034598 -0.3487602 -0.9234966

convolutional_layers.7.running_var f4 [16]
000000 59 e0 2f 3f 44 86 4a 3f f4 c3 f0 3e f9 f4 24 3f
       0.687017 0.79111123 0.470245 0.644363
000010 93 cb 29 3f 5e fc f4 3e 43 79 08 3f a0 fb 0c 3f
       0.66326255 0.4784879 0.5331003 0.5507145
000020 41 63 1d 3f 87 d0 c5 3e 96 99 02 3f a3 13 09 3f
       0.61479574 0.38635656 0.51015604 0.5354559
000030 2f c5 16 3f c8 88 c6 3e d4 86 e5 3e bb e7 cb 3e
       0.5889463 0.3877623 0.44829428 0.39825234

output_layer.weight f4 [11, 3008]
000000 39 27 92 bc e7 b9 da bc d5 65 a7 bc 9a 69 4a bd
       -0.017840968 -0.026699973 -0.0204343 -0.049417116
000010 09 60 75 b9 6a 67 59 bd fc 5e 4e bc bc e8 cd 3b
       -0.00023400797 -0.05307714 -0.012595888 0.0062838476
000020 26 e4 ec bc e3 f9 6b bd 5e 84 7a bd 7e 87 95 3a
       -0.028917383 -0.057611357 -0.06116139 0.0011408178
000030 eb ac f7 bb c0 73 83 bd 80 ba 06 3c 66 fa ff bb
       -0.007558455 -0.06418562 0.008223176 -0.0078118322
000040 bc 2e 4a bd 95 72 98 3c e5 80 21 3c fc 45 64 bd
       -0.049360976 0.018609324 0.009857391 -0.055730805
000050 f3 be 6f 3c af ec cf 3b d2 52 4f 3b c7 fe 11 bd
       0.014632928 0.0063453536 0.0031635058 -0.035643365
000060 4b 1c cd bc 78 a4 22 3c e6 b6 36 bd 6b b4 cb 3c
       -0.025037905 0.009926908 -0.04460802 0.024866303
000070 3d f9 af bc 24 55 ac bb 51 1f 57 bd 15 4f 6f bd
       -0.02148115 -0.005259173 -0.0525201 -0.058425028
000080 a2 28 bf 3b d7 8a 91 bc 44 2d 34 3c 8c 99 22 3b
       0.005833701 -0.0177664 0.01099712 0.002481076
000090 4c 75 f6 bc a9 09 36 bd 93 82 9c 3b fd 94 81 bd
       -0.030085228 -0.044442806 0.004776308 -0.063272454
0000a0 17 0d 6e bd 02 98 3f bc 8d 34 d7 3c e0 db ba bc
       -0.058117952 -0.011693956 0.026270175 -0.022809923
0000b0 09 da 6f b9 36 97 47 bd 0d 33 91 3c d5 3c 44 bc
       -0.0002287404 -0.04872819 0.017724538 -0.011977394
0000c0 a8 8e 5e bd 90 a7 46 bd 5a 6a 9d 3c 50 51 d8 bc
       -0.054335266 -0.048499644 0.019215751 -0.02640596
0000d0 f9 7b 99 bc ee 79 9c 3c 7a 75 86 bd be ea c6 bc
       -0.018735873 0.01910111 -0.065653756 -0.024281856
0000e0 ff 69 a4 bc 3e 77 76 bd 6a d7 39 3c 93 0f 7a bd
       -0.020070074 -0.060172312 0.011342863 -0.06105001
0000f0 f4 89 24 bd eb 37 84 bd bd de e0 bc a5 6b 10 bd
       -0.040170625 -0.06455978 -0.02744996 -0.035258908
000100 cb 2c 58 bd 6d 0f 7d 3c 2e 04 57 bd 07 90 21 bd
       -0.052777093 0.015445572 -0.05249422 -0.039443996
000110 1e 3d 3b bc e5 e8 45 bc 94 80 14 bd 26 b8 df bb
       -0.011428146 -0.012079452 -0.036255434 -0.006827372
000120 c6 a1 09 bd 16 5e 58 bd e5 1f 6a bc ad 65 72 bc
       -0.033601545 -0.052824102 -0.014289831 -0.014794749
000130 b2 42 86 bd a5 13 30 bd 25 b3 91 bd a0 4e 71 bd
       -0.0655569 -0.042987484 -0.07114247 -0.058912873
000140 85 7b 09 bd dd eb 3a bd 2f 6b 57 bd 99 82 a1 bc
       -0.033565063 -0.045635093 -0.052592453 -0.019715594
000150 00 58 ac bc 82 52 9b 3c 00 e3 3b 3c 17 e4 75 bc
       -0.021038055 0.018960241 0.011467695 -0.015007994
000160 ac 49 3e bd 0e 44 8c bc 50 d9 53 bc 95 4f 7b 3c
       -0.046456978 -0.017122295 -0.012930229 0.015338798
000170 ac f2 9d 3c 92 da 1a bc e4 ca 45 bd b6 0e 2d bc
       0.019280754 -0.009451525 -0.048289195 -0.010562589
000180 5c 2f 30 bd 2d 3b 32 bd 68 b4 83 bd a3 56 26 bd
       -0.043013915 -0.043513466 -0.06430894 -0.040609967
000190 9a b5 3e bd b7 c8 5c ba c9 50 4a bd 78 e6 44 bd
       -0.046559907 -0.0008422243 -0.04939345 -0.048071355
0001a0 74 89 60 bc 82 b9 78 bd c3 22 72 bd 7c c9 b5 bc
       -0.013704646 -0.06072379 -0.059115183 -0.022190802
0001b0 fa 90 8a bd 95 84 56 bd 58 4e 98 bc 1d 34 0c bd
       -0.06765933 -0.052372534 -0.018592045 -0.034229387
0001c0 9e be 87 bc e9 af c6 bc 74 35 69 bd b2 5b 8a bd
       -0.016570386 -0.024253802 -0.056935742 -0.06755771
0001d0 8b a5 01 bd a2 12 4b bd a8 45 84 3c 17 1b 52 bd
       -0.031652015 -0.049578317 0.016146496 -0.051295366
0001e0 f8 14 80 bd d8 39 0d bd 8c de bf 3b 0b 40 02 bc
       -0.062539995 -0.034478992 0.005855387 -0.007949839
0001f0 72 13 41 bb 1c ce 6a bc d8 9d 88 3a f1 e7 00 3c
       -0.0029461053 -0.014331367 0.0010423018 0.007867799
000200 83 2b e0 ba a1 10 83 3c b8 9e ed bc 10 72 5c 3c
       -0.0017102811 0.01599914 -0.029006347 0.013454929
000210 a3 94 db bc b3 87 91 bc fb 1b b3 bc d7 27 81 3c
       -0.026804274 -0.017764902 -0.021863928 0.015766067
000220 37 a6 40 bd f4 40 88 bd bd 07 7f 3b 6e 8b 87 bd
       -0.047033515 -0.06653014 0.0038914524 -0.06618391
000230 84 79 23 bd cd 8a 00 bd 5b 9b a1 3a 79 6a a9 3b
       -0.03991081 -0.03138237 0.0012329625 0.0051701632
000240 4a 6f 09 bb 14 a2 5d bd 18 ef 0a 3c 77 dc af bc
       -0.0020970874 -0.054109648 0.008479856 -0.02146743
000250 5c 1e 8e bd f2 80 28 bd 94 b2 eb bc d4 0a 73 b9
       -0.06939384 -0.041138597 -0.028771676 -0.0002317832
000260 e7 2e 6d bc 95 16 78 bd 4f 35 89 bc 4e 94 68 ba
       -0.014476514 -0.06056841 -0.016749052 -0.0008872197
000270 9e dd 63 3c ab ac 8a bd fc 99 92 bd cf 2f 29 bc
       0.013907818 -0.06771215 -0.071582764 -0.01032634
000280 54 73 86 bc 92 42 6c bd 02 30 82 bd 1e d8 0f bc
       -0.016412415 -0.057680674 -0.06356813 -0.008779554
000290 aa 7d 94 bc f5 3e 94 bd 89 fb 09 bd 53 18 b3 bc
       -0.018126328 -0.072385706 -0.03368715 -0.021862185
0002a0 8a d4 7f bd 7a c4 3d bc ba cb f2 bc 45 a0 05 bd
       -0.062458552 -0.011582488 -0.02963816 -0.032623548
0002b0 16 91 d4 bb fe 74 69 bc 55 89 5b bd fd 00 f2 bb
       -0.006487022 -0.0142490845 -0.053597767 -0.0073853717
0002c0 a9 8e 29 bc ce 2d 52 bc c2 16 8d bd fa 3d 6b bd
       -0.010348954 -0.0128283035 -0.06889106 -0.057432152
0002d0 a5 19 a0 bd e6 d4 87 bc f0 a3 b2 3c aa 58 b1 3b
       -0.07817391 -0.01658101 0.021806687 0.005412181
0002e0 25 7d 50 bd f5 2d d8 bc 68 4f 64 bc c0 48 0d 3c
       -0.050900597 -0.026389102 -0.013934948 0.008623302
0002f0 54 40 b7 bc ab 8a ee 3c 03 e8 1b 3d f7 25 90 3b
       -0.022369541 0.029118856 0.03806306 0.004399057
000300 df 50 16 3d d4 41 d4 bb dc 04 45 3d 20 d7 f5 3a
       0.03669822 -0.006477574 0.048100337 0.0018756129
000310 1a 2c 5f 3d 37 e4 7c 3d 61 be 7c 3d a2 79 36 3c
       0.054485418 0.06174108 0.061704997 0.011137398
000320 1f 24 f2 bc c9 78 2f 3d ad 5c 7d bc e4 06 87 3c
       -0.02955824 0.0428398 -0.01546399 0.016482778
000330 0a 67 bc bc 9c 47 3b 3d 43 bf 42 3d 89 bf 7d bc
       -0.022998352 0.04572259 0.047545683 -0.01548756
000340 83 c9 ec 3c 37 e1 d1 3b 9e 88 50 39 dc 81 74 3b
       0.028904682 0.0064050215 0.0001988732 0.0037308848
000350 9e 23 ce 3c a6 ae 05 bc 9d b3 81 3d 5b b2 5b 3d
       0.025163468 -0.008159315 0.06333087 0.05363689
000360 e9 87 d8 3c ef a6 42 3d c8 2f 43 3d ce a0 25 3d
       0.026431995 0.04752248 0.04765299 0.04043656
000370 2d b8 2a 3d c9 10 85 3b a5 b9 32 3d 5c ee 0b 3d
       0.04167955 0.004060839 0.043634076 0.034162864
000380 ad 28 db bc 3e aa 49 3d 4d d4 2e 3d a3 95 19 3c
       -0.026752794 0.04923462 0.042682935 0.009374055
000390 be 60 a3 bc 92 94 30 bc 20 6c 49 3d 34 7c c1 bc
       -0.019943591 -0.010777609 0.04917538 -0.023618795
0003a0 33 72 8e 3c b2 71 16 3d 8f 7a 4f bc f4 05 1b 3d
       0.017388439 0.036729522 -0.012663498 0.037847474
0003b0 52 46 c4 bc aa 5e 59 3b 79 fc 54 3d 34 f3 c6 bb
       -0.023959313 0.0033167996 0.05199859 -0.0060714725
0003c0 73 81 52 3d 67 95 35 bc bd a6 58 3c 6b 92 1b 3d
       0.051392984 -0.011082984 0.013223347 0.037981432
0003d0 00 c7 f9 3b 83 41 25 3d f5 70 8b 3b 5f 8f e5 3c
       0.0076225996 0.04034568 0.004255409 0.028022466
0003e0 d8 bb 3f 3c 5f 93 65 3c 3d b2 23 3d f0 9c 20 3c
       0.0117025 0.014012187 0.039964903 0.009803042
0003f0 de 1f 3e 3d 6c 10 89 bc 72 e3 28 bc ee 70 34 3d
       0.04641711 -0.016731463 -0.010308133 0.04405301

output_layer.bias f4 [11]
000000 fc b4 0a bc 4d e8 61 3b cd b0 c6 bb 40 e0 05 3a
       -0.008466002 0.0034470737 -0.0060635568 0.0005106963
000010 f1 db b9 bb ce 10 ef 3b 77 89 93 ba d6 41 2a bc
       -0.005671971 0.0072957044 -0.0011256178 -0.010391673
000020 18 b8 b0 3a 5e d0 d4 3b 03 51 86 3c
       0.0013482599 0.006494566 0.016396051
