libemg_3dc/transfer_learning/checkpoints/finetune_without_fc_reset.pt (torch, 206967 bytes, 20 tensors)

convolutional_layers.0.weight f4 [64, 10, 5]
00000000: 17e4 03be 2220 b0bd f48b 823c 2de2 363e
00000010: 9697 89bd 339f 583d a4d7 94bd 18c8 34bc
00000020: 58dd d33c 6911 b23c e234 033e 31a9 063e
00000030: e75b 67be e631 49be b999 d7bc f1bc dbbd
00000040: 25a9 96bd 08cd 0a3e 2f30 80bc 34ad cbbc
00000050: c45e 2cbd 46ef 1ebd 06ff 063e 3ae2 663e
00000060: 32cf 55be 390d e03d e69a 67bd f190 2b3d
00000070: df7d 3f3c d83a 00be 9498 8dbc fd4d 75bd
00000080: 62f3 05be 1d18 9bbd fe49 0c3e 60be 033e
00000090: 0739 bd3c 868a 27bd a5c4 48be 0ae4 7bbd
000000a0: 3e0b 92bd d28d 95bd 44ff 1fbd cdec ec3d
000000b0: 978c 08bc 4988 04be 8b19 29bd 0aeb bd3d
000000c0: d7f9 493e 0843 bf3d 0da0 d4bc 0d3a bdbc
000000d0: 8c5f be3d 7ccb 283d ee62 7bbc 682b 23be
000000e0: ce96 c9bd fd88 b83d 5795 41bd aa43 b2bc
000000f0: 9ae5 18bd a446 e03d 05b6 63bd 8fab cfbd
00000100: 151d 833d 824e 4c3c f0e6 9e3d a707 c2bd
00000110: 1da8 5fbe 184d 3c3e 6d7f 953d 2ce6 133e
00000120: b549 5abe a8ae 30be e44a 783e f33a 53bd
00000130: 6b87 f83c bf27 26be 1ca9 c23a b02e 023e
00000140: a961 f33d f00c 4cbd 48e2 69bd d02f f5bd
00000150: 086d e3bd 1779 023c 9340 ddbd f329 f33d
00000160: 6fa7 9a3d 7604 bbbd be95 403d dd47 943c
00000170: c2ae 893d c9dd a23d 0c99 d1bd 7dde a3bd
00000180: 937d a63d 4fe8 453e fd5e 1c3e b568 e2bd
00000190: 5e41 fc3d 31b5 4fbd 3bad 383a 2592 b5bd
000001a0: fcbe 8f3d da6e c93d e400 833d 1fbb d33d
000001b0: 71d7 683b d236 87bd 809a fa3c 085f aebd
000001c0: ab6e df3b b23d 12bd d666 bbbd 0945 2a3c
000001d0: f290 89bd 5a45 243d 5136 c93d 7d88 ed3d
000001e0: 4d1f 75bd 1824 bdbc 77d0 7f3d 1305 6dbc
000001f0: 2068 003e 6d29 2cbd 88d7 4e3d f3f8 643d
00000200: b976 a63d ee69 a63d 8546 843c a3d5 e5bc
00000210: 3d85 04bd 9f53 f2bd 2991 bebc 5281 b9bd
00000220: 9ce1 fb3c 1b27 893d ed15 c23d 242d 553d
00000230: b1ef 0e3c 0005 d9bd 790b 633d 3faf 183e
00000240: 3bfe cc3d ca78 00bc fba2 43bd cdef 02be
00000250: 511c a8be 4721 98be 9f04 3abd ebe3 22bd
00000260: 75e1 1f3c f1b7 193e af14 18bc 58b9 d43d
00000270: 13dc 29bd 27c3 11be 9c97 5cbe 7aa0 133d
00000280: 895b 92bd 98be a73d 1904 39be 222c bb3d
00000290: b5d1 f93d 5b14 fb3c c5d8 c6bc dfcb 9a3d
000002a0: abf0 253e 1824 303d 155d 533d 5b31 2ebd
000002b0: c30c 913c 1602 df3d a54a f3bd d036 69bd
000002c0: bb7d fbbd 224b 1bbd bd61 1e3e 334f 9d3d
000002d0: a7cb 003e 8af2 183d 62ba 833d 364a 12bd
000002e0: 802d 31bc fa43 f9bc 512e 84bd 8684 0b3e
000002f0: c0d7 393d 333c 95be 0027 00be 9059 33be
00000300: 1bd0 243e e2a0 843e 29f1 ecbd 84fa 063d
00000310: e23f 0c3d 06ff 47bd ffb0 c33d 6c44 38bd
00000320: 53f5 e5bd 2ba0 403d fb9f df3d 0ee3 76bc
00000330: 9af5 53be cf79 9f3d f498 443d 760d b63c
00000340: 1638 213d 224b 013d 6e31 6fbc d273 743d
00000350: 99f3 da3d e865 89bd 729e ebbc 5e5a 89bd
00000360: 7471 2a3d ebe5 fabd 403b 633d 1c17 8e3d
00000370: d757 f3bc 5f50 a6bd 4e4b c0bc 9b39 8abd
00000380: 2944 b13d 4874 35be 66ea 3bbe c0c1 2abe
00000390: 776c 7e3d a57d 8d3a b20d 563d fc14 133d
000003a0: 3db5 75bc 0b10 813d 9278 a0bd ca1d 8fbd
000003b0: 3664 ce3d 54fc 433b fe1d 06be d06c be3d
000003c0: 468f 983d 422c cabd b240 33be 0159 58bd
000003d0: 48c2 ca3d ecbc a63d 4ffc 6fbe 2394 60bd
000003e0: d73b 523e db49 fd3b 5148 4b3d 8f1a 35be
000003f0: d933 473c 2cb3 ddbd 3fb8 933c f9e2 aa3d
-0.12879978 -0.08599879 0.015935875 0.17859717 -0.06718366 0.0528862 -0.07267693 -0.011034034
0.02586238 0.021736817 0.12813142 0.13150479 -0.22593652 -0.19647941 -0.026318418 -0.10729397
-0.073564805 0.13554776 -0.015647976 -0.024862863 -0.042082563 -0.038802408 0.13183221 0.22547236
-0.2087982 0.10940022 -0.056544207 0.041886274 0.011687725 -0.12522447 -0.017284669 -0.05988883
-0.13081124 -0.075729586 0.13700101 0.12865591 0.023098482 -0.04090359 -0.19606264 -0.061496772
-0.071310505 -0.07302441 -0.0390618 0.11568604 -0.0083343005 -0.12942614 -0.041284125 0.09273346
0.19724213 0.09338957 -0.025955224 -0.02309897 0.09295568 0.041209683 -0.015343411 -0.15934527
-0.09843217 0.090105034 -0.047261562 -0.02176078 -0.03732834 0.10950974 -0.05559351 -0.10140144
0.06402031 0.01246989 0.077588916 -0.09474116 -0.21841474 0.18388784 0.07299695 0.14443272
-0.2131718 -0.17254126 0.24247319 -0.05156989 0.03033801 -0.162261 0.0014851424 0.12713122
0.118838616 -0.049817026 -0.057100564 -0.1197201 -0.111047804 0.00796344 -0.10803332 0.118732356
0.07551467 -0.0913171 0.047017805 0.018100673 0.067227855 0.079524584 -0.102342695 -0.08001421
0.0812942 0.193269 0.1527061 -0.110551275 0.12317155 -0.050709907 0.00070448563 -0.088657655
0.07018849 0.098355964 0.06396654 0.10338425 0.0035528804 -0.06602253 0.03059125 -0.085142195
0.0068186126 -0.03570337 -0.09150474 0.010392436 -0.06717099 0.0401052 0.09824813 0.11598299
-0.059844304 -0.0230885 0.062454667 -0.014466542 0.1253972 -0.042031694 0.050498515 0.05590148
0.08128113 0.08125673 0.016146908 -0.028055971 -0.03235363 -0.11832356 -0.023262577 -0.09057869
0.030747227 0.06696912 0.09476838 0.052045003 0.008724139 -0.10596657 0.055430863 0.14910601
0.10009428 -0.007841298 -0.047762852 -0.12786789 -0.32834104 -0.2971289 -0.045414563 -0.03976814
0.009758343 0.15011574 -0.009282275 0.10386914 -0.041469645 -0.14234601 -0.2154221 0.036041714
-0.07146365 0.0819065 -0.1806797 0.09139277 0.121982016 0.030649355 -0.024273286 0.075584166
0.16205089 0.04300317 0.05160244 -0.042527538 0.01770628 0.1088907 -0.11879472 -0.05693704
-0.122798406 -0.03791345 0.15466972 0.07681122 0.12577687 0.03734068 0.06432034 -0.035715304
-0.010814071 -0.030427922 -0.06454147 0.13624772 0.04537177 -0.2914749 -0.12514877 -0.17514634
0.16095011 0.25903994 -0.11569435 0.032953754 0.03424061 -0.048827194 0.09555244 -0.044987127
-0.112284325 0.047027748 0.10919186 -0.0150687825 -0.20699158 0.07786905 0.04799743 0.022223216
0.03936013 0.031565793 -0.014599187 0.059680767 0.10690994 -0.0670889 -0.028762076 -0.06706689
0.041612104 -0.122508846 0.055476427 0.069380015 -0.029704971 -0.08120798 -0.023473408 -0.067492686
0.08655579 -0.17720139 -0.18351135 -0.16675472 0.06211516 0.0010794891 0.052259155 0.035908684
-0.014996824 0.06301888 -0.07835497 -0.06988104 0.100777075 0.0029905038 -0.13097379 0.09298098
0.07449202 -0.09871723 -0.17505148 -0.052819256 0.099003375 0.08141503 -0.23436092 -0.054828774
0.2053064 0.0077297515 0.049629513 -0.17685913 0.012158358 -0.1082519 0.018032191 0.08344073

convolutional_layers.0.bias f4 [64]
00000000: e2bd 933d 6ebd 20bd 1ace 4a3d 1f48 85bd
00000010: 3996 6c3d 60b4 f3bc 5bc2 30bb 59d2 b03c
00000020: fb01 c1bd 3d4c b93c 3bd3 bebb 3449 babd
00000030: cc85 d23c 18f5 44bd 65c4 babc 9a90 29bd
00000040: a5e8 07bc 9940 d83c 6213 20bc b21a f03d
00000050: 65b6 65bc 88d0 483d f7df 41bd 0d96 54bc
00000060: 018e a0bd 886a 0e3a 3671 09be 9ce4 3c3d
00000070: bcde 353d 4869 523b f533 513c e9d3 ae3c
00000080: 8a70 c53c 9792 763c 96c8 81bc e510 11bd
00000090: 02c6 313d 04de 313d 4f63 543d ab47 86ba
000000a0: b974 773c 389e 543c eec2 fabc d0e6 72bd
000000b0: 60bf 073c 1229 693c 89cd 6f3d fed0 343c
000000c0: c1ae 2abd cbd5 da3c e714 91bc ff35 e63c
000000d0: 045d 0b3d 0d95 dfbc f4c9 293d b519 3f3a
000000e0: fc0f d93c 6fec 18bd 428c 34bd 11b6 e73c
000000f0: 03bd 6a3d e880 f9bb b66f f0bb b0bf e3bc
0.07213952 -0.039243154 0.04951296 -0.06507897 0.05776045 -0.029749095 -0.0026971314 0.021584677
-0.09424206 0.022619361 -0.0058235205 -0.09095994 0.025698565 -0.048085302 -0.022798726 -0.04139767
-0.008295213 0.02639799 -0.009770246 0.11723842 -0.014020537 0.049026996 -0.04733273 -0.012975228
-0.07839585 0.00054327445 -0.13422093 0.046116456 0.04440187 0.003210621 0.012768735 0.021341281
0.024101514 0.015049598 -0.015842717 -0.035416503 0.043401726 0.04342462 0.05185252 -0.0010244747
0.015103512 0.012977175 -0.030610528 -0.05930215 0.008285373 0.014230983 0.058545623 0.011036156
-0.041670565 0.026713273 -0.017710162 0.02810192 0.034024253 -0.027292753 0.041452363 0.00072899024
0.02649688 -0.037334856 -0.044079073 0.028285058 0.057309162 -0.007614244 -0.0073375357 -0.027801365

convolutional_layers.1.weight f4 [64]
00000000: 8c0e 863f eefc 7f3f 2008 763f 84e0 7a3f
00000010: 2122 713f 5291 6e3f ab6a 873f fb61 853f
00000020: 1966 763f 91d9 6c3f f11a 7b3f 687d 783f
00000030: 68d0 783f f180 843f 5078 843f 9437 7f3f
00000040: 9f07 743f 7900 823f bb63 7f3f 9c50 843f
00000050: e25b 833f f80d 883f 1d13 783f 89d2 8c3f
00000060: 4ac6 8d3f 3441 733f 17dd 933f b740 713f
00000070: ef00 823f 005e 763f 21b5 7c3f 6b58 7a3f
00000080: c65d 773f 5748 703f 74e5 823f 6c7d 863f
00000090: 57a4 703f 2db0 833f 1595 823f baa0 763f
000000a0: dff3 7a3f 0466 7e3f 8105 803f d2ec 723f
000000b0: bf7c 833f 0fe8 6c3f b737 703f 22f7 843f
000000c0: 90c1 803f faae 6c3f 99a8 833f e526 7d3f
000000d0: 8cb6 713f 8a1b 613f ac97 723f beb4 7e3f
000000e0: c47b 7c3f c92e 803f c4b7 833f aa0b 8e3f
000000f0: 424c 7a3f 98e4 833f 8ba5 5c3f 362f 823f
1.0473189 0.99995315 0.9610615 0.97998834 0.941927 0.9319049 1.0579427 1.0420526
0.9624954 0.9251948 0.98087984 0.97066355 0.97193 1.035185 1.0349216 0.9969418
0.9532413 1.0156394 0.9976155 1.03371 1.0262415 1.0629263 0.96904165 1.100175
1.1076138 0.9502137 1.1551846 0.9423937 1.0156535 0.9623718 0.9871388 0.97791165
0.9662746 0.9386038 1.0226274 1.0507026 0.9400076 1.028814 1.0201746 0.96339
0.9802837 0.99374413 1.000168 0.9489261 1.0272444 0.92541593 0.93835014 1.0387919
1.005907 0.92454493 1.0285827 0.98887473 0.9441917 0.87932646 0.9476268 0.9949454
0.9862635 1.0014278 1.0290456 1.109731 0.9777261 1.0304136 0.861901 1.0170658

convolutional_layers.1.bias f4 [64]
00000000: 12ca d5bb d39e a03d 77fb 8bbc 66cd efbc
00000010: 9a5b 073d 5c87 b43d 92e8 a73b 1838 97bd
00000020: 442f 253d cf00 debc 3c84 8bbc e4a0 de3b
00000030: 2912 aa3d dee9 883c 4406 00bd 228c 9f3d
00000040: f644 363c 6b27 e53a 19b5 0d3d 4613 aebd
00000050: c019 043d 2aa0 2bbc e990 393e 3408 10bd
00000060: cd59 e03c a3b2 babc 0d2c edbc 7a96 83bc
00000070: cb5e 2f3d 1c0c f13c 954d d73b 91d6 1fbd
00000080: 78cd c13c 2006 28bd 8f04 393d e82e 4abd
00000090: 26d7 853c 3157 b23d 1d2f b13d 46fe 1dbd
000000a0: c721 b0bc f947 8bbd dc4c 92ba 1d9b 0dbd
000000b0: 0048 c73c 12ea b8bc 9e20 2bbc deb4 953b
000000c0: 6487 4fbd aea6 2a3e a2aa 8f3c 34e1 15bd
000000d0: 7db8 84bd fe61 553d e205 17bb f6d4 37bc
000000e0: 61ae 1c3d af32 0fbd 0916 4bbd 0242 9139
000000f0: 9566 0ebc 64c8 cd3b 9c17 343a 1203 01bc
-0.006524333 0.07842793 -0.017087681 -0.029272746 0.033046342 0.0881488 0.00512416 -0.07383746
0.04032828 -0.027099995 -0.017030828 0.006794082 0.08304245 0.016713079 -0.031255975 0.077904
0.01112484 0.0017483061 0.034596536 -0.0849977 0.03225112 -0.010475198 0.18121685 -0.035164073
0.02738657 -0.022790259 -0.02895167 -0.016062964 0.04281501 0.02942472 0.006570528 -0.039022986
0.023657545 -0.041021466 0.045170363 -0.04936114 0.016337942 0.08708037 0.08651564 -0.038572572
-0.021500481 -0.06800837 -0.0011161822 -0.034571756 0.024326324 -0.02257255 -0.010444788 0.00456868
-0.050666228 0.16665146 0.017537419 -0.036591724 -0.06480501 0.052095406 -0.0023044278 -0.011220207
0.03825224 -0.034960445 -0.04958156 0.00027705735 -0.00869145 0.006279992 0.0006869973 -0.007874267

convolutional_layers.1.running_mean f4 [64]
00000000: 35eb 963d 945f 0fbd 7c6a 363d 7071 84bd
00000010: 8f77 5f3d 3837 e6bc df21 91bb e401 7a3c
00000020: f98f c8bd d653 443c 7a5c d3ba 90a9 c3bd
00000030: a3ad 9b3c bbaf 5bbd 3daa c2bc 0691 2abd
00000040: e1d2 18bc 232d e33c a80c caba 4755 ef3d
00000050: f429 4fbc 1709 4e3d 4886 4ebd 3b03 7bbc
00000060: 759f a2bd 74f4 efb8 0068 09be 9974 393d
00000070: 8c26 3c3d a0ee e739 ec68 2d3c 8750 b93c
00000080: 8e9c bb3c ecc8 773c e3c4 55bc d164 13bd
00000090: 30fb 2f3d 0f11 2e3d 1795 433d 491b ef3a
000000a0: da4a 853c bd06 513c 2df4 f0bc 6e18 7cbd
000000b0: 48ec d43b af7c 553c f9ce 5b3d e4a0 013c
000000c0: 6f01 2cbd 2bd6 c73c 4e56 91bc e8bb e43c
000000d0: 363d 033d 69ed d0bc ffa6 213d 2056 0c39
000000e0: b9bb d83c 3643 16bd 090c 39bd a6d3 dd3c
000000f0: f250 6a3d a03a 38bc f356 cdbb 8c42 d4bc
0.07369081 -0.03500326 0.044535145 -0.06466949 0.05455738 -0.028102502 -0.0044290866 0.01525924
-0.097930856 0.011982879 -0.0016125583 -0.09553826 0.019003695 -0.053634387 -0.023762817 -0.04164221
-0.009327621 0.027731484 -0.0015415149 0.11686187 -0.01264428 0.050301638 -0.05042103 -0.015320594
-0.0794057 -0.00011441941 -0.13418579 0.04527721 0.0459352 0.00044237543 0.010584097 0.022621406
0.0229018 0.015123587 -0.01304743 -0.035984818 0.04296416 0.042496737 0.047749605 0.0018242385
0.016271044 0.012757954 -0.029413307 -0.061546735 0.0064978935 0.013030215 0.05366418 0.0079118945
-0.041993555 0.024394115 -0.017741349 0.027921632 0.032040797 -0.025503831 0.0394659 0.00013383524
0.0264567 -0.03668519 -0.045177493 0.02707846 0.0572061 -0.011244446 -0.0062664687 -0.025910638

convolutional_layers.1.running_var f4 [64]
00000000: 9bfc 433f ba27 fb40 e484 f040 1830 2b41
00000010: 6246 c740 eb5e 1a40 d62f 2b40 8249 8641
00000020: 72bc ed41 2a10 0543 586d df40 2633 f741
00000030: c6ba 4541 3e8a 2e41 5736 883f d3fa 4441
00000040: 2137 643f 5ef6 f73f 7f48 6041 355a db3e
00000050: c525 0140 bb83 473f a0ef 4640 ce31 763f
00000060: 98df 843f 8424 4c3f 48d0 f33e ba53 483f
00000070: 9d67 b740 4ff6 a341 535b 5b41 0e13 a43f
00000080: 2b0f e83f b010 2041 92a0 e940 e338 0441
00000090: 0734 1740 3ea3 2341 e0d8 e140 811f f33f
000000a0: fb6d 273f 4f24 8b3f 0d94 1d3f a0d3 0840
000000b0: 7287 ab3f 480f 8440 c50e e140 847f b640
000000c0: b779 9540 206d 6641 d82b 1540 0b94 ed3f
000000d0: 1387 b840 7ba0 1b40 567f 0540 4ac4 cb40
000000e0: b065 0e3f 3833 443f 51e5 4e41 0a9a ed3e
000000f0: 7b1e d43f b526 8540 be9d 513f 52df 0440
0.7655732 7.8485994 7.516222 10.699242 6.2273417 2.4120433 2.6747947 16.785892
29.717014 133.06314 6.9820976 30.899975 12.358099 10.908751 1.0641583 12.311236
0.8914662 1.937206 14.017699 0.4284226 2.0179303 0.7793538 3.1083755 0.96169746
1.0380735 0.7974322 0.47619843 0.78252757 5.731398 20.495268 13.709796 1.2818315
1.8129629 10.004074 7.300851 8.263888 2.3625505 10.227354 7.057724 1.8993989
0.6540219 1.0870456 0.6155403 2.1379166 1.340071 4.1268654 7.033053 5.703066
4.671108 14.401642 2.330801 1.8560804 5.7664886 2.43167 2.085897 6.367711
0.5562391 0.76640654 12.930985 0.46406585 1.6571802 4.160975 0.8188132 2.0761304

convolutional_layers.3.weight f4 [32, 64, 5]
00000000: 344e 32be 6cc5 30bd 3bab debd 982f c13c
00000010: e762 03be 2940 283e e150 d7bc 51d1 8abc
00000020: 5fa1 2b3d e5ba d6bc db95 eb3c 2996 94bd
00000030: 2083 d0bc 5d5a 063c 8347 a1bd f182 c6bc
00000040: 67dd 063e dd0b d13c 878a 4ab9 2bda 3a3c
00000050: c8c9 263c 3ae5 29bd d5a0 d3bb 181b 9e3d
00000060: 4abd 743b 93be 5fbd 7603 acbd 4971 2d3d
00000070: e321 833d 2119 bfbd 0f2d 47be 58b3 33be
00000080: c9ae ef3b 29b4 00bd 0fe1 96be 8e68 243c
00000090: c65c cebd 094a 38bd d921 3d3d e007 0cbd
000000a0: ceca 2a3e cb7d 953c 61f5 e63c 6713 0f3e
000000b0: 237c 5d3d 1528 4fbd cd60 813d d196 28bb
000000c0: ce07 efbb a6de 9fbc f426 28be 7273 80bd
000000d0: 496d 823d 9af8 f23a 63f8 423d 122d 503e
000000e0: 5f8a 6f3d 0991 1c3e 6b76 c8bb f671 85bd
000000f0: 2c7e 5bbd 258c 67be eb6b 273c d450 983c
00000100: ef79 5bbd f646 09be 8ede b3bd d78a e93c
00000110: a230 8cbe f953 3ebe c3cf 3abd b9ab 55bd
00000120: c0a1 22bd 6020 bd3d d2ab fcbc 0311 d43d
00000130: 754b babd cb09 cabc 422d 05be 8a91 8c3d
00000140: c062 793a 771c 14bc 80b7 10bd 80a7 6b3d
00000150: bfce ae3d fbaa 4ebc 1e5a dd3d 3543 983d
00000160: 7bb8 2c3d 27ab 41bd 4792 cd3c 509c 0bbd
00000170: c806 b5bd 45c2 553d cbd8 adbc 4b44 ecbb
00000180: 4648 533d 4658 453e ce1e f6bd f500 d33d
00000190: af7d 32bd 2f33 743c 0060 0f3d 436a 0b3e
000001a0: e603 653d dc3b bcbc 7f38 0fbc 553a c93d
000001b0: bc63 0bbd c719 363c 3b9f 36be 4b8b fb3c
000001c0: 9ea4 afbd ffeb e43b 43a7 003a 246f 0f3d
000001d0: bcfb 583e a3df c13d d4fc a03e 97a6 923e
000001e0: 6a78 013e 08f8 ae3d a630 b83d 7ac5 da3d
000001f0: de79 d1bc f16b 0cbe d646 293d 75a9 e3bc
00000200: 22d5 30bd 7baf e5bd 4e57 7fbd e26b 6bbd
00000210: 0f44 4cbe 0a7b 99bc 7870 96bc 98a2 d9bd
00000220: db28 fa3c 8da3 b6bd f35f 8ebd f08b 69bd
00000230: cac1 2c3e 2cdb c939 0fec 22bc 9487 b93d
00000240: 094b a03d 32e0 90bd 4e5a ad3c cbdc 82bd
00000250: 749e a8bd c174 95bd 8cca f2bd 2503 3fbe
00000260: 260c 03bc 55e8 fcbd 7d05 31be cbbe 6abd
00000270: 6013 df3d 29aa 1a3d 4c90 d3bb 02fd 283c
00000280: c1d1 473d 847c 37bd 3755 f63c 4d9b 8b3d
00000290: 0e3d f2bc d9e9 a6bd 1775 743d 8335 ffbc
000002a0: 8169 203a 29dd 093d 1096 993c 524d 743d
000002b0: f2ed ba3d 94cb 50bd b659 65bd 0409 67ba
000002c0: f504 1ebe daeb 89bd c3fc c4bb 85d7 40bd
000002d0: 0a75 de3c 56a5 b33d 5614 873d 9260 493c
000002e0: a21c 8e3d 29e7 ed3c 5bab 65bd 05d5 563d
000002f0: 3e22 e23d f709 10bd 3466 cabd a877 f83b
00000300: 9526 aabd 97df 183e 64f1 d0bc ff14 a73d
00000310: 3452 0a3e 04ed b6bc 194f 943d 7769 08bb
00000320: b3e3 6bbd c1e6 3ebd 5fd8 ebba 4431 f03c
00000330: 74f5 05bd b976 63bc 94ff 1dbe adce d1bd
00000340: 6ab6 8bbe 8bc5 52be c39b 913d 21b1 e03c
00000350: b2bc 1b3e 4bec 9d3d de5d ffbc bb2b ccbc
00000360: dde7 ef3d 2d13 f0bd a0d8 9dbd 01fb 8abd
00000370: 02a5 ca3d 00a4 e63d 8618 813d 608e 543d
00000380: 35d9 103e 1d20 a7bd f843 1ebe 6bde eebd
00000390: fe02 113d 266e 00be c51d 803d f505 6d3d
000003a0: bc30 32be 82fd 7b3d 43b2 84bd 0309 3f3c
000003b0: b8ca 873c 2c5c 983d a2ea 773d 6eb4 9ebd
000003c0: d3ed 223d bffc fcbd 66b0 3d3c 4e20 733d
000003d0: f059 dd3c a27f 083d f15c 093c 8a43 82bd
000003e0: 366c c33c 7de9 dd3c e630 5f3d ab24 1fbc
000003f0: 6014 443c 2eba dd3d d4dd b03b 3c95 11be
-0.17412645 -0.043157026 -0.10872503 0.023582265 -0.12830697 0.16430725 -0.026283683 -0.016945513
0.041901942 -0.026212165 0.02875798 -0.07255203 -0.02545315 0.008200255 -0.07874968 -0.02423236
0.13170396 0.025518352 -0.00019315827 0.011404554 0.010179944 -0.041478373 -0.0064583817 0.077200115
0.003734427 -0.054625105 -0.083990976 0.042344365 0.06402948 -0.09330965 -0.19450782 -0.17548883
0.007314537 -0.031421814 -0.2946858 0.010034693 -0.10076289 -0.04499248 0.046174858 -0.034187198
0.16678926 0.01824846 0.028193178 0.13972245 0.054073464 -0.050575335 0.063172914 -0.002572466
-0.0072946316 -0.019515347 -0.1642111 -0.062720194 0.06368501 0.0018537224 0.04760016 0.20329693
0.05848157 0.15289702 -0.006117632 -0.06515877 -0.053587124 -0.22612055 0.010218601 0.01859323
-0.05358308 -0.13405976 -0.08782683 0.028508587 -0.27380854 -0.1858672 -0.045608293 -0.05216572
-0.039705038 0.09234691 -0.030843649 0.10354807 -0.090964235 -0.024662873 -0.13005546 0.06863697
0.0009513311 -0.00903999 -0.03533125 0.057532787 0.085355274 -0.012614007 0.10808204 0.07434694
0.04216812 -0.047282364 0.025094165 -0.034084618 -0.08839184 0.052187223 -0.021221539 -0.0072102896
0.051582597 0.19271955 -0.12017594 0.10302917 -0.043576892 0.014904781 0.035003662 0.13614754
0.05591192 -0.022977762 -0.008741497 0.09825579 -0.03403066 0.011114544 -0.17834179 0.030706069
-0.0857632 0.0069861407 0.00049077364 0.0350181 0.21189779 0.094664834 0.31442893 0.28642723
0.1264359 0.08543402 0.08993654 0.10682197 -0.025570806 -0.13713051 0.04132732 -0.027790764
-0.04317201 -0.11215111 -0.06233912 -0.057475932 -0.19947837 -0.018735427 -0.018364176 -0.106267154
0.03053706 -0.089179136 -0.069518946 -0.05701822 0.168708 0.00038501003 -0.009943976 0.090590626
0.07826812 -0.07074012 0.021161225 -0.06389769 -0.082333475 -0.0729766 -0.11855039 -0.18653543
-0.007998502 -0.12349001 -0.1728725 -0.05731086 0.10892367 0.037759934 -0.0064564105 0.010314228
0.04878402 -0.04479648 0.03006993 0.06816731 -0.029570129 -0.08150072 0.059681978 -0.031153446
0.0006119237 0.03365818 0.018748313 0.05964405 0.09127416 -0.050975397 -0.05599376 -0.0008813294
-0.15431578 -0.06734438 -0.006011577 -0.047080535 0.027155418 0.0877177 0.06595676 0.012291091
0.06939055 0.02904089 -0.05607162 0.052449245 0.110416874 -0.035165753 -0.09882775 0.0075826235
-0.0830814 0.14929043 -0.025505729 0.081583016 0.1350792 -0.022329815 0.07241649 -0.0020814815
-0.057590198 -0.046606783 -0.0017993561 0.029320367 -0.032704785 -0.013883286 -0.15429527 -0.102444984
-0.27287608 -0.20583169 0.07109787 0.027428212 0.152087 0.07711085 -0.031172689 -0.024923196
0.11714146 -0.117224075 -0.077073336 -0.067861564 0.09894754 0.11261749 0.063035056 0.051893592
0.14145358 -0.08160422 -0.15455616 -0.116635166 0.035403244 -0.12542018 0.06255678 0.05786701
-0.17401403 0.06152106 -0.06479313 0.011659863 0.016576156 0.074394554 0.060526498 -0.07749258
0.039777588 -0.12352895 0.011577701 0.05935698 0.027020425 0.033324845 0.008383975 -0.06360538
0.02385531 0.027088875 0.054489993 -0.009713332 0.011967748 0.108265266 0.0053975377 -0.14217085

convolutional_layers.3.bias f4 [32]
00000000: 5514 003e 8ae7 9e3c 8194 5e3d 2491 81bb
00000010: 690a 3e3d 65d3 16bb 07b1 e13b acd5 97bb
00000020: 5118 463d cd71 d33c 7145 0d3d f65b 95bc
00000030: c2cb 4dbd 5d7e a4bd e7a3 4a3d 5530 623c
00000040: 89ae da3c 3d4f c8bc afac debb 6688 e2bc
00000050: f6ab 1d3c 6b0c 803c 04db e3bb 68d1 fabc
00000060: 205a 2c3b aafe d1bc 47a1 0b3d 1c83 d6bb
00000070: 6315 793a dab0 83bc 238b 2e3c e372 9abc
0.12507756 0.019397516 0.054340843 -0.0039540697 0.046396647 -0.0023014185 0.0068875584 -0.004633626
0.048363034 0.0258111 0.034490053 -0.018232327 -0.050243147 -0.080319144 0.049472716 0.013805469
0.026694553 -0.024451846 -0.006795488 -0.02765293 0.009623518 0.015630921 -0.006953599 -0.03061743
0.0026298836 -0.025634129 0.034089353 -0.006546391 0.0009501783 -0.01607554 0.01065329 -0.01885361

convolutional_layers.4.weight f4 [32]
00000000: b242 873f 040f 8b3f 2f0d 873f dc54 853f
00000010: 9f2f 873f 0989 8e3f 80db 6f3f bb4a 703f
00000020: d4b1 833f 3036 723f db7c 813f dce1 873f
00000030: 84ea 883f 59bc 853f 7308 873f e471 6b3f
00000040: 47c5 6b3f da0a 7b3f 7488 8c3f 2d5e 6a3f
00000050: afe5 733f 8837 863f 1276 833f 5cf4 853f
00000060: d1f5 613f f99b 823f 0f2c 783f 4a5c 8a3f
00000070: b6b2 6c3f a654 823f aba0 833f bad3 863f
1.0567229 1.0863957 1.0550898 1.0416522 1.0561408 1.113557 0.93694305 0.9386403
1.0288644 0.94613934 1.0116228 1.0615802 1.0696568 1.0448104 1.0549453 0.9197066
0.92097896 0.98063433 1.0979142 0.9154995 0.95272344 1.0485697 1.0270407 1.0465198
0.8826571 1.0203849 0.9694223 1.0809414 0.9246019 1.0182083 1.0283407 1.0533364

convolutional_layers.4.bias f4 [32]
00000000: 6742 20be 3a8f 9dbd 2c70 06be 1e4d febd
00000010: f40e 08be 3a08 cabd 0533 b9bd b533 5c3d
00000020: 2ddc f2bd 82ed cfbd 4ad3 44be 5995 b4bd
00000030: d709 01bd 6731 4abd 41c1 4bbd 2360 b0bd
00000040: 5ad6 00be 1e17 f0bc 55c9 68bd 98a1 32be
00000050: a842 0cbe 1db9 22be 2c2b 6bbd a161 b4bd
00000060: a418 d1bd aa52 18be 5008 33be 6c23 933d
00000070: 1d86 29be 4ea4 adbd 231f d7bd 047a 0ebe
-0.1565033 -0.07693334 -0.13128728 -0.12417053 -0.13286954 -0.0986485 -0.09042934 0.05376025
-0.118584014 -0.10152723 -0.19221225 -0.08817548 -0.031503525 -0.04936352 -0.04974485 -0.086120866
-0.12581769 -0.029307898 -0.05683263 -0.17444456 -0.13697302 -0.15890928 -0.05741422 -0.08807684
-0.10209778 -0.14875284 -0.1748364 0.071844906 -0.16555066 -0.08478604 -0.10503986 -0.13913733

convolutional_layers.4.running_mean f4 [32]
00000000: 2c0e 3abf 0e9c 94bf 785b 78bf 4f14 c0bf
00000010: 0ba4 79bf f31b b0bf 88f5 db3f 1943 823f
00000020: 3ad5 34bf 5b73 d73f 58fe 72bf a1b7 8abf
00000030: 9360 f2bf 9e78 75bf 0bf6 5abf d924 46bf
00000040: 39fe b6bd 8eb3 7f3d 4b27 e0bf d218 743f
00000050: 6df9 2fbf 2617 b6bf 1778 04be 574f b3bf
00000060: ea8c c43e 9755 10bf fdf1 113f f76a b5bf
00000070: cac0 403f 58cb adbf 6464 cdbf 82ef 9ebf
-0.72677875 -1.1610124 -0.9701457 -1.5006198 -0.97515935 -1.375853 1.7184305 1.0176727
-0.7063786 1.6832079 -0.9491935 -1.0837289 -1.8935722 -0.9588717 -0.8553168 -0.77399975
-0.08935208 0.062427096 -1.7511991 0.9535037 -0.6873997 -1.4225814 -0.12936436 -1.4008588
0.3838876 -0.563806 0.5700987 -1.4173268 0.7529417 -1.357768 -1.6046262 -1.2416842

convolutional_layers.4.running_var f4 [32]
00000000: 9c0e 973f 19f5 cb3f 88f6 923f b68b a03f
00000010: a732 8d3f 435f ec3f 5879 d83f 64aa e93f
00000020: 3727 b63f 8dae 9640 3061 cd3f ebf3 0840
00000030: 3745 ea3f 204f 8f3f a809 533f 6601 2f40
00000040: adbc 583f a095 843f 4fac 1d40 bdc3 cd3f
00000050: 6267 eb3f 1b71 1040 62b9 8a3f aed7 a53f
00000060: be06 ca40 bedb 133f 7563 0940 4741 3340
00000070: 141b 7c40 8067 b63f e55a 1940 85cb 9840
1.1801333 1.5934173 1.1481485 1.2542636 1.1031083 1.8466572 1.6912031 1.8255124
1.4230717 4.7088075 1.6045284 2.1398876 1.8302373 1.1196022 0.8243661 2.7344604
0.84662896 1.0358162 2.463642 1.607536 1.8390925 2.2569034 1.0837824 1.2956445
6.313323 0.57757175 2.1466954 2.8008592 3.9391527 1.4250336 2.3961728 4.7748437

convolutional_layers.6.weight f4 [16, 32, 5]
00000000: c300 cbbd 379d 1abe 7cc2 debc beb6 9d3d
00000010: 0152 6abd e595 bebc d074 8abd 78c3 38be
00000020: 7612 37be 5623 f7bd 3733 89be 033b 8ebe
00000030: e1a6 5e3d 2a7a bf3c 1163 13bd 403b edba
00000040: 965b d33b 0c93 1dbe a1b0 f73d e46f 033e
00000050: 04b9 3d3e c532 8d3d 6867 593c e6c7 303d
00000060: 051d ea3d b0be de3d 3770 b9bd a0ec 803d
00000070: 2c9d 803d c827 573e 102d 24be fd66 cd3d
00000080: 58ad 903c 7dd6 b33d 9a9e 15be da17 eebd
00000090: 5f66 79bd 4947 22be 11ba 18be 5b9e 75bd
000000a0: ac82 87bd 40c3 d9bd 0747 e83d a56a 6b3d
000000b0: 6b52 c43d 4b2d 2cbd 25ab b33d 6912 87bd
000000c0: 4a71 00be 0722 a73d 5e05 143d 21f9 083d
000000d0: b38a 06be a734 edbd 2995 d4bd b79a 843d
000000e0: be3c 0b3e 729c 3cbd 9b58 943d d306 6bbd
000000f0: e54e 60bc 2fc1 7ebd 84ca d1bd 81ad 95bd
00000100: 1c53 e43c 236e 54bd daeb a03c a154 85be
00000110: f842 7cbc ecf8 0bbe 9ec3 42be 53b5 05be
00000120: 3cf5 7cbe eb4d 15be 4e30 d5bd 333a 953d
00000130: 00bb 5cbd e8c7 88bc 809a 0dbe 3dfc 2fbe
00000140: f93d 4c3d c7b3 e5bd f6c5 11be 5d19 12bd
00000150: d9d0 113d a548 013e e226 5d3e cd97 553e
00000160: aa0e 2f3e 62b6 0ebd 0044 693e 0cb0 2f3e
00000170: a61a e13d d388 e53d 8593 693e 2d6c 80bd
00000180: 0871 253d 74c7 dd3b df08 0e3d 5c98 e53c
00000190: 2655 f43d 4d2c 8e3d 7dfd 94bd 624d c53a
000001a0: 224c f9bc cc2d a4bd 065c 16be 7807 11be
000001b0: 5fcd 02bd f2ef 62bd 377a 1abe 98ea 90bd
000001c0: 95a3 01be 8ece 24be 02b1 1f3d 88fc 1d3d
000001d0: 877f 2fbd 038a 83bd c24a a5bd 3ad7 24be
000001e0: 4917 0fbe 9665 a0bd 55cb 91bd e1d6 eb3d
000001f0: 32f8 23be 57bb f5bd e5fc 643d 23b9 7e3d
00000200: 3603 27be 59fe afbc 9a3f d63d bc40 303e
00000210: 1cce 85bd 368b 263e 8ac2 9abb e0e6 f8bd
00000220: 3920 91bd 564a f0bc c393 a7be 2f8d a3bd
00000230: 030d ab3d 34bb c43d 9af2 37bd 7775 2fbd
00000240: f661 25be 68f0 b3bd bd6d 543d a8fb 84bd
00000250: 76f9 153d 76cf bbbd ee30 86bd 8592 6fbd
00000260: d47f c3bd 29ed a03d 9fea cb3d 7d58 1bbd
00000270: 544f 65be 5a0c b0bd 08f0 86bc adbe 74bd
00000280: 63d1 6e3e 705f 523e fd42 263d 68c5 1e3e
00000290: 8060 863d 710d a03d 9413 f73d 4281 eabb
000002a0: f127 4d3e 3bd1 033e d718 d63d 9826 643e
000002b0: 1fd6 123e 1695 153e 615a 7c3c 6eb9 e13d
000002c0: 1f8a 473c 167a 74bd 1063 1bbe 5cd0 633e
000002d0: 5251 23bd 7d90 05be 872d 94bd 6889 ef3d
000002e0: 2fd9 3c3c 9fe4 58be 1963 dabd 1df2 ffba
000002f0: d475 50be 2c63 97bc e7d9 80bd 91a1 bbbd
00000300: 83f5 b23d bd73 3dbe 3041 52be 442e bebd
00000310: b7d6 28be e428 1bbe 0fca 6bbe c4fe 74be
00000320: fa04 2e3e e40b 30be feb1 f03c 80ab 3fbe
00000330: 6d52 16be 3e04 ac3c 7f28 d4bb 7335 eb3d
00000340: a1e6 0f3d e2a6 853d 0992 c2bd 0fc6 c13d
00000350: a9f0 1e3e af1b acbd c0ac 3fbd 3f63 d9bc
00000360: fa7c efbd 11dd 31be 2700 4dbe f66c 44be
00000370: a8b8 d9bc 92d1 fd3c bff0 e73d 4b01 04bd
00000380: e532 363e 402f 453c 5189 6bbd fe36 a5bd
00000390: ab8c 77bd 1ff9 5a3e 61c6 83bd 6b84 c1bc
000003a0: 544c 29be 903e bb3c f371 03bd 4326 33be
000003b0: 6f1f ba3c 279b 77bd 4ef2 2f3d 68b3 a13d
000003c0: c290 a03c 7844 fa3d c8fe 6e3d 8ab6 883c
000003d0: e425 d93d 0034 013e 89cf f8bd f1bc 573d
000003e0: 3f91 9d3d 55b5 d0bd 483e 2bbc ca68 babd
000003f0: eeb9 e13d 1223 0dbe d149 653c 279e 28be
-0.09912255 -0.15099035 -0.027192347 0.07700871 -0.05720711 -0.023264835 -0.067605615 -0.18043315
-0.17878136 -0.12067287 -0.26796886 -0.27779397 0.054358367 0.023373682 -0.03598315 -0.0018099323
0.006450127 -0.15388125 0.12094236 0.12835652 0.18527609 0.06894449 0.013269283 0.043159388
0.11431316 0.108762145 -0.090546064 0.06295133 0.06279978 0.21011269 -0.16032815 0.10029409
0.017660782 0.08781145 -0.14611283 -0.11625643 -0.060888644 -0.15847506 -0.14914729 -0.059965473
-0.066167206 -0.10632944 0.113416724 0.05747475 0.095860325 -0.042035382 0.087728776 -0.06595308
-0.12543216 0.08160787 0.03613793 0.033440713 -0.13138847 -0.11582308 -0.103800125 0.06474822
0.1359739 -0.046047635 0.07243463 -0.057379555 -0.013690685 -0.062195953 -0.10243705 -0.07308484
0.02787166 -0.051862847 0.019643713 -0.2604113 -0.015396826 -0.13669175 -0.19019935 -0.13057451
-0.24702924 -0.14580505 -0.10409604 0.07286491 -0.053889275 -0.016696885 -0.13828468 -0.17186065
0.04986379 -0.112159304 -0.14235672 -0.03566872 0.035599563 0.12625368 0.21596864 0.20858689
0.17095438 -0.034841903 0.22779846 0.17157 0.10991411 0.11207738 0.2281018 -0.06270633
0.040390998 0.0067681614 0.03467643 0.028026752 0.11930303 0.069420435 -0.072749116 0.0015052969
-0.03043181 -0.080165476 -0.14683542 -0.14163005 -0.03193414 -0.05540461 -0.15085684 -0.07075995
-0.12660058 -0.1609442 0.038987167 0.03857091 -0.04284623 -0.06422808 -0.080708995 -0.16097727
-0.13973726 -0.07831876 -0.07118861 0.11515594 -0.16012648 -0.11998623 0.05590524 0.06218828
-0.16309819 -0.021483587 0.1046135 0.17212194 -0.06533453 0.16264042 -0.004722898 -0.12153411
-0.07086224 -0.029332321 -0.3272992 -0.07985913 0.08352091 0.09606019 -0.044909097 -0.042836633
-0.1615065 -0.08786088 0.051862467 -0.06493312 0.036614858 -0.091704294 -0.06552301 -0.05848934
-0.09545866 0.07857735 0.0995686 -0.037926186 -0.22393543 -0.08596106 -0.016471878 -0.059752155
0.23322062 0.20544219 0.04059123 0.15504992 0.06561375 0.07815064 0.12064281 -0.007156522
0.20034768 0.12872784 0.104539566 0.22280347 0.14339493 0.14607653 0.015402407 0.11021696
0.012178927 -0.059686743 -0.15174508 0.22247452 -0.039872475 -0.13043399 -0.07235246 0.1169613
0.01152639 -0.21180962 -0.10663433 -0.0019527111 -0.20357448 -0.018479906 -0.062915616 -0.09161676
0.08738234 -0.18501182 -0.2053268 -0.09286168 -0.16488157 -0.15152317 -0.23026298 -0.2392531
0.16994086 -0.17192036 0.029381748 -0.18717766 -0.1467988 0.020998117 -0.006474554 0.11484804
0.035132054 0.06525971 -0.0950051 0.09461605 0.15521492 -0.08403718 -0.046795607 -0.026536582
-0.11693759 -0.17369486 -0.2001959 -0.1918219 -0.026577309 0.03098372 0.113252155 -0.032227796
0.17792852 0.012035191 -0.057504002 -0.080671296 -0.060436886 0.21384095 -0.06434322 -0.023622712
-0.16533023 0.02285698 -0.032091092 -0.17495064 0.022720067 -0.0604507 0.04295569 0.07895547
0.019600276 0.12220091 0.058348447 0.016688604 0.1060293 0.12617493 -0.12148959 0.052670423
0.07693719 -0.10190836 -0.010451861 -0.09102018 0.110217914 -0.1378291 0.01399465 -0.1646658

convolutional_layers.6.bias f4 [16]
00000000: 617d 8bbd 98f8 c7bc 98a7 16bd bbee 98bc
00000010: a158 84bd 7fb1 62bd 2a3c b1bd 29bc e6bd
00000020: 5905 fe3a 687c 3abd 82b9 edbd 3306 bcbb
00000030: 5e6c 3bbd 962c f63b e0ca 5ebc 3d7e d1bd
-0.068110235 -0.02441053 -0.036780924 -0.018668523 -0.06462217 -0.055345055 -0.086540535 -0.112663575
0.0019380256 -0.0455288 -0.116076484 -0.0057380437 -0.045757644 0.0075126393 -0.013598174 -0.10229156

convolutional_layers.7.weight f4 [16]
00000000: bf0e 643f a03e 503f dc9a 513f 8ae7 5c3f
00000010: 0be7 5a3f 74f3 583f 5d8e 5f3f 9f99 623f
00000020: efa5 713f 2948 5b3f 9b8a 763f a348 3b3f
00000030: dc35 683f 9d7f 593f 45d6 603f f6c2 6e3f
0.89085 0.8134556 0.8187692 0.862908 0.85508794 0.8474648 0.87326604 0.8851566
0.9439382 0.8565698 0.96305245 0.7315771 0.9070718 0.8496035 0.8782695 0.93266237

convolutional_layers.7.bias f4 [16]
00000000: 7d79 11be da29 10be 6d03 46be f65c 4bbe
00000010: 05e0 19be 5a35 44be 4fd2 f2bd c765 81bd
00000020: 71be fdbd 66af 09be 2708 d2bd 024e 90be
00000030: bebb 0ebe 03db 28be ad99 29be 2965 44be
-0.142065 -0.14078465 -0.19337244 -0.1985968 -0.15026863 -0.19160977 -0.118565194 -0.063182406
-0.123898394 -0.13445815 -0.10255461 -0.28184515 -0.13938805 -0.16489796 -0.16562529 -0.19179215

convolutional_layers.7.running_mean f4 [16]
00000000: 313e b8bf 4eaf a2bd a4ec adbf aa2d 5abf
00000010: 7dab 81bf 50a7 83bf 86b5 40bf 9d23 34bf
00000020: 4f1f 3cbf e254 4dbf 3674 23bf bfd9 3a3f
00000030: 3a5b 42bf 6942 cabe 2e8f 34bf 5885 4fbf
-1.4393979 -0.07943593 -1.3587842 -0.8522593 -1.0130459 -1.0285435 -0.7527698 -0.7036684
-0.73485273 -0.80207646 -0.638492 0.72988504 -0.7592045 -0.39503792 -0.70530975 -0.8106284

convolutional_layers.7.running_var f4 [16]
00000000: 877a 1b3f 7c26 673f 0902 533f 0a71 6f3f
00000010: 1f93 303f e9b1 523f 1e24 2d3f 0426 3a3f
00000020: fef0 6b3f d856 fc3e d560 2e3f 215e cb3f
00000030: abc8 073f 3690 293f 0e42 283f b07a 153f
0.60733837 0.902931 0.8242498 0.9353186 0.6897449 0.8230272 0.67633235 0.7271426
0.921646 0.49285007 0.68116504 1.5888101 0.5304057 0.66235673 0.6572579 0.5839033

output_layer.weight f4 [11, 3008]
00000000: 8989 a3bd 7ac7 153c cc45 053d 30cb 713c
00000010: 4c31 0b3d 53ae 983d be96 423b dc81 bbbd
00000020: 1721 f4bd b312 1b3d 6e8e 0dbd 3ede cebd
00000030: eccf a8bd cf89 61bd c3e4 89bd 4ac1 d73b
00000040: f00f 94bd e12f d0bc c6ea 29bc f5ea 8d3c
00000050: 6c83 953c bcc9 99bd a654 31bd 97a4 363c
00000060: 0756 d03c 2cc5 ac3d cefc 5f3c e3da ae3b
00000070: 54a2 5bbd 8450 18bc 77fa b6bc 7edb 363d
00000080: 3637 ec3b 0af0 323d 3e6b 603d db6f 543d
00000090: 8f40 56bc ab9d 653d d730 10bc c831 6ebd
000000a0: 1c4e 34bd b945 9ebd 089a 4fbd f839 1a3d
000000b0: 3997 933d 5287 913d a6b6 0cbb 57c7 36bc
000000c0: 5154 053b efed bfbb 42ac c53c 9f96 edbd
000000d0: 5289 f1bb 1ab0 6fbd 97b5 59bc d9af 903d
000000e0: 1aa2 f0bb 2195 6ebd e282 0abd c770 90bd
000000f0: d900 543c b2a2 b3bc 703f b6bd 3e98 f7bd
00000100: a56c 0abe 5f65 3dbd 27dc 06be 7b77 1abe
00000110: 12cf b7bd 0481 19bd 7316 0bbd dd20 0bbe
00000120: e4ba 48be 53c5 f1bd ae64 e0bd c042 16be
00000130: 4744 2fbd b9e0 8dbd 03d9 3cbd 7bc5 ec3c
00000140: ffa2 2dbd a9f9 59bc 6369 dabc 9640 81bc
00000150: 68e8 c13c e455 1c3c 0749 d8bc 416c 623d
00000160: 48ec 12bd 8053 85bd 6c0f 98bd 9040 4cbd
00000170: 4fed 353b c5e0 043d b550 3cbc edcb 7cbb
00000180: eb73 22bd 0260 a7bd 4c35 b3bb 38c3 16bd
00000190: 53d8 a4bd 0fe8 0b3d 3b87 893d 7425 a1bc
000001a0: ed42 02bc 0795 9b3d 2ad5 49bd 1437 73bb
000001b0: 0e9b 6cbd d07c 2b3d eb34 0b3d b0af 96bd
000001c0: 9002 8abd 0e53 c2bd 2195 06be a3c9 5fbd
000001d0: fd10 bcbd 30f1 343c 9554 033c 0ede 453d
000001e0: ae7c 9abc 35bc e8bd 7470 07be cc5c 863c
000001f0: dd86 053d 2751 c439 a94b c33a d008 38bd
00000200: c851 06bd 7e3f 40bd c69d 8f3c ea00 2e3d
00000210: 5e52 b6bc 6eec 973d a0a2 c13c 8e74 08bd
00000220: a1e7 4fbd d9e7 45bd 9485 1a3d 38e2 afbc
00000230: 265e 903c 1f77 39bd 625a 8bbd b792 ae3d
00000240: 4e24 6a3d d77c b53d c1b3 a13c 5b21 e8ba
00000250: 9911 433d 3c7c 1e3d 0a30 94bd 8986 41be
00000260: 4221 ccbc e19e fbbb 0df5 9dbc b231 babd
00000270: e9e8 beba 0374 50bd 2eb3 0dbd 62c9 15be
00000280: db07 88bd 8dd4 5fbd 7a19 d2bd f87d 82bd
00000290: c0cd 19be 1be7 babd 874f 3fbe 098a 3ebe
000002a0: 0531 28be c393 b4bd 9a1f a1bd 5e8c 2bbe
000002b0: e77f 3dbe dc25 96bd 9172 11be 80a0 0cbe
000002c0: a2e1 a8bd a093 37be d14a e7bd d63a f9bd
000002d0: 6646 83bd fb80 69bd 1a23 ffbd ec0d cdbd
000002e0: 4b67 edbd c19c 24bd 4772 efbd 7ff4 a7bc
000002f0: 7b6b aa3d d42b 863d 1564 793d b482 7b3d
00000300: 7811 a4bc 21f6 113d ba92 83bc d4fe 993b
00000310: 29d2 6d3d f48c 9b3d 410c 613c 5616 9d3c
00000320: 0491 593d 0926 ca3c f415 343d 298f c73c
00000330: a600 9b3c 99b0 d83c 13b6 ae3d a42c 313d
00000340: 32c4 dc3c 3c76 febc 2e46 86bc db0a ae3c
00000350: 0750 593b 97e7 ea3c 3784 253d 0086 473d
00000360: 00b8 c33c 2c98 a03d b3b6 9f3c e5b9 f53c
00000370: d59e f63b 0813 6c3c 8fc4 a93c bc74 fa3c
00000380: c6ec 0f3d 3f5e 413d 8c7c 523d a680 1f3d
00000390: 3c08 ec3c 624b 9f3b a963 773d b398 bfbc
000003a0: b2ff bc3c 923d 4b3d edff 193c 03a4 0c3d
000003b0: cb06 993c 293b ad3b 9bc7 503d 46c2 ad3d
000003c0: 32b9 1c3d 8bbd 443d 82d2 a03c 5acd ba3d
000003d0: 138f cb3c 96ed 563d bfb7 703d 2a12 b33d
000003e0: b43e 263c c3f2 1d3d f588 863c 9660 9bbc
000003f0: a0e3 703d 7bc0 563d f5a7 593d 9509 b33d
-0.07985217 0.009141797 0.032537267 0.014757916 0.03398256 0.07455125 0.00296919 -0.09155628
-0.11920374 0.03785963 -0.03455966 -0.10100983 -0.08242783 -0.055063065 -0.06733086 0.006584321
-0.07229602 -0.025413455 -0.010370916 0.01732395 0.018251143 -0.07509181 -0.043293618 0.01114764
0.025431646 0.08436045 0.013671113 0.005336152 -0.053621605 -0.00929654 -0.022336228 0.044642918
0.00720873 0.04368595 0.054789774 0.051864486 -0.013076915 0.056058567 -0.008800707 -0.058152944
-0.044019803 -0.07728142 -0.050684005 0.03765294 0.07206578 0.071058884 -0.0021471172 -0.011155925
0.0020344446 -0.0058572213 0.02412999 -0.11600994 -0.007371106 -0.058517553 -0.013287923 0.0706479
-0.0073435428 -0.05824769 -0.033816226 -0.070527606 0.012939655 -0.021928165 -0.088988185 -0.12089585
-0.13518007 -0.046239253 -0.13169919 -0.1508464 -0.089750424 -0.037476555 -0.033956956 -0.13586755
-0.19602543 -0.11805215 -0.10956703 -0.146739 -0.042789724 -0.06927628 -0.046105396 0.02890276
-0.042391773 -0.0133041525 -0.02666158 -0.015777867 0.02367039 0.009541962 -0.02640201 0.05527902
-0.035869867 -0.06510067 -0.074248165 -0.04986626 0.0027759855 0.03244092 -0.011493851 -0.0038573698
-0.03966133 -0.08172609 -0.005469 -0.03680727 -0.08049073 0.034156855 0.06715246 -0.01967118
-0.007950527 0.07596784 -0.049275555 -0.0037111687 -0.05776506 0.041867077 0.033986013 -0.073577285
-0.0673877 -0.09488498 -0.13142826 -0.054635655 -0.09182928 0.011043832 0.008015771 0.04830747
-0.01885828 -0.11364023 -0.13226491 0.01640167 0.03259932 0.00037444496 0.0014899868 -0.04493028
-0.032792836 -0.04693555 0.017531287 0.04248134 -0.022256073 0.07418142 0.023637116 -0.03331428
-0.050758008 -0.04831681 0.037725046 -0.021470174 0.017623018 -0.04527962 -0.068043485 0.085240774
0.05716353 0.08861702 0.019739034 -0.0017710136 0.047624204 0.038692698 -0.07235725 -0.18898977
-0.024918202 -0.007678852 -0.019281888 -0.0909151 -0.0014565262 -0.050891887 -0.034594707 -0.14627603
-0.06642123 -0.054646064 -0.102587655 -0.06371683 -0.15019894 -0.09126111 -0.18682681 -0.18607344
-0.1642495 -0.08817246 -0.07867356 -0.16752765 -0.18505822 -0.0733144 -0.1420386 -0.13733101
-0.08246161 -0.17927408 -0.11293567 -0.12169425 -0.06409912 -0.05700777 -0.12457867 -0.10012421
-0.11591967 -0.040188555 -0.116917185 -0.020502327 0.083212815 0.06551328 0.06088646 0.061403945
-0.020027861 0.035635117 -0.016061176 0.0046995673 0.058061752 0.07595244 0.013735832 0.01917569
0.053116813 0.02467634 0.04396625 0.024360256 0.018921208 0.026451396 0.08530822 0.043255463
0.026949022 -0.031062238 -0.016390886 0.02124541 0.0033159272 0.028674884 0.040409293 0.048711777
0.023891449 0.078415245 0.019496297 0.029995868 0.0075262585 0.014408834 0.02072361 0.030573241
0.035137914 0.04720902 0.05138831 0.038941048 0.02881252 0.0048612813 0.060397778 -0.023388242
0.023071144 0.049619265 0.009399396 0.0343361 0.018679997 0.0052865935 0.05097161 0.0848432
0.038262554 0.048032325 0.019631628 0.09121199 0.024848497 0.052472673 0.058768984 0.08743699
0.0101467855 0.038561594 0.016422728 -0.018966954 0.05881083 0.052429657 0.053138692 0.08742062

output_layer.bias f4 [11]
00000000: f089 be3d 8bdb 1dbd 9aa6 25bd cbbe a13a
00000010: 024a 46bd 5c20 a3bc 3eaa a23c 3e30 82bd
00000020: e710 09bd 4cd9 0f3d 4636 b83d
0.09303653 -0.03853945 -0.040442087 0.0012340186 -0.048410423 -0.019912891 0.019856568 -0.06356858
-0.033463385 0.03511934 0.08994727
